best_model.pt (torch, 214194 bytes, 9 tensors)

lstm.weight_ih_l0 f4 [256, 11]
000000 96 99 1e be ee 40 36 3d 38 82 d9 bb 96 35 bc 3b
       -0.15488276 0.044495516 -0.0066378377 0.0057436926
000010 97 e8 81 3d 81 3e 36 bd 40 b4 90 3d 19 c3 02 bc
       0.06343191 -0.044493202 0.0706563 -0.007981085
000020 4b c7 56 bc cd 6e 1a be 1e c4 96 3d 66 50 e1 bd
       -0.013109039 -0.1508133 0.07361625 -0.11001663
000030 66 af 03 bd 0c 21 14 be 92 e1 08 be a0 66 b9 bd
       -0.032149695 -0.14465731 -0.13367298 -0.09052777
000040 9c a9 a3 bc d0 4f 14 bc 10 99 da bd 12 1b fa bd
       -0.019978337 -0.009052232 -0.106737256 -0.122121945
000050 01 69 d8 bd ef ff 01 3d 8f b9 1a bd 22 00 3d 3c
       -0.10566903 0.031738218 -0.03777462 0.011535676
000060 fc f1 a5 3d de ea 08 be e8 1b 7f 3c 7a 70 25 bd
       0.081027955 -0.13370845 0.015570618 -0.04039047
000070 99 aa a8 3d 77 4e 6e 3d d4 6d 60 bd 7f f3 f2 bc
       0.08235664 0.0581803 -0.05479224 -0.029657124
000080 75 e8 aa bd 8c 78 18 bd 64 85 04 be 79 7c b6 bc
       -0.08345119 -0.037224337 -0.1294151 -0.02227615
000090 36 24 a1 3d b7 2a 3d bd 5b 16 ef 3d 43 16 58 3d
       0.07868235 -0.046183314 0.11674186 0.052755605
0000a0 f2 52 37 3d c8 af bc bb 6a 62 14 be 00 b7 e1 bd
       0.044756837 -0.0057582594 -0.14490667 -0.110212326
0000b0 26 c8 ad 3d ef 83 a9 bd d2 16 95 3d 9f f9 a0 3a
       0.08485441 -0.082771175 0.07279743 0.0012281424
0000c0 67 79 04 bd 7d 95 b3 bd 82 a6 85 bd df 45 0e 3e
       -0.03234234 -0.08768747 -0.065258995 0.13893841
0000d0 43 71 9a bc 9b 36 12 3d 9b 09 f4 3d f3 72 78 3d
       -0.018852836 0.035696607 0.119158946 0.0606565
0000e0 68 ca 4f 3d c1 73 32 3d 8a 18 f4 bd 78 a6 ae 3d
       0.05073014 0.043567423 -0.11918743 0.08527845
0000f0 bb 80 e7 3d 4e ee 67 3c da 9e 97 ba f6 da c0 3d
       0.1130385 0.014155937 -0.0011567727 0.094167635
000100 c3 75 06 be 7b 96 ce 3d 88 06 ac bd 7f 8d 3f bd
       -0.1313086 0.100872956 -0.08399683 -0.0467658
000110 5c 5d f5 bd ee e8 06 be a0 e5 ed 3d 52 32 f1 3c
       -0.119806975 -0.13174793 0.11616063 0.02944294
000120 10 eb 6e 3d 93 91 1f bc 41 e8 89 3c 25 20 0a bd
       0.05832964 -0.009739297 0.01683438 -0.03372206
000130 df 29 88 3d 68 89 ad bd 69 44 62 bd 9f 83 e4 3d
       0.06648611 -0.08473474 -0.055241022 0.11157917
000140 d6 72 7b 3b d9 fa 72 bd 00 4a 3a 3d 8b ce ab 3d
       0.0038368008 -0.05932126 0.04548073 0.08389004
000150 fa ec d4 3d 16 67 03 3e e9 b9 5c 3d c2 3d bb 3d
       0.10396762 0.12832293 0.053888235 0.09142639
000160 23 88 f7 3c 55 24 8b bd e6 9c ef bd e2 39 18 3d
       0.030216282 -0.06794039 -0.11699848 0.037164576
000170 96 cb a6 bd 90 2c 1f 3d 4c d4 bb bd e8 64 05 be
       -0.081443 0.038860857 -0.09171352 -0.13026774
000180 9d 2a 3c 3c 50 f4 74 bc 2e 72 26 be 4b ad c1 bd
       0.011484769 -0.014950827 -0.16254494 -0.09456881
000190 1e 77 d9 bd bf 2a 79 bd 92 64 d1 3d 70 17 03 be
       -0.10618423 -0.06083178 0.102242604 -0.1280191
0001a0 ba df 92 bc 05 58 b3 bd bc 82 8e 3d ec 2f 99 3d
       -0.017928947 -0.08757023 0.06958529 0.074798435
0001b0 75 4e 54 3e aa 1c 53 3d 84 45 22 bd 25 30 13 be
       0.20733054 0.051541008 -0.039617077 -0.14373834
0001c0 61 08 bb 3b 03 a9 d5 bd 16 f1 9d 3d 6e e6 16 be
       0.005707786 -0.10432627 0.07711999 -0.1473634
0001d0 c7 64 be bd 13 3d d3 bd 95 5a 31 bd f8 14 1b be
       -0.092965655 -0.10314383 -0.043299276 -0.15144718
0001e0 a4 c5 7a 3b bb 5c 8b bd 67 7e 60 bd 8b 03 e1 3d
       0.0038264776 -0.06804796 -0.054808047 0.10987004
0001f0 7f 1f 77 bc a2 1b b0 bd e1 ef ea bc cf 21 b6 bd
       -0.015083193 -0.085990205 -0.028678836 -0.08893167
000200 2f 45 3c 3d c6 93 ef 3d de 51 38 3e 55 2d 12 bc
       0.045964416 0.116981074 0.1799998 -0.008921941
000210 1c 31 03 3d d8 2f 44 3d f5 a0 bb 3d 55 94 d1 bd
       0.032029256 0.04789719 0.091615595 -0.1023337
000220 ba 23 ba bc ad c1 cf 3d 4c a4 ad 3d d9 7c 09 3d
       -0.022722114 0.101443626 0.08478603 0.03356633
000230 62 d6 65 bd 64 ee be bd 5d 05 88 bd 09 5a 3f 3d
       -0.056112655 -0.09322813 -0.06641648 0.046716724
000240 95 3d 91 bd 2f 87 29 bd 31 23 6a bd f3 2f a2 bd
       -0.07091824 -0.041388687 -0.057162467 -0.07919302
000250 34 5b 60 3d 1a 29 07 be b4 57 84 3d 45 85 4a 3d
       0.054774478 -0.13199273 0.064620405 0.049443502
000260 3c b7 74 bc e7 92 45 3c 5f 5b 45 3c 83 e0 9d 3a
       -0.014936265 0.01205895 0.01204571 0.0012045059
000270 06 04 d6 bd 5b 0f a0 3d 37 6b e2 3c e6 13 d0 bd
       -0.10449986 0.07815429 0.027639015 -0.10160045
000280 9e e6 c7 bc ad 73 6e bd a1 e8 f2 bd 76 98 c1 bd
       -0.024401959 -0.058215786 -0.11860777 -0.09452908
000290 1a d4 98 bd f9 d7 cf bd c3 f4 80 3d b9 a1 3a bd
       -0.0746233 -0.101486154 0.062966846 -0.045564387
0002a0 50 e2 bd bd f4 95 60 3d 7e b2 f7 3d f7 1b 4f bd
       -0.09271681 0.054830506 0.120945916 -0.05056378
0002b0 98 c8 05 3c 44 d2 93 3d 25 b7 84 3d 07 cb c0 bd
       0.008165501 0.07217839 0.064802445 -0.094137244
0002c0 ee 66 24 bd 50 97 46 bd 7e 80 18 be 46 74 63 bd
       -0.040137224 -0.048484147 -0.14892766 -0.05553081
0002d0 79 1f 9f bd 20 c2 6c 3c 41 c2 a0 3c 98 41 97 bd
       -0.07769675 0.01445058 0.019623877 -0.07385558
0002e0 94 83 0d be 3e 62 83 bd 6b 33 e4 bb 93 d9 ee bd
       -0.13819724 -0.064152226 -0.0069641373 -0.11662593
0002f0 be 87 cd 3d c7 4d d9 bc 16 3c e4 3d 65 cc e2 bd
       0.100356564 -0.026526345 0.11144273 -0.110741414
000300 f6 b8 e3 bc 0b 5c df bc cf 9b 62 bd 4c e0 65 3d
       -0.027798157 -0.02726557 -0.055324372 0.05612211
000310 31 3e 9b bd c0 b3 57 3d 2e 2f 03 bd b3 b0 e1 3c
       -0.075802214 0.052661657 -0.032027416 0.027550077
000320 52 b2 c4 bd e2 ca 00 bc 44 ea 52 bd 6c d5 93 bb
       -0.096043244 -0.007860871 -0.051492944 -0.004511526
000330 20 7f 8e bd dc 58 c6 3b c7 22 d7 bc 3d e9 d9 3c
       -0.06957841 0.0060530733 -0.0262617 0.026600474
000340 b9 0a d7 3d e0 7f fe bc f7 cc b1 3d 1b 5e 21 bb
       0.10500092 -0.031066835 0.08681672 -0.0024622742
000350 13 73 ca 3d 45 d5 99 bc d5 3d 97 3d fd 34 0d 39
       0.0988523 -0.018778453 0.073848404 0.00013466548
000360 25 fd 9e 3b 6d cc 8d 3d 52 9b a8 bc 97 3d 0d be
       0.0048519545 0.06923757 -0.020581875 -0.13793026
000370 8c 11 2a bd 93 24 0c 3d 07 2f 04 bc f1 dc db bd
       -0.04152064 0.034214567 -0.008067853 -0.107355006
000380 3a bd fd bc bf d9 be bc b0 0e 45 3d 27 1b 1d be
       -0.03097402 -0.023297189 0.04810971 -0.15342389
000390 04 84 13 be 1a 1b da bd 75 a6 9e 3c f8 30 b4 3d
       -0.14405829 -0.106497005 0.019366482 0.087984025
0003a0 8b aa cf bd 2c ae a4 bd 30 9f 95 3d 73 18 c1 3c
       -0.1013995 -0.08041033 0.07305753 0.023571229
0003b0 a4 1f 1b be 55 9b f9 bc f2 01 81 3d 44 67 49 3d
       -0.15148789 -0.030469576 0.06299199 0.049170747
0003c0 c1 ab 81 bc 38 1d 00 bc 61 84 8c 3d 06 90 8a bd
       -0.015828969 -0.007819466 0.06861187 -0.067657515
0003d0 90 73 60 bd fd 6a cc 3c 88 12 54 bd d4 36 83 bc
       -0.05479771 0.02495336 -0.051775485 -0.016017355
0003e0 88 c2 e3 3c f3 ce a1 bd da 1e ad bd f7 ce 10 be
       0.02780272 -0.079008006 -0.0845315 -0.14141451
0003f0 ce 07 ec 3c be 2a 4f 3d 73 23 79 3d d6 0d 09 3c
       0.028812315 0.05057787 0.060824823 0.008365115

lstm.weight_hh_l0 f4 [256, 64]
000000 17 14 93 bd 75 e2 33 3d 17 4d 47 bd ac 89 d2 bd
       -0.07181566 0.043917138 -0.048657503 -0.10280165
000010 f6 0d ad bd 65 c4 e1 bd ac d1 75 bd e1 f2 80 bc
       -0.084499285 -0.110237874 -0.06001441 -0.015740814
000020 cf f7 c7 3d 45 86 da 3d 6b 6f a7 3a ce fe c0 bd
       0.097640626 0.10670141 0.0012774294 -0.094236
000030 32 13 9f 3c 62 21 db bd bb 82 8f bd 61 34 df 3d
       0.019418333 -0.10699727 -0.07007357 0.10898662
000040 bc 4b a9 3d a8 fd 08 3d 79 a5 c5 3d b4 32 45 3d
       0.08266398 0.03344503 0.09650702 0.048144057
000050 08 9f 20 bd 5f 97 4b bd 82 d2 37 3d 5f 27 88 3c
       -0.039214164 -0.049704906 0.04487849 0.016620336
000060 98 cf df 3d 9d f3 de 3b 91 7d 91 3d 32 e0 36 bd
       0.10928267 0.0068039433 0.07104028 -0.044647403
000070 06 c4 67 bd ee d5 21 bd 72 5a 82 bc 04 7a 2c 3d
       -0.056583427 -0.03951066 -0.015912268 0.04210855
000080 48 0c 21 3d 76 2e 48 bd 22 e5 4a bd 36 0d f9 3c
       0.039318353 -0.048872434 -0.049534924 0.030401807
000090 fe 2e 41 3d aa 74 c1 bd 05 92 5f 3d 4d d7 a3 bc
       0.047163956 -0.0944608 0.054582614 -0.020000124
0000a0 02 ab eb bd 11 a6 f8 bd 2c 1b 31 3d 85 2d 2b bd
       -0.115072265 -0.1214105 0.043238804 -0.041791458
0000b0 46 5e 7b 3d ed 86 9a bd 8f 77 42 3d b7 79 44 3b
       0.061369203 -0.07545266 0.0474773 0.0029979774
0000c0 db c3 99 bb 55 f1 ce 3d 81 d0 dd bd 75 49 b5 bc
       -0.0046925372 0.10104624 -0.108307846 -0.022129754
0000d0 b9 ee 4b bd 16 26 04 be 68 00 80 bd d0 09 03 3d
       -0.04978821 -0.12905154 -0.062500775 0.03199178
0000e0 63 0c 5c bd fa bd 8a bd 35 13 4c bd 3a e4 dd 3d
       -0.05372275 -0.067745164 -0.049823005 0.108345464
0000f0 76 24 ce 3d ce 89 5f 3d d7 32 58 3c 37 84 38 3d
       0.10065548 0.05457478 0.013195715 0.045047965
000100 c0 99 23 3c f6 98 b7 bd 34 ed ca 3d 1d 97 36 3d
       0.009985387 -0.08964722 0.09908524 0.044577707
000110 a6 70 cb bd de 28 e2 3d f2 05 8a 3c 8c 57 ec bd
       -0.09933595 0.11042951 0.016848538 -0.11540136
000120 39 c9 ef bd c1 61 a4 bd e5 89 0e 3d d3 31 89 bd
       -0.11708302 -0.080264576 0.034799475 -0.06698956
000130 e0 70 0d 3c e7 4a c5 3d 67 90 10 bd 30 38 84 bd
       0.0086328685 0.09633427 -0.035293963 -0.064560294
000140 f9 31 d9 3c 62 1f d7 bd ae c8 ba 3d 1c 1a af 3d
       0.026513087 -0.10504033 0.09120308 0.08549902
000150 ee 6b 67 bd 79 ad 38 bd d3 e1 f4 3c 49 14 14 bd
       -0.056499414 -0.04508731 0.029892838 -0.036152158
000160 fb 89 9d bd 25 55 c5 3d e6 e6 f4 3d 0c 67 f5 3d
       -0.07692333 0.09635381 0.11958103 0.11982545
000170 bc d7 5d bc 59 6b e3 bd f5 2c 2e bd 64 ff 08 bd
       -0.013540205 -0.11104459 -0.042523343 -0.033446684
000180 b7 4b 13 3d 4f 4d c7 bd 66 b3 2b bd c2 56 06 3d
       0.03596088 -0.09731542 -0.041919135 0.032797582
000190 7e b1 08 3e e1 cc 3d bc f3 a5 bc bd ae f5 17 bd
       0.13348958 -0.0115844915 -0.0921134 -0.037099533
0001a0 86 f1 b3 3c 82 cf d3 3d cc 4d c8 3d 64 0d f4 bd
       0.021965753 0.10342313 0.097804636 -0.119166166
0001b0 86 26 90 3d 32 18 74 3d f7 51 9c 3d 1f 00 a2 3c
       0.07038598 0.059593387 0.07632821 0.019775448
0001c0 b9 74 be 3d 2a 2e fb bb 16 92 30 bd ac 6f f9 3d
       0.09299607 -0.0076654153 -0.04310807 0.12179503
0001d0 04 9e 32 bd c6 58 b3 3d 05 64 5a 3b 98 a3 bd 3d
       -0.043607727 0.087571666 0.0033323776 0.09259719
0001e0 a1 8d 8c bc a9 3c 36 3c d4 53 d3 bc c9 91 d2 bd
       -0.017157378 0.011122861 -0.025796808 -0.102817126
0001f0 c3 6f db 3d 44 81 c9 bd c6 39 a0 3d 1b 5b 5c 3c
       0.10714676 -0.098391086 0.078235194 0.013449456
000200 e1 42 0a 3d 59 21 af bd 30 87 40 3d 29 ad e5 bc
       0.033755187 -0.085512824 0.047003925 -0.02803667
000210 ee d2 6e 3c dc ec 9d 3d 33 23 e8 bd 2c ed d4 bc
       0.014576657 0.07711193 -0.11334839 -0.025991999
000220 05 db 5a bc a5 b7 ba 3d f3 4d 1d 3d 9a e2 4b bc
       -0.013357882 0.09117059 0.038404416 -0.012444163
000230 be 1c bd bd 88 83 93 bd c0 3a 80 bd 31 7e 86 bd
       -0.09233998 -0.07202822 -0.06261206 -0.06567038
000240 13 7d af bd 3c c0 fa bd fb 15 45 3d 7c 91 ac 3c
       -0.08568778 -0.12243697 0.048116665 0.021065466
000250 dd ee 8b 3d 44 26 7c 3d 27 fe 83 3d b5 8d 0a 3d
       0.06832669 0.06155993 0.0644496 0.03382655
000260 a3 9a 54 bd b6 0a ed bd 85 bd 0b 3c 59 0b 7d bc
       -0.051905286 -0.115743086 0.008529072 -0.0154446
000270 d8 23 9e 3d a2 b7 68 3c ab 48 d5 bc e5 06 11 3d
       0.077216804 0.014203938 -0.026035627 0.035406966
000280 6f ea b2 bd f4 4e 97 bd 44 5a 62 3d c5 d6 06 3d
       -0.08736121 -0.07388106 0.055261865 0.032919664
000290 d5 60 01 bd 86 09 aa 3c 1a c6 3e 3d 8d f1 f8 3d
       -0.031586487 0.020756494 0.046575643 0.12155447
0002a0 02 6a c3 bd f1 45 dc 3d c1 e3 a5 3d 8b 14 84 3d
       -0.09541704 0.10755528 0.08100081 0.06449231
0002b0 43 b2 2a bd 77 25 af 3c e3 73 6b bb d8 7e 18 be
       -0.04167391 0.02138017 -0.0035927228 -0.14892137
0002c0 7f 8f 7d bd bd cd f6 3d d9 bc c5 bd 71 54 e8 bd
       -0.061904427 0.1205096 -0.096551605 -0.11344231
0002d0 80 f4 8e bd 93 d8 ee 3d 21 36 7c 3c 47 6b 07 3e
       -0.069802284 0.11662402 0.015393765 0.13224517
0002e0 15 4f 69 3d 3d 53 87 bc b0 3a eb bd 8c 7d a3 bd
       0.056960184 -0.016519183 -0.11485803 -0.079829305
0002f0 00 59 af bd 88 45 6a bc 20 03 5a 3d 13 3a ca bd
       -0.08561897 -0.014298804 0.053225636 -0.09874358
000300 4a 30 62 3d 33 cd b2 bd c4 16 9a 3d 1e 3f e2 bd
       0.055221833 -0.08730545 0.075238734 -0.11047195
000310 7b 33 55 3d cf a1 35 3d 25 4a 93 bd a4 2b a6 3d
       0.05205105 0.044343766 -0.07191876 0.081137925
000320 6f 43 6f bd f8 ac 01 bb 17 e6 63 bd f0 f9 15 be
       -0.05841392 -0.0019786935 -0.055639353 -0.14646125
000330 c4 b0 10 3d 3c 5a ac 3d af a0 23 3d 05 56 22 3d
       0.035324827 0.08415648 0.03994816 0.039632816
000340 a0 56 b6 3d d8 b8 a4 bc b0 50 0e 3d f9 cf 36 bd
       0.08903241 -0.020107672 0.03474492 -0.044631932
000350 38 03 89 bd 23 79 89 bd e6 50 94 3d 99 86 99 bd
       -0.06690067 -0.06712558 0.07241993 -0.074963756
000360 f6 68 91 3d 37 26 97 bd 1f eb b4 bb 65 41 44 3c
       0.07100098 -0.07380336 -0.0055211927 0.011978482
000370 a9 79 03 3e 51 05 a7 bd 1b fc 9d 3d ab 21 96 bd
       0.12839378 -0.08155311 0.07714101 -0.073306404
000380 eb ce b1 3d 79 84 e4 bc 0e 6d 8d 3d d4 c7 6a bd
       0.086820446 -0.0278952 0.06905566 -0.057319477
000390 38 5d 95 bd 98 c5 3e bc cd b7 f3 bd e6 d5 be 3d
       -0.07293171 -0.01164379 -0.119002916 0.09318142
0003a0 51 a3 17 3d 4a 58 da 3d d5 96 3c bd 83 d1 98 bd
       0.037020985 0.10661371 -0.046042282 -0.07461836
0003b0 87 79 92 bd af ac 24 3d 5b db 4c 3d 9e 81 21 bd
       -0.07152086 0.040203746 0.05001388 -0.039430253
0003c0 f9 db ae bd 58 d3 dc 3d ae 56 8b 3d 1c 0f 8c 3d
       -0.0853805 0.10782498 0.06803642 0.068388194
0003d0 9d af ba 3d f1 ed 0c 3d 62 52 04 3e 67 9c 82 3c
       0.09115527 0.034406606 0.12922052 0.01594372
0003e0 a9 f7 21 3d 8f a2 94 bb 7d 2b 48 3d 9c 4e 13 bd
       0.039542828 -0.00453598 0.0488696 -0.03596364
0003f0 8f 1c e3 bd 4a e7 d3 3c 2d f5 9d bd 18 d7 92 bc
       -0.110894315 0.025867123 -0.07712779 -0.01792483

lstm.bias_ih_l0 f4 [256]
000000 65 0a 99 3d 9a 87 80 bd 8a 4f c0 bc d6 72 4e 3d
       0.07472686 -0.06275864 -0.023475427 0.050402485
000010 7d dd 78 bd 24 28 86 3c 71 ba d5 bd e2 24 f1 bd
       -0.060758103 0.016376562 -0.104359515 -0.11774613
000020 11 0e 3e 3d aa 60 aa bc 4a f2 83 3d 81 2a 72 3d
       0.046400134 -0.020798046 0.06442697 0.059122566
000030 e0 ee 0a 3a cd eb cf bd d7 67 35 3c 50 85 99 3c
       0.00052998774 -0.10152397 0.011072121 0.018740326
000040 fa 41 01 be 1a 02 c6 3d 96 91 dc 3c b1 50 78 3c
       -0.12622824 0.096683696 0.02692489 0.015155957
000050 21 4d 9d 3d 01 53 69 bd d0 d2 0a 3d b8 ad a2 3b
       0.07680727 -0.056963924 0.033892453 0.0049645565
000060 21 6c 5c bc 69 d6 30 3d 0c bf 54 3c 68 e7 bb 3d
       -0.013453514 0.043173227 0.012985002 0.091749966
000070 f4 dc c8 3c d1 35 0a 3d 26 e0 d7 bd a8 8c fa 3d
       0.024519421 0.03374273 -0.105408 0.12233859
000080 d5 d5 55 bd 48 b5 35 bb 0f ab 6d 3d 13 10 b9 bd
       -0.05220588 -0.002772646 0.058024462 -0.09036269
000090 f8 4a 86 3d 52 17 12 3d c6 cb 8c bd 82 4e 83 bd
       0.06557268 0.03566677 -0.06874804 -0.064114586
0000a0 08 7d 99 3c aa 48 cb 3d e3 6e 16 3d 86 91 02 be
       0.018736377 0.09925969 0.036726844 -0.12750825
0000b0 59 79 84 bd 70 58 80 bc d5 85 95 3d 10 87 d3 3d
       -0.06468458 -0.01566717 0.07300917 0.103284955
0000c0 85 f8 d3 bd d4 ad 7c bb 8f 30 6e 3d ba b5 3f 3d
       -0.10350136 -0.0038555758 0.058151778 0.046804167
0000d0 43 92 1a bb 43 b4 4d bd bf bc 7d bb e0 d9 23 bd
       -0.0023585714 -0.05022074 -0.0038717238 -0.040002704
0000e0 2a 7a 3e 3d 25 88 81 bd d4 aa f5 bd f1 2d 0c 3c
       0.046503223 -0.06324796 -0.119954735 0.008555875
0000f0 70 3e 8f 3d ff 06 e8 3d 77 31 30 3d fc 51 9a 3d
       0.06994331 0.113294594 0.043015923 0.075351685
000100 b8 78 21 3d c5 0e 8e bd c3 b8 ee bb 47 e7 85 bd
       0.039421767 -0.06936411 -0.007285209 -0.06538253
000110 a5 01 e2 bd 11 99 d0 bd 0a d3 f6 bd c0 f4 03 be
       -0.1103547 -0.10185445 -0.12051971 -0.12886333
000120 46 80 ec 3d 73 af 7f 3d 7c 7a 00 be 8f 94 00 be
       0.11547904 0.06242318 -0.12546724 -0.1255667
000130 37 eb 9d 3d 68 67 d8 3a 67 3b bf 3d 6a 9f ca 3c
       0.07710879 0.001651031 0.09337502 0.024734218
000140 d0 de 0d bd 86 4d 88 bd 0f f5 99 bc 26 e9 c2 bd
       -0.03463632 -0.066554114 -0.01879361 -0.09517126
000150 16 a2 a1 bd 2d 9a 3b bd 66 84 47 3d 2f 01 dc 3d
       -0.078922436 -0.04580133 0.04871025 0.10742413
000160 c8 d8 5b bc cb 45 40 3c c1 58 72 3d fd 1a a0 3d
       -0.013418384 0.01173539 0.059166674 0.078176476
000170 3a c8 92 bd cb f0 4e 3d 69 49 3c 3a 3d a2 06 be
       -0.071670964 0.050522607 0.000718257 -0.13147826
000180 97 f0 56 bd e9 49 c7 bd 04 39 b7 bd 87 73 be bd
       -0.052475538 -0.09730894 -0.08946422 -0.09299379
000190 d4 b3 4c 3d 12 91 f2 bd 15 11 92 3d 61 ca d3 3b
       0.049976185 -0.11844076 0.071321644 0.0064633344
0001a0 9e 48 2d bd 34 24 d3 3c 31 c6 cd 3c dc c8 a8 3d
       -0.04230558 0.025774099 0.02511892 0.08241436
0001b0 f3 7e 06 be b2 f7 53 3d 49 ef 84 bd 2c ad 9f 3d
       -0.13134365 0.051749893 -0.064909525 0.07796702
0001c0 e1 c6 62 3d e8 c4 6f bd 33 cd 72 3d d0 af 8b bd
       0.055365447 -0.058537394 0.059277724 -0.06820643
0001d0 ad 01 1c 3d f9 43 a8 bd 37 96 fb bd fe 1a cb 3a
       0.038087536 -0.0821609 -0.122845106 0.0015495715
0001e0 0c 5f 3a 3d 2c 84 db 3d f0 ba 16 3d 6e 0c dd 3c
       0.0455008 0.10718569 0.03679937 0.026983466
0001f0 6f 62 8d bb 94 1b 4d bd 25 9a a1 bb e6 7a f7 3d
       -0.0043147127 -0.05007513 -0.0049317055 0.12083988
000200 49 3a c7 3d 70 0f 34 bd 10 31 af 3d 92 6d 84 bd
       0.09727914 -0.043960035 0.0855428 -0.064662114
000210 95 d3 7a 3d f5 90 c4 bd 5c 75 24 be 8f 1f 86 3c
       0.061236937 -0.09597961 -0.16060394 0.01637247
000220 58 66 13 3e 4e 22 36 3d 7b 92 a9 bd 12 5d fd 3d
       0.1439451 0.04446631 -0.08279892 0.123712674
000230 5d a8 08 3e 74 85 8c bd c9 95 ca 3b 0d ba 31 bd
       0.13345475 -0.06861392 0.0061824066 -0.043390322
000240 ff 08 64 3d fc 3c c7 bc 6f ea d5 bc 56 0b c7 bd
       0.05567264 -0.024321072 -0.026112763 -0.09718959
000250 f9 db 2e 3d 58 b9 10 bb 89 ab f1 bc 2c 13 0e 3d
       0.04269025 -0.002208313 -0.02950074 0.034686252
000260 fa b1 d8 bd 92 84 be 3d b1 b3 14 be 04 2a d5 bd
       -0.10580821 0.093026295 -0.14521672 -0.104084045
000270 92 29 e4 bd f7 8d 94 3d a3 78 51 3d de 1e 02 3e
       -0.111407414 0.0725364 0.05114044 0.12707087
000280 1f c7 dc 3d 32 03 45 bd 35 51 96 3d 63 64 0c be
       0.10780167 -0.04809875 0.07339708 -0.1371017
000290 28 86 90 3d 3f 08 c1 bd e2 b5 96 3b 24 23 02 3e
       0.07056838 -0.09425401 0.004599319 0.12708718
0002a0 20 d5 c3 bd 92 b3 46 3d ab 88 53 3c 55 8b fa 3d
       -0.09562135 0.048511095 0.012911002 0.12233607
0002b0 ee 55 60 3c bf c7 83 bd 69 28 20 3d 68 8e 10 3e
       0.013692362 -0.06434583 0.039101038 0.14116824
0002c0 95 06 af 3d 32 55 9c bd 34 97 90 bd f5 35 84 bc
       0.08546177 -0.07633437 -0.0706009 -0.01613901
0002d0 6d 4c e4 3c 9e 1d 1a 3d 08 23 0e bd 54 43 11 bd
       0.027868474 0.0376259 -0.034701377 -0.0354646
0002e0 ca 6d f1 3d 21 83 19 be 7e ad da 3d b8 7a 1a 3d
       0.11788519 -0.14991428 0.10677622 0.03771469
0002f0 df 41 c5 3d d2 fc df bc e1 f1 9f bd 4b 5d b7 3d
       0.096317045 -0.027342234 -0.078098066 0.08953341
000300 e4 42 c2 bd d7 37 5c 3c 9d 41 4c bd 3b d9 28 bb
       -0.094854146 0.013441048 -0.04986726 -0.0025764245
000310 ba 95 ee bd af fc 02 3d db ea 5e 3c 69 a2 6b 3d
       -0.11649652 0.03197926 0.013605799 0.057527933
000320 4e 04 df bc e5 41 10 bd 85 bd 23 3d 90 e3 f4 bd
       -0.027223732 -0.035219092 0.03997566 -0.119574666
000330 51 c1 ba 3c 9f 0e 06 be 55 26 cf bd 51 c9 af 3d
       0.022797259 -0.13091515 -0.10114733 0.0858332
000340 96 e0 86 bd 56 c3 d6 bd d3 c2 41 3b ef 28 a2 3d
       -0.06585805 -0.10486476 0.0029565587 0.07917964
000350 a1 91 99 bd 15 fe 84 3c d8 37 e7 3d 60 d5 0a bd
       -0.0749848 0.016234437 0.11289948 -0.033894897
000360 53 72 a2 3d ec 09 26 3d 86 95 81 bd 66 73 a5 3c
       0.07931962 0.040536806 -0.063273475 0.020196628
000370 77 85 82 3d f2 38 db 3d 90 d3 b9 3c 7b a3 98 bc
       0.06373113 0.10704221 0.022683889 -0.018632641
000380 fe d5 4b 3d 6f 13 03 bd f5 32 78 bd 5f 10 8f 3d
       0.049764626 -0.032000955 -0.06059547 0.069855444
000390 a2 52 b6 3d 41 15 91 bd 63 31 3c 3d d2 f9 04 bd
       0.0890248 -0.07084132 0.045945536 -0.03246481
0003a0 22 d3 c0 3d 16 a2 45 3c c6 df 04 3e dc 36 b1 39
       0.094152704 0.01206257 0.12975988 0.00033800944
0003b0 40 14 95 3c 8c 0d a4 bc b4 91 7d 3d f7 c5 6d 3d
       0.018198133 -0.02002599 0.06190653 0.058050122
0003c0 a0 24 2e bd 31 06 06 bd 1c 85 99 bc 7b d2 f2 3c
       -0.042515397 -0.03272075 -0.01874023 0.02964138
0003d0 da 90 9d bd 66 ad cd bc 35 79 44 3d fd 7c bf 3d
       -0.07693644 -0.025107097 0.047967155 0.093500115
0003e0 f3 0b 1e 3d 0d 38 d5 3c 52 ae 4f 3d 8a f3 a1 3d
       0.038585614 0.026027704 0.050703354 0.079077795
0003f0 1d 1c a5 3d 03 ab e8 bd e1 5a 08 be bb ee 92 3d
       0.08062003 -0.11360743 -0.13315918 0.071744405

lstm.bias_hh_l0 f4 [256]
000000 07 73 a2 bd 9c 88 33 3c 78 10 19 bb 73 f5 d1 3d
       -0.07932096 0.010957863 -0.0023355763 0.10251894
000010 b2 77 88 bd 05 24 c4 bd ab c2 de 3d 1f 70 32 3d
       -0.06663455 -0.09577183 0.10876974 0.04356396
000020 5a b7 9a 3b 8c ab b6 bd b9 e6 e1 3d 99 3d 8b bb
       0.0047215642 -0.08919439 0.11030335 -0.0042492864
000030 e0 df 05 be 19 4a 55 bd b6 e1 2b bd 2f f8 91 bc
       -0.13073683 -0.05207262 -0.0419633 -0.017818538
000040 b5 8e 66 3d b6 09 e6 bc 8d c5 ed 3b 5a a4 08 3d
       0.05628844 -0.028080802 0.007256216 0.033359863
000050 db 23 87 3d 21 bd 9c bd fb f2 d5 bd 49 47 13 bd
       0.06598636 -0.07653261 -0.104467355 -0.035956655
000060 07 5d 97 3d 78 a1 92 3d 5a 51 02 be 80 87 8f 3d
       0.073907904 0.07159704 -0.12726346 0.070082664
000070 fa 64 0e 3c ac d2 08 bd 5e bb d4 3d b0 1b 55 3d
       0.008691067 -0.033404037 0.103873 0.052028358
000080 9f 86 20 bd 8d d4 ce bd 9c b5 7b 3d 5f 42 fd 3b
       -0.039190885 -0.100991346 0.061452493 0.0077288593
000090 a9 7b 99 bd 33 5d d3 bd 15 2d a9 3c d3 35 10 3d
       -0.074942894 -0.10320511 0.02065138 0.03520758
0000a0 5d 5b 63 bc df 77 6c bd 15 13 a4 3d 9f b5 31 3d
       -0.013876763 -0.057731505 0.08011452 0.043386098
0000b0 1b fa 4b bc 55 3a b2 3c da b8 eb 3d bc 36 a4 bd
       -0.0124497665 0.02175633 0.11509867 -0.08018252
0000c0 ed 51 e0 3d 36 1d 71 3d a6 0e 9d bc 08 93 fd 3c
       0.10953126 0.05886575 -0.019172024 0.030953899
0000d0 79 d7 bc 3d 25 10 c1 bd 56 70 ce 3d 65 15 dc bd
       0.09220786 -0.094269074 0.1008002 -0.10746268
0000e0 d2 44 13 3d 72 a0 54 3c 3d ab ee bc 11 18 d0 bd
       0.035954304 0.012977706 -0.029134387 -0.1016084
0000f0 06 7a f7 bd c3 7c e7 3c 54 bf 77 3d 18 94 d0 bc
       -0.12083821 0.028257733 0.0604852 -0.025461242
000100 45 84 96 bd fa 77 f2 3d 8f 1e 00 be 76 86 2a 3d
       -0.07349447 0.1183929 -0.12511657 0.04163214
000110 c4 f9 26 bd fa 64 1a 3d 5a 91 ac bd 71 18 3f 3d
       -0.04076554 0.037693955 -0.08426161 0.04665417
000120 f0 77 d7 3d 5e 6e a0 bd ed 13 d7 bd 30 4c 74 3d
       0.10520923 -0.07833551 -0.105018474 0.05964297
000130 53 79 e7 bd 47 af 83 3c f9 64 43 3d c1 15 fd bd
       -0.11302438 0.01607479 0.047703717 -0.12357665
000140 af c4 1e 3d 08 0c c9 3d cc 37 0f bd 8a 77 cf bd
       0.03876179 0.09816748 -0.03496532 -0.10130222
000150 42 17 84 bd 2b 37 2c 3d 64 35 b9 3c 5f 63 8d bd
       -0.064497486 0.0420448 0.022608466 -0.06903719
000160 8d 03 09 be 82 ad f8 bd 10 02 1d bc 46 36 8d bd
       -0.13380261 -0.12142469 -0.009583011 -0.068951175
000170 4c 34 96 bd 4a 27 a2 3d 64 79 70 3c 29 7c 33 3d
       -0.073341936 0.0791765 0.014677379 0.04381958
000180 b1 fa c8 bd 08 58 ce 3b 5e 9b 39 3b ce 79 04 be
       -0.098134406 0.0062971152 0.0028321366 -0.1293709
000190 24 de db 3d 24 1e e5 bd 53 0b 05 3d 3b c4 ef bd
       0.10735729 -0.111873895 0.032481503 -0.1170735
0001a0 75 72 01 bd 0e 9a a4 3d 65 19 99 bd 34 33 8c bd
       -0.031603295 0.08037196 -0.07475547 -0.06845704
0001b0 40 36 86 3d 60 c6 dc bd 57 44 eb 3d ad 7e d5 3c
       0.06553316 -0.107800245 0.11487644 0.02606138
0001c0 03 5b de 3d 4f 95 84 bd 1f db cb bd 31 8d 42 bd
       0.10857203 -0.06473791 -0.099539034 -0.047497932
0001d0 ee 84 8e bc 3b 59 97 3d fd 55 8f 3d 03 40 3a 3d
       -0.01739737 0.07390066 0.06998823 0.045471203
0001e0 0c 29 11 bd e6 c9 ba bb bb 90 88 3d 15 5f b6 3c
       -0.035439536 -0.0057003377 0.0666823 0.022262136
0001f0 88 f7 b0 3d e5 95 82 bd bb 4b 5f 3d 6d 78 ad bd
       0.08640963 -0.06376246 0.05451558 -0.08470235
000200 b6 a7 6f bd 41 40 05 bd 9f a2 e3 3c 0a 54 1f 3d
       -0.05850955 -0.03253198 0.027787505 0.038898505
000210 3a 76 bc 3d dc e4 ec 3d 80 50 e4 bc 28 9f 1a 3d
       0.092022374 0.11567089 -0.027870417 0.03774944
000220 7a cf 9c bd b8 3d fb bd 0d b0 93 3d 9d b7 81 bc
       -0.076567605 -0.12267631 0.072113134 -0.015834624
000230 66 80 06 bd f6 d9 99 bb 6e 5c a5 bd 1b e0 51 3d
       -0.032837294 -0.0046951724 -0.0807427 0.051239114
000240 fa 2b 44 3c 82 a2 52 3d f3 20 cf 3d 0d c8 38 3c
       0.011973375 0.05142451 0.101137064 0.011278165
000250 ca 91 42 bd ed 0c 5e bd 69 65 a9 bd 80 22 8d 3d
       -0.047502317 -0.054211546 -0.082712956 0.06891346
000260 20 4d d6 bd e8 2e ce bd 85 4f 3e 3d f7 b3 b1 bc
       -0.10463929 -0.100675404 0.046462554 -0.02169226
000270 35 a0 25 3d 4f 03 10 3e 82 dc 8b bd cb 15 07 3e
       0.04043599 0.14063762 -0.06829168 0.13191907
000280 fe 58 7b 3d 6d 94 8e 3d 33 11 05 3d a4 85 1e 3d
       0.061364166 0.06961904 0.032487106 0.03870167
000290 86 a4 b4 bd 8e 34 a4 3d 46 61 cf bd 81 cc a7 3c
       -0.08820443 0.080178365 -0.10125975 0.020483257
0002a0 ac 6a 3a bd 05 54 e6 3b 0f 8e 3f bd 1b 03 a1 bc
       -0.045511886 0.007029059 -0.046766337 -0.019654801
0002b0 99 24 f6 bd d2 ca 98 3d 42 c7 ce 3d 13 90 2a 3c
       -0.12018699 0.0746056 0.10096599 0.0104103265
0002c0 a4 b0 3c bc 81 cd 5d 3b c8 fa 9f 3d c3 6f 3c bb
       -0.011516724 0.0033844414 0.078115046 -0.0028753139
0002d0 f1 0e e7 bc b8 bb b7 3c 2f a1 7e 3b e5 bd 3d 3d
       -0.028205367 0.022428378 0.0038853397 0.046323676
0002e0 30 e8 b4 3c 4d 78 4c 3d b1 fc 15 bd d0 45 2e bd
       0.022083372 0.049919415 -0.03661794 -0.042547047
0002f0 1f b8 92 bd 29 a8 94 3b 75 40 d9 bc 63 91 12 bb
       -0.071640246 0.004536648 -0.026519993 -0.002236449
000300 33 24 67 b9 c4 61 c0 bc 2d 30 e9 3c 4c 41 9c 3d
       -0.00022043362 -0.023484118 0.028465355 0.07629642
000310 c4 0a c4 bb a9 ea 83 3d 81 83 3e 3d 4a 2e c0 bd
       -0.0059827287 0.06441242 0.04651213 -0.09383829
000320 da a4 85 3d 7a 5a f0 bd d0 d8 77 3b 29 0a 99 bb
       0.065255836 -0.11736007 0.003781844 -0.0046704006
000330 19 a4 d0 bd 12 c6 16 3b 07 da 19 3c 34 5b 34 bd
       -0.10187549 0.0023006243 0.009390361 -0.04403229
000340 4a a0 c3 3d 9a 72 84 3d 8b 34 e2 bd d1 60 d5 3d
       0.09552057 0.06467171 -0.11045178 0.10418857
000350 bf f8 cc 3c a6 4b 07 be 64 26 ad bd 2f d8 b5 3d
       0.025020955 -0.13212451 -0.08454588 0.088791244
000360 3f e0 12 be e9 e4 ad bd df c6 09 bd 44 73 ca bd
       -0.14343356 -0.08490927 -0.033636924 -0.098852664
000370 c5 ec 57 bc 4e 2b dc 3d 98 cb cc bd 2b 50 53 3d
       -0.013179009 0.10750447 -0.0999977 0.051590126
000380 cc 2f d9 bd 3f d0 ab bc 4d 8e 19 bd 8d d0 03 be
       -0.1060482 -0.020973323 -0.037489224 -0.12872525
000390 26 ff d5 3d e3 c1 78 3d 3e 8f 75 3d d0 ba 16 bd
       0.10449056 0.06073178 0.05995106 -0.036799252
0003a0 42 d8 fd 3c 80 ba 0a be dd b9 b5 3d 7b 17 93 3b
       0.030986909 -0.13547707 0.08873341 0.004488883
0003b0 10 bd 96 3c 6c 4f 10 bd 65 b4 92 bc 96 a0 8f bd
       0.018400699 -0.035231993 -0.017908284 -0.07013051
0003c0 32 2a 60 bc 70 1e 52 bd 02 43 a6 3b ba cf 89 bd
       -0.013681935 -0.05129856 0.005073906 -0.06729074
0003d0 18 0b f7 bd a1 d5 af 3d da c2 b4 3c 3f c8 01 bd
       -0.12062663 0.08585668 0.022065569 -0.03168511
0003e0 ee 7d 92 bb 2d 5f 05 3e 40 cf cd bd 15 93 7f bd
       -0.0044705784 0.13024588 -0.100492954 -0.062396128
0003f0 a1 51 a8 3d da b7 79 3d 9d a9 33 bd bc 12 f2 bc
       0.082186945 0.06096635 -0.043862928 -0.029549949

lstm.weight_ih_l1 f4 [256, 64]
000000 80 21 41 bd cc 84 d7 bd 8a 5a 9c bd 9c f4 70 bc
       -0.04715109 -0.10523376 -0.076344565 -0.014706757
000010 ba 44 72 3d 35 71 bb bc 27 8e 05 3e bb 33 39 bd
       0.059147574 -0.02288113 0.13042508 -0.04521535
000020 37 4c 2f 3d 38 08 c9 b8 8f ba 86 3d 85 d0 d4 bd
       0.042797294 -9.585958e-05 0.06578552 -0.103913344
000030 91 48 ef bd 07 9e fe 3c bd 29 28 3a e0 70 e1 3c
       -0.11683763 0.031081213 0.0006414911 0.027519643
000040 31 a3 83 bd 95 ff a2 bd 5a 00 03 be 27 86 0a 3d
       -0.06427611 -0.07958905 -0.12793103 0.033819344
000050 f3 b9 9b 3d 60 3b 05 bc 57 36 a7 3d 0d 34 b0 bd
       0.076038264 -0.008131832 0.081646614 -0.08603678
000060 30 91 33 3d 4c 38 ba 3d e1 d6 5b bd 61 b8 86 bd
       0.043839633 0.09092769 -0.05367172 -0.06578136
000070 ff b5 c3 bd 55 e2 7d 3c da b4 cb bd 64 87 8e bb
       -0.095561974 0.015495856 -0.09946604 -0.004349636
000080 e7 52 e5 3d 4b 9d 8d 3d 92 16 92 3d 2e 80 f7 3c
       0.11197453 0.06914767 0.07133211 0.030212488
000090 bf 7e 0a be eb a6 a3 bd 74 39 0f 3e cb 62 8b 3c
       -0.13524912 -0.079908215 0.1398676 0.017014882
0000a0 93 c7 d8 3d 59 ea de 3d 4a c4 5c 3d 85 17 c3 bd
       0.10584941 0.10884542 0.053898133 -0.0952597
0000b0 27 4e b2 3d 36 9f aa 3c 9b a6 38 bd fd 40 9a 3d
       0.087063126 0.02082787 -0.045080762 0.07531927
0000c0 2a b7 81 3d aa c1 a9 bb 05 8c 41 3d bd 41 08 3e
       0.06333764 -0.0051805573 0.047252674 0.13306327
0000d0 9a 78 81 bb 80 3c 9d 3d be 4c 6c 3d ac 1f be 3d
       -0.0039511444 0.07677555 0.057690375 0.09283385
0000e0 b9 32 1e bc 9d 2d 1b 3e 8a 90 70 3c 92 6a d7 3d
       -0.009655648 0.15154119 0.014682898 0.105183735
0000f0 03 9a 94 bc 62 11 f9 bc c9 fe e4 bd ec c1 2f 3d
       -0.018139845 -0.030403797 -0.11181409 0.042909548
000100 c2 dd 86 bd e1 4c ce bd c1 ca 0d 3d 0a ca 23 be
       -0.06585266 -0.10073257 0.03461719 -0.1599504
000110 b5 76 eb bd b3 c4 58 bd c0 5b 48 bb f0 1b 5a bd
       -0.11497251 -0.052921962 -0.0030572265 -0.0532493
000120 56 91 24 3d 9c 27 e3 ba 4d f3 34 3d 41 05 c3 3b
       0.040177666 -0.001733053 0.044177342 0.005951554
000130 c8 01 17 be 2f 24 c8 bc ab 3e c5 3d 62 0e 76 bd
       -0.14746773 -0.024431316 0.096310936 -0.06007231
000140 34 83 21 be 91 af bc 3c 5c 56 f7 bd f1 3c ad 3c
       -0.15772706 0.023032935 -0.120770186 0.021147223
000150 26 d8 21 bd 14 7e 28 bd c3 05 39 bd 57 3c 2e 3d
       -0.039512776 -0.041135862 -0.04517151 0.042538013
000160 0d c0 29 bd 7f 92 c8 3d e3 9d d6 3d e1 eb 81 ba
       -0.04144292 0.09793567 0.10479333 -0.0009912216
000170 ce a2 c6 bd 77 9f 45 bc 0f 93 85 bd f5 ff 14 be
       -0.09699021 -0.012061945 -0.0652219 -0.14550765
000180 32 f5 b4 3b 56 17 29 bd 38 2f 82 3d 19 06 63 3d
       0.0055223936 -0.04128202 0.063566625 0.055425737
000190 6e 31 a3 3c b2 ea 5b bd bb c2 37 3e b1 80 d2 bd
       0.01992103 -0.05369062 0.17945378 -0.10278452
0001a0 4b ae 0d 3e 4a ec 4f bb bc 7b b5 bd 1d 67 95 bc
       0.13836019 -0.0031726533 -0.08861491 -0.018237645
0001b0 20 e8 16 3e 28 f3 a9 bd 99 85 39 be b3 3a f3 3c
       0.14736986 -0.082983315 -0.1811737 0.029691076
0001c0 5a 21 09 3d 17 ac 29 be d6 29 bf bc 3f da f1 3d
       0.033479072 -0.16569553 -0.023335379 0.11809205
0001d0 bd 89 84 bd ec c0 6a 3d ac b8 b5 bd d3 09 94 3d
       -0.06471584 0.05731289 -0.08873114 0.07228436
0001e0 86 73 c5 bc 7a 8c 88 bd 63 bd 07 3d 5e 23 4e bd
       -0.024102937 -0.06667419 0.033139598 -0.050326698
0001f0 61 e7 46 3c 77 44 a6 3d c6 67 23 be 90 99 3c 3d
       0.012140126 0.081185274 -0.15957555 0.046044886
000200 32 ac 88 bc 24 76 5b bb 41 51 7c 3d c8 42 1a be
       -0.016683672 -0.0033487165 0.061600927 -0.15064538
000210 bc 70 c7 bd 9f f6 74 3d c6 19 03 bd 2e 0e a1 bd
       -0.09738299 0.05980551 -0.032007 -0.07864033
000220 4d d4 63 bd de ef 9b 3d 75 79 16 3c 31 e3 df bd
       -0.055622388 0.076141104 0.009184231 -0.10932005
000230 78 e2 c9 3c ca 1e 64 3d d5 f4 1f 3e e2 c2 0a 3d
       0.024644122 0.055693425 0.1562074 0.03387726
000240 ec f7 17 be 77 ee b6 3d 49 64 33 3d f3 3c 15 be
       -0.14840668 0.08932202 0.04379681 -0.14574032
000250 29 43 98 3d 86 9a 8f 3d 89 60 8e bd b6 2d 5b 3d
       0.07434685 0.07011895 -0.06952006 0.05351039
000260 4a 40 26 bd d6 88 b0 bc 5b 9e a9 3c 92 f0 f2 bc
       -0.040588655 -0.021549623 0.020705393 -0.029655728
000270 c4 b3 e7 bd a8 9b c7 bd ef 5d b1 3d 2f c3 c2 3c
       -0.113135844 -0.09746486 0.086604945 0.023774711
000280 72 25 25 3c aa fb d3 3d 9d f6 4f bd 6c 47 04 bc
       0.010079728 0.103507355 -0.050772298 -0.008073669
000290 10 f7 87 bd a1 0a 0d be 41 13 03 bd 00 d8 23 bd
       -0.0663892 -0.13773586 -0.032000784 -0.040000916
0002a0 09 3a d1 bd 02 ff 09 bd 93 08 58 bd 07 9f 28 be
       -0.102161475 -0.03369046 -0.052742552 -0.16466914
0002b0 3e 8e 93 bc 14 ea 0e be 2d a4 12 be bf ad 97 3d
       -0.018012162 -0.13956481 -0.1432044 0.07406186
0002c0 29 3c 20 3d af 97 53 3d 43 7d 85 bb c1 c0 23 bd
       0.039119873 0.05165833 -0.0040737703 -0.039978746
0002d0 c4 00 9c bc dc 04 25 be ab 9d 17 bd de fb e7 3c
       -0.019043334 -0.16115135 -0.0370156 0.028318342
0002e0 52 63 78 3d a5 c8 91 bb 0b 6b 81 bd ff 00 16 3d
       0.060641594 -0.0044489675 -0.06319245 0.036622044
0002f0 f8 4d 02 3e 58 90 b7 3d 8b e5 2a ba 87 02 89 bd
       0.12725055 0.08963078 -0.000651919 -0.06689935
000300 68 f4 96 3d 7e 48 ae bc 84 37 9a 3c 55 18 1a 3d
       0.073708355 -0.021274801 0.0188253 0.03762086
000310 f9 a3 3f bd 8d e5 04 3c 07 f0 8b 3c 63 ce db bd
       -0.046787236 0.00811137 0.017082227 -0.107327245
000320 71 1d 40 bd 79 26 bd bd a2 96 76 3c 4a 43 8a 3d
       -0.046903078 -0.09235854 0.015050562 0.067511156
000330 48 e6 70 bd 7a ac d8 bd f8 04 01 bd a9 7a 09 be
       -0.058813363 -0.10579772 -0.03149888 -0.13425697
000340 6f eb 88 3c d5 8b 27 3c ff de 81 bd ab 1f 82 3d
       0.016713826 0.01022621 -0.06341361 0.063536964
000350 23 0b df bd 3f 56 97 3d 6d 2b 78 bd 09 b9 1b bd
       -0.10890796 0.07389497 -0.06058829 -0.03801826
000360 ce 5c a9 bd 7e 45 da bd a0 74 96 3d 44 95 83 bd
       -0.08269654 -0.10657786 0.07346463 -0.064249545
000370 41 1e d3 bd bf c7 d2 bc cf 61 b4 3d eb 4f 14 3d
       -0.10308505 -0.025730012 0.08807718 0.03620903
000380 de 79 56 3d 9d f1 c4 3d d6 14 bd bd 5a b9 b9 bd
       0.052362315 0.096163966 -0.0923249 -0.09068556
000390 03 8b 82 3d 2f dd 80 bd c4 08 b1 3c ff 09 96 3b
       0.06374171 -0.062921874 0.021610625 0.0045788283
0003a0 66 fe 01 bd e6 fa 77 bd 49 de bf 3d 5e 66 4d 3d
       -0.031736754 -0.06054201 0.093685694 0.050146453
0003b0 f3 75 06 bd 1e 0f 5d 3d e8 fb 3c bd 9c ad 01 be
       -0.03282733 0.053969495 -0.046138674 -0.12663883
0003c0 e7 28 17 3d f7 13 94 bc 18 c9 07 be 7d 73 ab bd
       0.036904242 -0.018075926 -0.13260305 -0.08371637
0003d0 56 26 b0 3d af 8b 03 bd 3a 56 16 bd 1c cd a3 bd
       0.08601062 -0.032115635 -0.036703326 -0.07998106
0003e0 58 7d a0 bd ea 0c bd 3d bb c8 ff 3c 70 f5 1a bd
       -0.078364074 0.09230979 0.031223645 -0.037831724
0003f0 34 e3 a5 3b 75 2a d3 bd b5 73 fd 3d 4b 96 21 3d
       0.005062485 -0.103108324 0.12375585 0.03944997

lstm.weight_hh_l1 f4 [256, 64]
000000 27 3f 32 bd f7 8d 9e bd d2 c1 9a 3d a5 33 26 3c
       -0.043517258 -0.077419214 0.075564995 0.010144149
000010 20 29 91 3d e4 58 9e bd 7a f6 fc bd 2a a1 f0 bd
       0.07087922 -0.07731798 -0.12351699 -0.117494896
000020 34 74 9c 3d c1 c2 82 39 b0 2c 8e bd 4a 34 3e 3d
       0.076393515 0.00024940635 -0.06942117 0.046436585
000030 d3 96 69 bc d2 84 1b be 6b 0a 88 bc 12 82 92 bd
       -0.014257151 -0.15187386 -0.01660653 -0.07153715
000040 0b 35 89 bd b3 b5 7c 3d 6e 42 6e bc 59 7e 42 bd
       -0.0669957 0.06169672 -0.014542205 -0.047483776
000050 f6 ce e0 3d 13 0d a6 bd e8 15 90 bd 36 45 8c 3d
       0.10976975 -0.081079625 -0.07035428 0.068491384
000060 a1 ee 29 bd c0 7f 0c 3d dd 12 0c bc 5b 0e 21 bd
       -0.04148734 0.03430152 -0.008549419 -0.03932033
000070 25 16 82 bd be d4 dd 3c 97 96 c4 3d 32 ca 07 bd
       -0.0635188 0.027078982 0.09599035 -0.033151813
000080 e8 c3 32 bd f9 b9 fa 3d 62 e8 ef bd 24 5e 9e bd
       -0.043643862 0.12242503 -0.117142454 -0.077328
000090 10 67 c6 bd 9c 72 09 bd 03 8c aa 3d 4b 59 5f 3d
       -0.09687626 -0.033556566 0.08327486 0.054528516
0000a0 65 5c 30 bc 22 8a d0 bc 4e cc b1 3d 2d ce 69 3d
       -0.010764216 -0.025456492 0.08681546 0.05708139
0000b0 9b 4e 05 3d 5e 58 28 bc 21 0f 46 3d 47 8d 35 bd
       0.032545667 -0.010274975 0.04835427 -0.044324186
0000c0 c5 18 d2 bd f6 f5 42 bd 49 d6 e7 bd 3c a5 fe bd
       -0.10258631 -0.047597848 -0.113201685 -0.1243386
0000d0 65 08 05 3e ed 03 a9 3c 3a fb dc 3c 37 af a2 bd
       0.12991484 0.020631755 0.026975263 -0.07943576
0000e0 e0 97 cc bb 8d e2 a0 3d 0c aa 06 be d3 38 01 bc
       -0.006243691 0.07855711 -0.13150805 -0.007887083
0000f0 f6 e1 ee bd f3 ef ec bd 57 e0 86 3d e6 c1 b9 3b
       -0.116641924 -0.11569204 0.06585758 0.0056688664
000100 27 0b 0e 3c 52 7b 82 3d b3 45 7a 3d 49 09 2e bd
       0.008669651 0.06371178 0.061101627 -0.042489324
000110 87 58 02 3d dd 8d ed bc cb ab d0 3d ce 8a ed 3d
       0.031822708 -0.02899831 0.10189017 0.115987405
000120 62 28 e9 bc 5f 24 56 3d 84 a3 ea bd c3 87 3d bd
       -0.028461639 0.05228078 -0.114569694 -0.04627205
000130 1c 0b 15 bd 73 4c dc 3b 06 58 f2 3d 36 23 62 bc
       -0.036387548 0.0067229806 0.118331954 -0.01380234
000140 c1 57 4d 3d cb 3c 9b bd a0 c1 0d 3a d5 57 e4 bd
       0.050132517 -0.07579955 0.00054075755 -0.11149565
000150 7f d9 f9 bc 2a 91 5a 3d 79 2a 23 3c eb 79 40 bc
       -0.030499218 0.053361095 0.009958857 -0.0117478175
000160 28 a5 78 3d d6 dc 94 3d eb bf 96 3d f2 4e 27 bd
       0.06070438 0.072686836 0.07360824 -0.040846772
000170 95 e0 cf bc 29 89 8e 3c ae 34 b8 3c 2f 9b bd 3c
       -0.025375644 0.017399387 0.022486057 0.023145286
000180 b8 c3 96 3c 48 0a 4e 3d 13 51 00 3e 2f de 8e 3d
       0.018403873 0.050302774 0.12530927 0.06975972
000190 ed 9a e7 3d 4a 8d 7c 3d 39 49 21 3d df 39 0c be
       0.113088466 0.06165818 0.03937647 -0.13693951
0001a0 b8 e9 b6 bd 84 a8 00 be 2c 4d ec 3d 63 9c c0 bd
       -0.08931297 -0.12564284 0.11538157 -0.094048284
0001b0 01 9d a8 bd e2 67 55 bc 70 60 2d 3c 88 5e 6b 3d
       -0.08233071 -0.013025256 0.0105820745 0.0574632
0001c0 dd 5f 01 be ba d6 a4 3d c6 a1 55 bd 6f 42 4a bd
       -0.12634225 0.08048768 -0.052156232 -0.049379762
0001d0 d2 d0 c6 3c f3 06 9e bc 24 dd b0 bd 69 50 7b 3d
       0.024269495 -0.019290423 -0.08635929 0.061355982
0001e0 34 5d 0c 3c a4 91 86 bd dc 70 00 be dd e5 e4 3d
       0.008567143 -0.065707475 -0.12543052 0.111766554
0001f0 b7 93 8a 3d 00 60 86 bd f3 c8 28 3c b6 f4 08 be
       0.067664556 -0.06561279 0.010301816 -0.133746
000200 35 c2 a7 bd 28 5a ba bd e3 1e 5b 3c 8b 61 c5 3d
       -0.08191339 -0.09099227 0.013374063 0.096377455
000210 03 5b aa bd 91 95 cd bd 7a da c1 bd 3a 1f 68 3d
       -0.0831814 -0.10038293 -0.09465499 0.056670405
000220 ca 1d da bd e0 ed fa bc b7 dc a7 3d e7 34 c6 3d
       -0.10650213 -0.030631006 0.08196395 0.09678059
000230 ac c2 db 3d 77 47 8c 3c 38 3f 7e bd d5 61 e5 3d
       0.1073049 0.01712392 -0.06207201 0.112003006
000240 9d 4f 82 3d 2c 46 9d 3c 0a e8 4e bd b0 f6 4e 3d
       0.06362841 0.0191985 -0.05051426 0.05052823
000250 84 a7 a1 3d 89 3f 03 be 77 61 03 3e 8e 06 04 be
       0.07893279 -0.12817205 0.12830149 -0.12893125
000260 92 d3 10 bb 6a a7 2f bd e0 c1 cc 3c 46 6c 8b bd
       -0.0022098762 -0.042884268 0.02499479 -0.06807761
000270 0e 45 c3 3d 71 8c 3e bb 92 7e bd 3d d4 90 dc bd
       0.095346555 -0.0029075409 0.09252657 -0.10769811
000280 84 84 2a bd 26 da 63 3c 58 07 87 3b 1e 71 71 bc
       -0.041630283 0.013906991 0.0041207485 -0.014736442
000290 63 ac cb bb 7b 6a 48 3d 38 f0 77 3d 4f 01 a0 bc
       -0.0062156185 0.048929673 0.060531825 -0.019531874
0002a0 8d 04 6f bd 02 dd cd bd 13 b0 a9 3d 77 a2 80 bd
       -0.05835395 -0.100519195 0.082855366 -0.06280988
0002b0 e0 ca c6 3d fe 4e 0b be 30 e1 fc 3b 86 71 70 3d
       0.09706664 -0.13604352 0.007717274 0.058702014
0002c0 b4 31 6f bd d8 a6 b7 3d 63 db 8b 3c 97 6b c5 3c
       -0.05839701 0.0896737 0.017072385 0.024099154
0002d0 28 a3 b5 bb cb e5 b5 3d 7d 4a 58 3d 7f e0 ba 3d
       -0.0055431314 0.0888172 0.052805413 0.091248505
0002e0 47 03 0a be a4 79 fa bc 87 45 36 3c 0a 94 a0 bc
       -0.13477813 -0.03057558 0.011124975 -0.01960184
0002f0 19 56 86 bd 09 0a 9d bd 6f 6f 99 3d 5a 93 58 3d
       -0.065593906 -0.0766793 0.074919574 0.0528749
000300 50 05 97 bd ff c4 8a bd 8e f0 05 3e f0 00 c3 ba
       -0.0737406 -0.06775855 0.13080046 -0.0014877599
000310 d3 b8 c6 3d bc 37 47 3d bd 8a a5 bc a2 6d eb bc
       0.09703221 0.048637137 -0.020207757 -0.0287388
000320 1c a6 63 bd f0 5f 53 bc 59 c0 c9 3d 39 88 8f 3d
       -0.055578336 -0.012901291 0.098511405 0.07008404
000330 9e 92 90 3d 08 72 dd 3d a4 6a 9c bc c4 a0 a8 bc
       0.07059215 0.10812765 -0.019093819 -0.020584472
000340 19 4c cf bd f9 fc 82 bd d6 5a 60 bd a3 08 11 bd
       -0.10121936 -0.06395907 -0.054774128 -0.035408627
000350 02 d7 24 bd c2 43 ce 3c b5 c8 93 3a 4f 61 d8 bd
       -0.04024411 0.025178794 0.0011275025 -0.10565435
000360 b5 11 a9 bd 1a 20 2d 3d 91 d1 85 3c d0 00 14 3d
       -0.082553305 0.042266943 0.01633528 0.036133587
000370 c6 1d 91 3c 17 20 79 bd 4f df 5e bd 4c ae 9c 3d
       0.017714392 -0.06082162 -0.054412182 0.07650432
000380 d4 c4 b9 3d dc fd f0 bc 2e 99 78 bd 25 9e 8a 3d
       0.09070745 -0.029417925 -0.06069296 0.06768445
000390 55 19 7c 3d 83 a4 2f 3d 2a 86 84 3d 93 54 fe bc
       0.061547596 0.0428815 0.06470902 -0.031046188
0003a0 4b 9d 19 bd 22 0b c0 3a 10 c4 c6 bd f6 0c c5 3d
       -0.037503522 0.0014651755 -0.09705365 0.09621613
0003b0 6e 4d b4 bc ec 0a b5 3c e7 a6 dc 3b 7c 8f 77 3d
       -0.022009578 0.022099935 0.0067337635 0.06043957
0003c0 ad 18 73 3c 24 9b 0f 3d a0 14 06 bd 23 da d9 bd
       0.014837426 0.035060063 -0.032734513 -0.106373094
0003d0 c9 4b d5 3d 23 e0 fa 3c 70 42 f3 bd fe c2 b3 3d
       0.104148455 0.030624455 -0.11877906 0.08777426
0003e0 0a 45 af bd 46 b1 a9 bd c9 c1 16 3d c5 c7 00 be
       -0.0855809 -0.08285765 0.0368059 -0.12576206
0003f0 9a 41 2b 3d ac d3 29 bd 0a b5 b1 bc d6 2e 86 3d
       0.04181061 -0.04146163 -0.021692771 0.06551902

lstm.bias_ih_l1 f4 [256]
000000 15 8e 5b 3c fe d2 8e 3d de 79 27 bd 6c ec b9 bd
       0.013400574 0.06973837 -0.040887706 -0.09078297
000010 eb f0 3e bd fb 99 10 3d cf 15 2b bd bf d2 90 bd
       -0.046616476 0.035303097 -0.041768845 -0.070714466
000020 5a 0b 68 bd 3e c1 81 3d 45 7b 1a bd 87 52 23 bc
       -0.05665145 0.06335686 -0.037715215 -0.0099684065
000030 f0 37 4e 3d 45 eb ec 3c 6d cb b4 bd 80 76 1d 3d
       0.050346315 0.028920779 -0.08827863 0.03844309
000040 cc cd 71 bd bc 2c 00 3d c6 1c e6 bc 91 30 c5 3d
       -0.059034154 0.031292662 -0.028089892 0.09628404
000050 01 50 22 3d b8 48 36 3d 87 31 98 3d a5 09 0c 3c
       0.03962708 0.044502944 0.074313216 0.008547221
000060 40 39 ce 3a 90 7f b0 bd 2f 69 cf bd 42 f4 9d 3c
       0.0015733615 -0.086180806 -0.10127484 0.01928151
000070 b6 15 c0 bc d8 7f 83 3d 48 d3 82 3d 60 e7 40 bd
       -0.023447853 0.06420869 0.06387955 -0.047095656
000080 b6 b8 95 bd a7 17 9f bc 14 33 60 bd 6b 16 dc bc
       -0.073106214 -0.019420458 -0.054736212 -0.026866158
000090 23 67 4e bc 22 72 6c bd 7f b6 07 be 03 3d ce 3c
       -0.012597832 -0.057726033 -0.1325321 0.025175577
0000a0 e1 de e1 3d 10 a4 90 3d d9 ab e3 bd 76 18 b9 bc
       0.11028839 0.070625424 -0.11116762 -0.022594672
0000b0 29 f2 9c 3d 61 33 8f bd 25 6b fa ba b4 6a 11 be
       0.07663376 -0.069922216 -0.0019105418 -0.1420086
0000c0 4b 80 8a 3d 87 72 7c bd e2 4e c3 bd 06 21 e5 bd
       0.06762751 -0.06163266 -0.0953653 -0.11187939
0000d0 e2 b7 ae bd b9 15 92 3d c2 d0 83 bc b2 48 03 3e
       -0.085311666 0.071330495 -0.016090754 0.128207
0000e0 0f f5 2a 3d 00 5e 37 bd 79 07 c6 bc 8c 0b 11 be
       0.041737612 -0.04476738 -0.024173485 -0.14164561
0000f0 ee 9e 1f bb 7e 9e b0 3d b2 61 f5 bc b6 bf 09 bd
       -0.0024356204 0.0862398 -0.029953811 -0.033630095
000100 18 62 9b bb 6c a7 ef bc f6 a0 f2 3d d2 26 62 3d
       -0.0047419183 -0.029254638 0.11847107 0.055212803
000110 f8 87 f7 bc 50 05 ed bc 83 f5 77 3d 83 ef 9a bc
       -0.030216202 -0.028933197 0.060536873 -0.018913036
000120 d5 ca 19 be 13 3e ef 3c 28 d0 d3 bd 78 d5 0e be
       -0.1501878 0.029204404 -0.10342437 -0.1394862
000130 cf 17 50 bd 64 09 66 bc d8 6b c9 bd a2 bf c7 3d
       -0.050803956 -0.014040325 -0.09835023 0.09753348
000140 56 15 f3 bd ae f9 9b bd e6 dc 91 bc 84 56 05 be
       -0.11869304 -0.07615982 -0.017805528 -0.13021284
000150 da 27 c5 3d 3e 89 7b bd e9 09 56 3d 8e f8 6f bc
       0.09626742 -0.06141018 0.052255545 -0.014646662
000160 38 96 a4 bd ee f0 fc bd e1 66 af 3d 59 61 26 3d
       -0.080364645 -0.12350641 0.085645445 0.04062018
000170 cf b9 df bc a9 c8 16 3e 96 38 92 bc e3 12 de 3c
       -0.02731028 0.14724983 -0.017849248 0.027108615
000180 16 4b dd 3c e7 f1 98 bc 09 4a fb bd f9 55 09 be
       0.027013343 -0.018670036 -0.122699805 -0.13411702
000190 84 04 ef bd a7 e7 1d bc 9f 74 78 bd 1a e3 05 3e
       -0.11670783 -0.00963775 -0.060658094 0.13074914
0001a0 1c 6a 20 3d 58 a1 7a 3d 90 e5 82 3d 56 85 d4 3c
       0.039163694 0.061189026 0.06391442 0.025942486
0001b0 26 a4 12 be 37 80 a6 bd fc f4 ab bd 0f 4a 89 3d
       -0.1432043 -0.08129924 -0.083963364 0.06703579
0001c0 7a fa ca 3d a3 80 40 3d fa c6 50 bc 3a f1 d8 3c
       0.09911056 0.046997678 -0.012742752 0.026482213
0001d0 08 c9 ec bd 40 c7 0e be d4 fe 92 bd bd 82 dd 3d
       -0.11561781 -0.13943195 -0.07177511 0.10815952
0001e0 03 ab d6 bc cc 9e aa ba 3e 0b c2 bc 67 77 88 3d
       -0.026204592 -0.0013017296 -0.023687001 0.06663399
0001f0 8a 0c d3 3d 0d 37 f5 3c de 13 db bd 46 8a b5 bd
       0.10305126 0.029933477 -0.10697149 -0.08864264
000200 ad c2 12 be 2d e7 1b be d5 fa 08 be d6 c5 34 3d
       -0.14332075 -0.15224905 -0.13376935 0.044133984
000210 92 62 52 bd 77 a7 c1 bc 1f c0 ce 3d 3f 02 c9 3d
       -0.051363535 -0.023639424 0.10095238 0.098148815
000220 f9 75 3f bc 70 39 a7 3d 0c af db bc 8c e4 ca 3d
       -0.011685842 0.08165252 -0.026816867 0.09906873
000230 7c 6f 00 3d 7e 60 51 bd ab bc b1 3d a5 1a 38 bc
       0.03135632 -0.051117413 0.08678564 -0.011236821
000240 2c 18 22 bd 11 15 a0 3c e6 c6 bf 3d e9 22 b0 3d
       -0.039573833 0.019541295 0.09364109 0.086004086
000250 5e ee 32 3d b7 66 df 3c a0 d9 54 3d a9 50 b7 3d
       0.043684356 0.027270658 0.051965356 0.089509316
000260 e0 90 80 3b a1 df da 3c 5f 19 b1 3d 2e 8e 05 be
       0.0039235204 0.026717963 0.08647417 -0.13042518
000270 d8 1c 33 3c 60 91 10 3e 23 b5 84 bd 94 91 8b bd
       0.01093217 0.14117956 -0.064798616 -0.06814876
000280 bc 26 6c 3d 7d 21 d5 3d e9 e3 17 3d 20 d4 6f bd
       0.057654127 0.10406778 0.037082586 -0.058551908
000290 54 2b 7b 3d 78 e5 fc bb 08 36 c2 3d 68 db 88 3d
       0.061320618 -0.0077177845 0.09482962 0.066824734
0002a0 a5 8f 0d 3e 02 6a be bd ce ae ac bd ed f6 f7 3c
       0.13824327 -0.09297563 -0.08431779 0.03026911
0002b0 5e c9 f2 3c 31 02 3f bd c2 0b ae bc ab 72 38 bd
       0.029637035 -0.04663295 -0.021245841 -0.04503123
0002c0 93 f2 5d 3d 96 4a 66 3d b4 43 78 3d dc d5 75 bd
       0.054186415 0.056223474 0.06061144 -0.060018405
0002d0 6e 7d e7 3b 23 1c c2 bc 1c bc aa bd e8 0d 97 bd
       0.007064513 -0.023695057 -0.0833666 -0.07375699
0002e0 07 6b ce bd 92 91 12 3d bc 60 c0 bd 77 64 16 3d
       -0.100790076 0.035783358 -0.093934506 0.036716904
0002f0 53 be a2 3d 7b 52 dd bc 78 45 92 3c 81 e5 1b 3d
       0.07946458 -0.027016869 0.01785539 0.03806067
000300 41 be 9e 3d bd 29 3d 3d bf 07 b8 3d 44 90 2b bd
       0.07751132 0.046182383 0.089858525 -0.04188563
000310 08 66 61 bd 47 2a df 3b 5c 5b 8b bd a9 35 f3 bd
       -0.055028945 0.00681046 -0.06804535 -0.11875469
000320 53 fc f4 3c 8f 0b f2 3d f0 7e b9 3d d5 6d 24 bd
       0.029905474 0.11818611 0.090574145 -0.040143806
000330 fe 82 22 3d 2d e8 eb bb 66 e6 36 3d 98 b6 b5 bd
       0.039675705 -0.0071993084 0.04465332 -0.088727176
000340 74 bd 95 bc 1c 04 80 3c d3 42 2e 3d da bb 59 bc
       -0.018278815 0.01562696 0.042544197 -0.013289416
000350 3d f0 08 3d 8e 26 6c bd d7 93 47 bd 4a f1 05 be
       0.033432234 -0.057653956 -0.048724975 -0.13080326
000360 b6 ae da bd d9 09 b8 bc 66 a7 2a 3c 07 4a 41 3c
       -0.10677855 -0.022465633 0.010415887 0.011797435
000370 7d 71 d2 3c b4 c2 87 3d fe a4 4c bd 95 7f 98 bd
       0.025688881 0.066289335 -0.049962036 -0.07446209
000380 6e b7 03 bd 84 d8 f4 3c 37 40 69 bd 8f 5d d8 bc
       -0.032157354 0.029888399 -0.056946006 -0.0264118
000390 98 0f 3e 3d 32 b8 c4 3d 7c 6e 3a bd 30 ca bb 3d
       0.04640159 0.09605445 -0.045515522 0.091694236
0003a0 0d 28 54 3d ec 21 c5 bd 80 09 88 3d fb 44 a0 bb
       0.051796008 -0.09625611 0.06642437 -0.0048910356
0003b0 29 de f2 bd 0a b6 07 3c 3d d2 a1 bd 31 0b a4 bc
       -0.1185878 0.008283148 -0.07901428 -0.020024868
0003c0 92 e6 01 be 72 46 01 bb b6 0f dd bb 42 2c 99 bd
       -0.12685612 -0.0019725827 -0.0067462577 -0.07479145
0003d0 30 30 af 3c b9 b9 e9 bd a7 07 f9 bd 61 44 a5 3d
       0.021385282 -0.11412377 -0.12159663 0.08069683
0003e0 9e a1 47 3d 89 fd a5 bd af 1f 04 be 22 39 a5 bd
       0.048738115 -0.081049986 -0.12902711 -0.08067538
0003f0 e6 55 8c bd 44 0e 57 bd a0 ab cf bc 64 f9 71 3d
       -0.06852321 -0.05250384 -0.025350392 0.059075728
