best_model.pt (torch, 214194 bytes, 9 tensors)

lstm.weight_ih_l0 f4 [256, 11]
00000000: f406 d3bd 2967 363d 3eca 01be 6668 3cbd
00000010: 456b 003d 8d55 66bd 8a37 86bd f5e9 e23d
00000020: 9a1d 483c ad2e 00bd 15f5 a6bc 35f3 dd3d
00000030: d319 963b 0faf 243d 3f4b e3bd f9e3 c4bd
00000040: 0719 2f3c bb53 ce3d 0f59 5ebd f368 d43d
00000050: dd37 30be 48f5 cdbd 673c ddbb 77f4 9a3b
00000060: 526a 24be c5ef 7cbd 11a2 01be ce64 453c
00000070: d566 6b3d 9cfb db3c 36b2 ebbd a7fa 143d
00000080: b478 f5bc c4c5 f03c 9b90 a0bd b1e5 19be
00000090: d3d1 6c3c 0804 b6bc 00d9 94bd 9e87 09be
000000a0: 505a 15be 0538 bebd e738 b4bc fa99 bdbd
000000b0: 5b82 3abd 2ffc 0abe d404 3b3d b277 803d
000000c0: d90b cdbd 4715 30bd 8312 16be a576 95bc
000000d0: 80d5 f9bd 3363 cabd af21 aa3c 84e0 b03d
000000e0: 3e81 82bd 1ecd 4bbd d290 1fbd a29f 1bbc
000000f0: 3dc4 373d e767 dc3c 7945 613d 3cd0 0b3e
00000100: 783f 15be f344 b3bd 5bdd 9b3d ef9f 573d
00000110: 0360 2ebc 7209 ccbd dc92 cfbd 4d5f a93d
00000120: 53fc 53bc f6ef c2bb fb6b 083e 7c3e e5bd
00000130: 954f 213d 4ea1 27bd 42b0 15be 2ed5 b8bb
00000140: 2bbd e4bc 2955 bfbd 107a 563d 00f8 423d
00000150: 0bd6 a0bc 02a2 b7bd 1ce2 583c a3e3 bfbb
00000160: 823d 93bd e4fa aabd 2ed8 b1bd 61a9 b7bd
00000170: 64d6 9e3d 77a8 ef3d 834c 743d 9458 a93d
00000180: ab58 66bd 5fa1 f83c de40 db3d 35ba 85bc
00000190: 5911 abbd 9f3c 53bd 0ef0 13be cf18 f3bd
000001a0: 8366 edbc 7bf4 25be 20ac 413d 4061 8fbd
000001b0: 3cf7 46bd 69c2 d1bd 7d2b c13d 0744 c3bd
000001c0: 3eee 86bd 9029 08be b4b9 f63d b19c fd3c
000001d0: 1e0a e1bd c6d9 e7bc 6568 24bb 4ceb 84bd
000001e0: dd5a 333c 99fb f7bd 0e0c babd 2c98 8d3c
000001f0: 0a29 e2bd 6e36 e03d 523a afbd bae7 6d3c
00000200: 1632 19be 9be1 b63d 08ab bebd 12ea 02be
00000210: 2b12 fabd 71f2 373d 0f87 9c3c a13c df3b
00000220: c103 e6bd 8534 863d ff27 b13d 2cc8 5ebd
00000230: db1a 8a3d 4fe6 003c 2c62 15be aad1 b83c
00000240: db4b adbc ab76 563d 1339 e7bd 7445 adbc
00000250: e973 f1bd 6edf a93c e4ac c7bc e00a bb3c
00000260: e971 1dbc bac1 65bd 0bed d2bd a942 c7bd
00000270: bd6d 01be 311c 96bc 0ce4 883d 082e 6dbd
00000280: b0b8 823d 269e 82bd 4519 8cbd 5b50 87be
00000290: 575e 063d 2bb1 bb3d 4957 1c3e ba42 99bd
000002a0: c741 b4bc d38e 9a3d 5a66 713d 8b76 9abd
000002b0: 7378 5d3d 7895 a63d 3da1 c03d 3b58 fc3d
000002c0: 24ea d23d 7800 d23d 9b19 ea3d 95cd 623d
000002d0: a166 f33d 14d3 883c 21c3 993d b290 6bbd
000002e0: a5e1 ae3d e1b8 693d 7ebc 993d e9a6 533d
000002f0: 7d1a 973d ec83 cdbd d0f2 fc3d 9ecc 18bd
00000300: 28cf ea3d bd96 1fbd 38ad c43d 4f02 dd3d
00000310: daa1 f8bd 943b 20bc fbc8 923d cae4 87bd
00000320: 4cfd 083d b354 b6bd 7981 6bbd 1ee9 4ebd
00000330: c5e7 1fbe f966 a0bc e0c6 22be c738 14be
00000340: 7786 e1bd a6d9 8a3d 78df 65bd 5924 59bc
00000350: ad7a 8abc 0e0f debd 00ac 22bd 6be9 0dbe
00000360: de87 573c 551a a63d ecf7 22be 1ae6 1dbd
00000370: 18f2 25be eb76 36be 9e3d 2cbe 1b4b 1ebe
00000380: 0a07 2b3c fa42 71bd f1bc 09be 6075 4dbb
00000390: 3831 aabd 55a7 c5bc 6f35 453c ded9 11be
000003a0: bb47 45bd 533b 8fbd b319 78bc c7e6 4c3d
000003b0: 854c 1bbe 175d 22bd 85c2 aebd 255d 4abd
000003c0: 0d4f e9bd 5e15 f3bc 09f6 9c3c ae59 d23b
000003d0: 1507 c73d a5aa 763d 4442 aa3d effc e9bd
000003e0: 0d48 f83d 1e30 afbd 79c9 973b 13a9 3dbe
000003f0: 9792 eabc 386a f93c cf91 20bc 0fc9 a6bd
-0.103040606 0.044531975 -0.12674806 -0.045998 0.0313523 -0.05623393 -0.06553562 0.1107978
0.012214089 -0.031294513 -0.020380536 0.10837404 0.004580715 0.04020601 -0.110983364 -0.09613795
0.010687119 0.10074564 -0.05428415 0.1037158 -0.1720881 -0.10056549 -0.0067515853 0.0047288495
-0.16056183 -0.0617521 -0.1265948 0.0120479595 0.057471115 0.026853375 -0.115086004 0.036371853
-0.029964782 0.029391177 -0.07840081 -0.15029027 0.014454323 -0.02221872 -0.07267952 -0.1343064
-0.14585233 -0.09288029 -0.02199979 -0.09257884 -0.045534473 -0.13572763 0.0456589 0.0627283
-0.100120254 -0.04298904 -0.14655499 -0.01824505 -0.12198925 -0.09882202 0.020768015 0.08636573
-0.06372307 -0.049756162 -0.03895647 -0.009498509 0.04486488 0.026905013 0.054997895 0.13653654
-0.14574993 -0.087533854 0.076105796 0.05264276 -0.010643008 -0.09962739 -0.10135433 0.0827013
-0.012938577 -0.0059490157 0.13322441 -0.111935586 0.039382536 -0.040925317 -0.14618018 -0.0056406474
-0.027922234 -0.09342415 0.0523625 0.047599792 -0.019633314 -0.089664474 0.013237502 -0.005855994
-0.07189466 -0.08348635 -0.08683811 -0.08967853 0.077557355 0.11702054 0.05964328 0.08268848
-0.056236904 0.030350385 0.10705732 -0.016324142 -0.08352918 -0.051571485 -0.14447042 -0.11869966
-0.028979545 -0.16206543 0.04728329 -0.07000971 -0.048575625 -0.10242159 0.09432123 -0.095344596
-0.0658841 -0.13297105 0.12047139 0.030958505 -0.10988258 -0.028302085 -0.0025086638 -0.06490192
0.010946956 -0.12108535 -0.090843305 0.017284475 -0.11042984 0.10947882 -0.085560456 0.01452058
-0.14960513 0.089297496 -0.09309965 -0.12784603 -0.122104965 0.044908945 0.01910737 0.0068126475
-0.11231185 0.06552986 0.08650207 -0.054390118 0.067434035 0.00786741 -0.14588231 0.022560913
-0.021154335 0.052359264 -0.11290183 -0.021151282 -0.11789686 0.020736422 -0.024374433 0.022832334
-0.009609678 -0.056092955 -0.102991186 -0.09729511 -0.12639518 -0.01832399 0.066841215 -0.057905227
0.063828826 -0.06377821 -0.06840757 -0.26428494 0.032804813 0.091646515 0.15267672 -0.0748343
-0.022004021 0.07546773 0.0589355 -0.075421415 0.054069947 0.08133978 0.09405754 0.12321516
0.10298565 0.10253996 0.11430665 0.05537184 0.11884809 0.016702212 0.07507921 -0.05751104
0.08539132 0.05706108 0.07506655 0.05167285 0.07378099 -0.10034928 0.12351 -0.037304513
0.11465293 -0.038962115 0.09603351 0.10791456 -0.12140246 -0.0097798295 0.0716724 -0.06635435
0.033444688 -0.08902874 -0.05749652 -0.050515287 -0.15615757 -0.019580351 -0.15896177 -0.14474784
-0.11011975 0.067797944 -0.05612132 -0.013253295 -0.0169042 -0.10842715 -0.039714813 -0.13858573
0.013154952 0.08110491 -0.15914887 -0.03854952 -0.16205633 -0.17818801 -0.1682038 -0.15458338
0.01043869 -0.058901764 -0.13450982 -0.0031350479 -0.08310169 -0.024127642 0.012036665 -0.14243266
-0.04816411 -0.06993737 -0.015142846 0.050024774 -0.15165909 -0.03963956 -0.085331954 -0.049405236
-0.11392031 -0.029673275 0.019160287 0.006419382 0.09718148 0.060221333 0.083134204 -0.114251964
0.121231176 -0.085540995 0.0046321717 -0.18521528 -0.028634353 0.030446157 -0.0098003885 -0.08143818

lstm.weight_hh_l0 f4 [256, 64]
00000000: e900 a5bd 0c36 9bbd 33a8 de3c d2b6 f13d
00000010: 0549 3cbd de94 c2bc fef0 e13d 8854 f53c
00000020: 7b74 5a3c 4a01 90bd 63f7 d8bd 93bd ad3d
00000030: b262 49bd 83ef 90bd 730e 85bc a712 4dbd
00000040: fae9 b7ba c5ea bd3d 92b6 9fbd b666 63bc
00000050: 9502 943d f9d8 bc3d 3934 ebbd 2674 393d
00000060: 7846 01be 19e3 473d 451a 803d a6c0 013e
00000070: 5ec4 8d3d 3f82 e1bc b0bb 03bd fc4a 973d
00000080: 323d 1b3d 8f3e 8ebd 9dc5 e1bd 80fd 9f3d
00000090: 7a71 6dbd 0f43 5a3d 513e 83bd 2510 cabd
000000a0: 58cf 04bd aa74 33bc 4ff1 9bbd 9cc8 be3d
000000b0: 17d8 b6bd 15a2 91bc 2e99 a2bd a13e b93d
000000c0: d224 a8bd 512b 83bc 6331 033e 2bee b8bd
000000d0: 1c81 ddbd 7c18 d03d 2dab a2bd 4f6e 943d
000000e0: c137 d6bd 64c9 073d 0b75 903d f7ab c9bd
000000f0: c1de 8f3d 3492 c3bd a714 ba3d d19a bebd
00000100: 0f89 08bd a6c3 f7bd 32b4 d1bd 3cd0 e1bd
00000110: 922f 78bd 1bd3 59bd 286e 91bd ea70 80bb
00000120: 0ea7 9cbb 56d5 5c3d e0d7 29bd 3ee0 db3d
00000130: 43e2 83bd 2911 d5bd 9bea 90bd 4ff5 adb9
00000140: b06f 03be 251d ce3d 8556 c13d c1e7 afbd
00000150: 51dc c73d 89dc 2a3b e42a c33d b15a 5c3d
00000160: ce9d 763d aa15 d6bc 2d40 fabc d28a 9dbd
00000170: 3416 d23d 3466 b4bd b992 f23d 3519 8abd
00000180: 74b3 d9bc fb46 0c3d c527 053e 6d74 ca3d
00000190: 22fd e03d cb5a 1b3d 672f c23d a2a5 a8bd
000001a0: b450 9abd e630 b9bd fc6e 233d e193 243d
000001b0: 8551 1dbd 9f0e 663d 0554 79bd 8a80 fdbc
000001c0: 2bc8 6d3d 70f0 04bd d67a e83d 5c2f edbd
000001d0: 529f 98bd dcb0 e83d 3d35 15bd 5c59 ef3c
000001e0: d54a d53d 6cfc 80bd 1ac8 77bd 57da 483d
000001f0: 240b c73d af86 373d 4dd2 793c 64a2 b03d
00000200: a8c8 273d 6a78 f9bd 1949 7dbc fdb5 debd
00000210: 7d25 533d c266 d5bb 4d3f 313d 22d6 3f3d
00000220: 9ace 19bc 2e53 3bbd bc76 c63d 5f58 98bd
00000230: 3239 863c 58ce 933d 92ad 5f3d d467 b33d
00000240: 4041 debd 90a2 84bd 9146 9f3d 311c 30bc
00000250: e8b1 eb3d d27e 893d cd09 823d 9d33 ed3d
00000260: c3e2 46bd 0344 783d 4542 36bc c05a 2dbc
00000270: 4e46 3ebd f042 dabc 6d05 9c3b 8f61 d6bc
00000280: 4d83 73bb 5f46 c63d 8549 aabd 98a9 e3bc
00000290: 9eea a93c 31ea c23d 9a46 4f3d b620 fb3c
000002a0: 0917 4abd 3631 52bc 5fe5 323d 8c90 5e3d
000002b0: a7bc f43b 6804 b8bd f58c 0c3c 8f2e 7abd
000002c0: 2fd0 f03d 6f54 8c3d e08b cf3d add7 09bd
000002d0: 0d60 bd3c 3a51 7b3d 3935 e5bd e25a d63d
000002e0: b8eb e73d ab8b 9cbd 671d 91ba 53ba acbd
000002f0: 9eba 15bd d32c 84bd c650 fa3d dd3b afbd
00000300: b118 93bd c4a8 7cbd bbb3 9cbd 53c4 cc3d
00000310: 5f11 a73d 6ca3 463c 2d0b fe3d ffd5 bb3c
00000320: 4de7 93bd be04 8dbd 14cc 023d d4fc 6ebd
00000330: ea53 773d 180e 2abd 35a3 013d 44eb c8bc
00000340: de9e 203c 1983 1f3d 9c60 733d 9729 413d
00000350: d615 1e3d 1428 8b3c a40a 8e3d f9ef 1ebd
00000360: edb7 55bd 7c80 2b3d 2a28 533d 1c12 bcbd
00000370: b853 b3bb f683 6c3d 2b10 9b3d 4260 a93d
00000380: 7b31 873d 098b 94bd 81aa 24bd 4c73 cfbc
00000390: 21bf a7bd cdcf 723c efbe e9bd 83dc 913d
000003a0: f0bd fa3d 998f 3bbd 4b0a e5bd ed32 253d
000003b0: 16a4 e4bd e4b7 93bc 759d 973b 4be1 6c3d
000003c0: 9424 ac3d 6011 843d cbdf 9c3d a97e afbd
000003d0: d92a e03d ea18 183d 6e24 b03c 4e3e e13d
000003e0: 33ba 0f3d a461 f1bd b501 f3bd a041 44bd
000003f0: 2ead d5bc 7a49 903d 4dbb c9bd fcd5 c23d
-0.08056814 -0.07578668 0.027179813 0.11802448 -0.045968074 -0.023752626 0.11032294 0.029947534
0.013333435 -0.07031496 -0.1059406 0.08483424 -0.04916639 -0.07076933 -0.016242241 -0.050066616
-0.0014031522 0.09273294 -0.077984944 -0.013879469 0.07227055 0.09221072 -0.1148457 0.045276783
-0.12624538 0.04880056 0.062550105 0.12671146 0.0692222 -0.027527926 -0.032161415 0.07387349
0.037900157 -0.06945526 -0.1102402 0.07812023 -0.057969548 0.05328661 -0.0640837 -0.098663606
-0.0324243 -0.010953108 -0.07614385 0.09315607 -0.089279346 -0.017777482 -0.07939373 0.09045149
-0.08210148 -0.016011866 0.12811808 -0.09029802 -0.10815641 0.1016092 -0.079428054 0.07247602
-0.10459853 0.033151045 0.07053574 -0.09847253 0.07024909 -0.095493704 0.0908597 -0.09306873
-0.033333834 -0.12097864 -0.10239448 -0.11026046 -0.06059224 -0.05317984 -0.07101089 -0.0039197104
-0.0047806567 0.05391439 -0.04146564 0.1073613 -0.064396404 -0.10403664 -0.070759974 -0.000331799
-0.12835574 0.10064153 0.094403304 -0.085891254 0.09758819 0.002607139 0.09529665 0.053797428
0.060209088 -0.026133377 -0.03054818 -0.076924935 0.10258141 -0.08808556 0.118443914 -0.06743089
-0.026574828 0.03424738 0.13003452 0.09885488 0.10985781 0.037928384 0.094816975 -0.08234717
-0.07534924 -0.0904253 0.039900765 0.04018009 -0.03840782 0.056166288 -0.060871143 -0.030945081
0.058052223 -0.03245586 0.11351554 -0.11581299 -0.07452263 0.11361858 -0.036427725 0.029217415
0.10414664 -0.06298146 -0.060493566 0.04903635 0.09718922 0.04480618 0.0152478935 0.086247236
0.040962845 -0.1218117 -0.015459322 -0.10874555 0.051549423 -0.006512494 0.04327326 0.046835072
-0.009387637 -0.045733623 0.096906155 -0.074387304 0.016384695 0.07217091 0.05460889 0.08760038
-0.10852289 -0.06476319 0.07777131 -0.010748909 0.11508542 0.06713642 0.063495256 0.1158211
-0.0485561 0.060611736 -0.011124198 -0.0105807185 -0.046453767 -0.026643246 0.004761389 -0.026169566
-0.0037157119 0.09681391 -0.08314804 -0.02779083 0.020741757 0.09517325 0.05060444 0.030655246
-0.049338374 -0.012829116 0.043675777 0.05433707 0.007468778 -0.089852154 0.008578529 -0.061079558
0.11758458 0.06852042 0.10134101 -0.03365295 0.02311709 0.06135676 -0.11191792 0.10466553
0.11324257 -0.07643827 -0.0011071385 -0.08433976 -0.036554925 -0.06453862 0.122224376 -0.0855634
-0.07182444 -0.061684385 -0.07651468 0.099983834 0.0815761 0.012123924 0.12404475 0.02292919
-0.072218515 -0.0688567 0.031932905 -0.058346584 0.06038276 -0.041517347 0.031649787 -0.024526246
0.009803502 0.038943384 0.059418306 0.047158804 0.038595043 0.016986884 0.06935623 -0.038803075
-0.05217736 0.04187058 0.051551975 -0.091831416 -0.0054726265 0.057743035 0.07571443 0.08270313
0.066012345 -0.07253081 -0.040201668 -0.025323533 -0.08190752 0.014820051 -0.11413371 0.071221374
0.12243259 -0.045791242 -0.11183604 0.04033177 -0.111641094 -0.018032022 0.0046269246 0.057832044
0.08405414 0.064486265 0.076598726 -0.085690804 0.109456725 0.037133135 0.021501746 0.10998212
0.035089683 -0.117862016 -0.1186556 -0.047914147 -0.026083555 0.070452645 -0.09850178 0.095134705

lstm.bias_ih_l0 f4 [256]
00000000: 4eaa 5ebd 9dd3 b1bd 7759 bdbd e23c bebd
00000010: 267a cc3d d281 fabb 5e04 ae3d 10d0 53bd
00000020: 7f7f 303d 0cbb b93d 03dc 94bc e36a 363d
00000030: 9f2c ddbd 45d2 bfbc 54ac b03d 76af 98bc
00000040: 7ae9 c0bd 96be c53c 1453 1ebd 083f 2bbd
00000050: 177c 41bd 5acf 9bbd 7d78 493d 95ea afbd
00000060: 373e 5d3d 3bfd af3d f828 abbd e0ec a9bd
00000070: 64ff 3a3d 5dae 3a3d cb37 f2bd 89bb b93d
00000080: 2ed0 ccbd 76a9 43bd 2050 bebd 7de2 7d3d
00000090: baf5 cd3c 1fc2 86bd 2999 003d ebe8 2e3d
000000a0: 969d babd 4858 a6bd 5d4b fbbd 059a ecbd
000000b0: 973d b0bd 4f20 4b3d 6d03 203d 0b54 84bd
000000c0: 70d7 ac3d 1f62 c43c 2f23 b63d 5e77 34bd
000000d0: 6388 e93d b3f2 ccb6 e455 16bd 44f7 f43d
000000e0: d8c9 12be f7ff a23d fd2c 64bd 2ef4 8dbd
000000f0: a457 b53c 1519 e5bd 3940 c23b 332a d43d
00000100: c5e2 3dbc c6b4 dfbc 102a ad3d e5fb 07bc
00000110: 8315 04be 7638 eabd c1b4 e7bd 44e4 d33d
00000120: 5a6b 8dbd 8dce e23d 96b5 5d3d b42e dfbd
00000130: 2afa e4bc cb4e 41bd 6c26 8a3d dfeb 7fbd
00000140: 8b13 8c3d aef8 57bc f145 ca3d aa9b c43d
00000150: 48d0 55bc 8ee7 b3bd de47 cc3c b022 0dbe
00000160: 2707 323d 7c89 cc3c 9e4c 18bd 6f3d c1bd
00000170: ae75 c4bd f374 abbd 0968 703d bdf7 a6bd
00000180: b459 0abe b0dc a6bd 1ce8 f6bd a9e5 9d3d
00000190: 2e05 25bd 19d1 df3c 8376 c5bc f53d 76bc
000001a0: f40f ebbb 8136 1a3d 25c7 44bd 922d 9dbd
000001b0: 4a36 d6bd 8eeb fcbd dc41 023d dc97 b23d
000001c0: 5962 02be 601b 303d 2e9d 6fbd 21ad c43c
000001d0: c779 e3bd 9051 d83d 1721 823d 55d9 e1bd
000001e0: dfd1 ebbc 6524 8ebd 85a9 18bd 554a 47bb
000001f0: 2638 cb3d 9dd7 ca3d cd77 cfbc 6419 fdbd
00000200: 435a 04be 0304 d33d f731 b6bd b54a 66bd
00000210: 722f c439 de7f 723d 7221 4a3d e3a6 093d
00000220: e8a0 a43d 7df9 dabd 27e4 c4bd b53c 693d
00000230: 6412 8abd 781c 283d 62af ca3d be71 dc3d
00000240: 44a9 523d b170 79bd f665 b33c 3707 57bd
00000250: 5b34 0ebe 8c8d 8f3d feae 84bc 39cd 823c
00000260: df2c 13bd a2e0 e63c 81a2 15be 58a4 d33d
00000270: 8389 1fbe 5412 903d 6a00 df3d f0bc 09bd
00000280: 3d0f 7a3d 7892 15bc 6f8c 87bd 5c0b e7bd
00000290: 1be1 8c3c 176a d53b d4a5 aa3d ac0c df3a
000002a0: acfd 263d a230 66bd b646 05bc f1f5 d33d
000002b0: 60d5 a9bc f0e7 763a 3c0c 873d fc68 433c
000002c0: 01ae 943d bcda 8d3d 37f7 b9bd ef3f ad3d
000002d0: 0412 c63d 38fe fcbc 9f82 49bd fbc9 443d
000002e0: 1271 453d 44ef e63c ae82 d03d 6a65 b13d
000002f0: 3140 9d3d 1168 10bd 5f57 8e3d 87e8 13bd
00000300: 65d7 a1bd 7feb 943d 70cc a0bc 116c 7f3c
00000310: 0cba d6bc 4f3c cebd 6bad a7bc 1152 ddbd
00000320: 667f 213d f3d5 c1bd 486e 00be 9d7d a3bd
00000330: 1b90 bb3c 0ee3 4bbc 3c4d a2bd 455e 04be
00000340: 05ea f6bd 5aaf 873d 39a3 9d3d ae9e 44bd
00000350: bbec 003e f83f 553d 3301 8abd b85b 753d
00000360: acda 90bd bcc0 2d3c cdf1 0c3e 711b 4fbd
00000370: b0b0 b9bc 3dcc be3d 13a6 503b b705 a03d
00000380: c764 d5bc 3f49 edbd c0ac eabd ee71 cebc
00000390: 98ae 54bd 0739 833d 4116 dabc e75a 943c
000003a0: f913 163d e53b 67bd 68d1 8f3d 22f0 b7bc
000003b0: 6403 e63c 0cd2 603d 072c 573d 99c0 c93c
000003c0: 2148 02be 4486 4a3d 2e4e d5bc 81fb 0cbe
000003d0: a5f2 f93b 4090 5ebd 6a32 1abe ea81 69bd
000003e0: 9544 be3d c564 00bd fc6c eb3d 7c8b a13d
000003f0: ce3d a4bd 7c79 d83d 08e8 01bd dfbb dcbd
-0.054361634 -0.0868294 -0.0924558 -0.09288956 0.099842355 -0.0076448703 0.08496927 -0.051712096
0.04309034 0.090688795 -0.018171316 0.04453553 -0.107995264 -0.023415694 0.08626619 -0.018638354
-0.09419532 0.02413873 -0.03865345 -0.04180816 -0.047237482 -0.076079085 0.049187172 -0.08589665
0.05401441 0.08593222 -0.083574235 -0.082971334 0.045653716 0.045576442 -0.11827048 0.090689726
-0.100006446 -0.047769032 -0.092926264 0.061983574 0.025141586 -0.065799944 0.031396065 0.042702597
-0.091120884 -0.08122307 -0.12270234 -0.115528144 -0.08605497 0.04959136 0.039065767 -0.064613424
0.08439529 0.023972569 0.088934295 -0.04405915 0.11402967 -6.1079277e-06 -0.036703005 0.11961225
-0.1433481 0.07958978 -0.055706967 -0.06931339 0.022136517 -0.11186425 0.005928066 0.10359611
-0.011589711 -0.02730788 0.084552884 -0.008299802 -0.12898831 -0.1143655 -0.11313773 0.103462726
-0.06905241 0.11074553 0.054128252 -0.1089758 -0.027951319 -0.047194283 0.0674561 -0.062480804
0.06839665 -0.013181848 0.098766215 0.09600003 -0.013050146 -0.087844 0.024936613 -0.13782763
0.043463852 0.024967901 -0.037182443 -0.09435546 -0.09592758 -0.08371916 0.058692966 -0.08152721
-0.13510782 -0.081475616 -0.1205599 0.0770982 -0.040288143 0.027321385 -0.024104362 -0.01502942
-0.0071735326 0.037649635 -0.04804148 -0.076747075 -0.104595736 -0.12349616 0.03180109 0.08720371
-0.12732829 0.042994857 -0.058499508 0.024008336 -0.111072116 0.10562432 0.06353968 -0.11027781
-0.028786598 -0.069405355 -0.03727104 -0.0030409296 0.09922819 0.09904406 -0.02532568 -0.123583585
-0.12925057 0.103034995 -0.08896249 -0.05622359 0.00037419383 0.059203975 0.049348302 0.03360642
0.08038503 -0.10692117 -0.09613829 0.05694266 -0.06741789 0.041042775 0.09896733 0.10763882
0.051430956 -0.060898487 0.021899205 -0.052497115 -0.1388716 0.0700942 -0.016196724 0.015966998
-0.035931464 0.028183285 -0.14612772 0.103340805 -0.155798 0.07034746 0.10888751 -0.03362745
0.06104969 -0.009129159 -0.066185825 -0.112814635 0.017197182 0.006512891 0.083324105 0.0017017326
0.040769264 -0.056198724 -0.008134535 0.10349644 -0.020731628 0.00094187167 0.065941304 0.011926886
0.07259751 0.06926486 -0.090803556 0.0845946 0.09671405 -0.03088294 -0.049196836 0.048044186
0.048203535 0.028190263 0.10181175 0.08661921 0.07678259 -0.035255495 0.069502585 -0.036110427
-0.07902411 0.0727148 -0.019628733 0.01558973 -0.026211761 -0.10070097 -0.020468434 -0.108066685
0.039428137 -0.09464636 -0.12542069 -0.07982943 0.022895863 -0.012444271 -0.079248875 -0.12926586
-0.120563544 0.066252425 0.07697148 -0.04800289 0.12590306 0.05206296 -0.0673851 0.059901923
-0.07072958 0.0106050335 0.13764115 -0.05056328 -0.022667259 0.09316299 0.003183727 0.0781359
-0.026049031 -0.11586236 -0.11458731 -0.02520081 -0.051924318 0.064073615 -0.02662194 0.018109752
0.03664014 -0.056453604 0.07022363 -0.022453371 0.028077789 0.054887816 0.052532222 0.02462797
-0.12722827 0.049444452 -0.026038256 -0.13767816 0.0076278024 -0.054336786 -0.15058294 -0.05700866
0.09290425 -0.0313461 0.114953965 0.07887933 -0.08019601 0.10570046 -0.031715423 -0.10778021

lstm.bias_hh_l0 f4 [256]
00000000: 62b3 67bd d53c d6bd 7325 a13c d6e0 e0bd
00000010: 10d9 98bd b2f9 8f3a 624f 5cbd d114 7dbd
00000020: 6308 02bd b0d2 f0bd e607 dcbd bd79 483d
00000030: c1b8 473d c459 ecbd 9211 73bd 9e1a 07be
00000040: 4e61 57bd f299 36bc bc8f 103d c59c bcbd
00000050: 9ec7 8b3d ee74 aabc a921 c2bd 8651 0bbe
00000060: a5a8 12bb 799a 8abc ed86 643d 8254 153d
00000070: 0ec1 79bd 423c aebd 4bbe cd3c 7672 c73c
00000080: 8f03 733d be2d b13d de1b a2bd 879c 0abd
00000090: 7800 75bc 7271 36bd 7bf2 823d 7318 53bc
000000a0: f72e 6abd 0406 26bd 7cbe 4fbd ff5b b23d
000000b0: ed77 ebbd d498 ddbd 90f9 bf3c 8908 753c
000000c0: 9edc 393d 8dc2 0ebe 58f9 21bd ab99 053d
000000d0: 073e b33d d654 e1bd 625e 01bd b115 b8bd
000000e0: 858b 11bd 4c42 833c 6ae8 28bd 62f3 a1bc
000000f0: e215 803c a982 943d a3ca 343c 4f8a e33d
00000100: ebbc 81bd aa90 703d 20b9 dcbd 62c8 873d
00000110: ac85 ae3d 4c35 19be 3f3b a43d b45c a5bd
00000120: 2eec f5bc a4e9 1ebd f744 e1bd 949e 713d
00000130: 38fe 51bb c397 dcbd 774b 583d 0192 063d
00000140: bf6f 363d 602a 90bd 27e8 9c3d 3dc9 163d
00000150: ca73 ea3d c2d0 de3d ca58 e33d 3c60 963d
00000160: a6c1 a2bd 1efe b23d 3cbc 753d 8cc3 a63c
00000170: 8ebf 94bd 77d1 82bd f21b d4bd 9a1b a43c
00000180: 4354 4cbc 445c bc3c 4af7 91bb bc6b 173c
00000190: 4992 793d d4b7 ea3c e2b1 ae3d 36aa 2fbd
000001a0: ef65 463d 134f 093d 11b5 873d d288 f33d
000001b0: 5a88 933d a27a ab3d 68d4 973c 552a 13bd
000001c0: df3f 783d 5711 b23d 1d75 ecbd b8c4 533d
000001d0: c9af e2bd 0224 733d 15a0 b33d 9901 89bd
000001e0: 3640 01be 9cfa a5bb 5d98 5f3d 759e 333d
000001f0: 2e7a 1bbd 201d 49bc 27c7 be3c 05a7 4f3d
00000200: 38d6 a4bd 5d1f b7bd 468f c6bd aadd 8a3d
00000210: 544c 1b3e 06d6 ec3d 1d61 513d 9298 363d
00000220: 57c1 ec3d c85f 563d 9e9f f83c 0775 7bbd
00000230: ebdd 543d 73a2 063d f86a 183e b285 a33d
00000240: c33d 22be a792 dd3d 0fa3 bc3c dece 633d
00000250: a3ad b63d 4cb1 58bb d7d7 e1bd 340d 8f3d
00000260: bf42 88bd df0d af3d 19f5 0b3c 2261 f4bd
00000270: 27d0 11be da78 b1bc c47d eb3d cb73 853c
00000280: 4a3a ebbd 878c 563d f5d1 b73d 37f0 9ebd
00000290: 536f b7bc 8623 ec3d 56e0 563d 31c1 8a3d
000002a0: e4f3 32bd da34 64bd ba9b bc3c ca20 103e
000002b0: f17a d2bd a242 8dbc 709e a73d b21b ff3d
000002c0: c1f9 b33d 46c0 5f3d 25eb 78bc 0723 b8ba
000002d0: bac1 a73d 52b9 633d d8b6 e33d 2c04 de3c
000002e0: 5f35 983b e25b 1f3e fd14 4abd 593e 15be
000002f0: 5b45 cd3d 76e6 46bd d9f1 c73d 62a8 9dbd
00000300: 9f71 d6bd c885 e63d bc82 38bd 920c aabd
00000310: b543 8a3c 36a6 45bd 70a1 16bc 24cf 333d
00000320: 46d5 c63d d181 273c f55a dbbd d842 b53c
00000330: 449f 1a3d 2875 08bd ed7a e6bd cee3 8bbd
00000340: c60c 0abd 7c4e b03d 87ab 893b 8515 8bbd
00000350: 288f 4bbc b303 74bd 2e3c 31bd 52f7 09be
00000360: c084 153d 67d0 c53d b290 74bd c0aa b63d
00000370: 79be 94bd 98c6 12bc 7080 713d 842c 91bd
00000380: 9ede cabc cfb7 b73d 9188 a93c 0ee0 223d
00000390: fcd7 243d d01f fb3b e231 d8bc acfa f53b
000003a0: 4c4e 7f3d d7b9 02be d073 69bd 6356 8d3d
000003b0: 003d 05be c216 ad3c 2e9b aabd 4194 08bd
000003c0: c72d 5b3d 1f36 b5bd 4660 e43d 414c febd
000003d0: cfb3 a9bd ae6e 943c 8a0e 903d e60e 49bd
000003e0: 60ac e7bc ec73 d7bd cdb3 de3d d874 f3bd
000003f0: 4d22 d43d e6d1 cebd 202f f4bd 67f1 4abd
-0.056567557 -0.104608215 0.019671177 -0.10980384 -0.074632764 0.0010984449 -0.053786643 -0.06178743
-0.03174628 -0.117589355 -0.10743694 0.048944224 0.04876018 -0.11540559 -0.05934293 -0.13193747
-0.05258303 -0.011145102 0.035293326 -0.09209589 0.06825183 -0.02080771 -0.094790764 -0.13605317
-0.0022378352 -0.016919361 0.055792738 0.036457546 -0.060975127 -0.08507587 0.025115153 0.024346571
0.059329566 0.08651303 -0.079154715 -0.033840682 -0.014953725 -0.044541784 0.06393906 -0.012884247
-0.057173695 -0.04053308 -0.05071877 0.08708953 -0.114974834 -0.10820165 0.02343443 0.014955648
0.045376413 -0.13941403 -0.039544433 0.032617252 0.08752065 -0.11002509 -0.03158415 -0.08988512
-0.035533447 0.016022824 -0.041237272 -0.019769374 0.015635435 0.07251484 0.0110346405 0.11110365
-0.06334861 0.058731712 -0.10777497 0.06630017 0.0852159 -0.14961737 0.08019113 -0.08074322
-0.030019846 -0.038797036 -0.10999482 0.058989123 -0.0032042395 -0.10771134 0.052806344 0.032854084
0.044540163 -0.070393324 0.07661467 0.03681301 0.11447866 0.10879661 0.111009195 0.07342574
-0.07947092 0.08739875 0.059993967 0.020356916 -0.07263099 -0.063876085 -0.10356893 0.020032693
-0.012471261 0.022993214 -0.004454528 0.0092419945 0.060930524 0.02865211 0.08530022 -0.042886935
0.048437055 0.033522677 0.066263326 0.11891331 0.07203741 0.08373 0.0185339 -0.035929043
0.060607787 0.086947136 -0.11545775 0.051701277 -0.110686846 0.05936051 0.087707676 -0.06689758
-0.12622151 -0.0050652754 0.054588664 0.04385229 -0.037958317 -0.01227501 0.023288323 0.05069639
-0.080486715 -0.08941529 -0.09695296 0.0678056 0.15165836 0.11564259 0.051118005 0.044579096
0.11560314 0.052337438 0.030349549 -0.061390903 0.05196945 0.032869767 0.14884555 0.07984485
-0.15843873 0.10818987 0.023026971 0.055617206 0.08919837 -0.0033064662 -0.11027496 0.0698494
-0.06653356 0.085475676 0.008542323 -0.11932589 -0.1423956 -0.021664072 0.11498597 0.016290566
-0.11485727 0.05238011 0.08975593 -0.07760661 -0.02239195 0.11530213 0.052460037 0.067751296
-0.043689623 -0.055714466 0.023023475 0.14075008 -0.102773555 -0.017243687 0.081845164 0.12456454
0.08787871 0.054626726 -0.015192782 -0.0014048525 0.08191247 0.055596657 0.11118859 0.027101599
0.004645034 0.15562394 -0.049336422 -0.14574565 0.10022994 -0.04855963 0.09762926 -0.07698132
-0.1047089 0.112559855 -0.045046553 -0.08303179 0.016877988 -0.048254214 -0.009193763 0.043898717
0.097086474 0.010223822 -0.10710708 0.0221266 0.037749544 -0.033314854 -0.11253915 -0.0683056
-0.033703588 0.0860872 0.004201356 -0.06791214 -0.012424268 -0.05957384 -0.043270282 -0.13473251
0.036503553 0.0965889 -0.059708305 0.08919287 -0.07262892 -0.008958481 0.05896038 -0.07088569
-0.024764355 0.089706056 0.020695003 0.039764456 0.04024504 0.0076637045 -0.026390973 0.007506689
0.06233053 -0.12766205 -0.056995213 0.069012426 -0.13011551 0.021129016 -0.083303794 -0.03334451
0.053510454 -0.088482134 0.11151175 -0.12416888 -0.08286249 0.018119182 0.07034023 -0.049086474
-0.028280437 -0.10520157 0.10874138 -0.118875206 0.10358105 -0.10098629 -0.11923051 -0.049546625

lstm.weight_ih_l1 f4 [256, 64]
00000000: 7cdd cbbd 6f84 12bd 0e4b c8bd 31c7 e9bd
00000010: 97ba 623d d0d9 bbbd 165d b8bc ff3f be3d
00000020: 111c b53d fc58 2b3d b43d 9abd d8ed 13bd
00000030: c45f d9bd 4a3c 61bc 027c db3d 8d85 79bd
00000040: 969e 1abd 137d 30bd ef49 b83d 1758 58bd
00000050: fe6f 11bb 68c9 e3bd b013 433d 1e07 fe3d
00000060: ae2f 623d 94f9 1cbd 655b 9dbd 06b5 00be
00000070: 07eb 43bd 90f3 c33d e622 47bd e55e 053d
00000080: 9204 08bd 2683 d6bc d8e1 da3d 8270 1e3d
00000090: 22fc dbbd 312f f7bc 07a3 10bd 199d 0e3d
000000a0: fc91 fbbd 8d5c 1abd 743f 36bd 1172 353d
000000b0: 23c2 ae3d 7158 0cbc e5b5 043d 9f8f 863d
000000c0: d8f3 b73d 861f e33b 1122 fd3d 94d9 68bd
000000d0: 2d03 94bd fea1 463d cef1 903d 6a0e 01be
000000e0: acf2 e2bc e12a 48bd ffc9 bc3d 13f1 193d
000000f0: 54ba d7bd a095 e9bc b6e5 c83d 1199 e4bd
00000100: 2cd9 b1bd 4d71 0b3c a166 0c3d 64f0 34ba
00000110: c1ec 11bd d69d 9a3d 9cfa 17bd 4858 203d
00000120: 745b 893d 21f7 843d a001 debd 6b0d 98bd
00000130: 9284 53ba ab33 e23d 8d2c 883c 1b37 0dbe
00000140: a3c9 a9bb 83d2 3fbd c508 babc 02e4 c7bb
00000150: db89 61bd ded5 a7bb 7a6f 2f3d 51c7 753d
00000160: 6671 c9bd ce9b 6c3d 6ce8 8bbd 50d4 103d
00000170: d7cc b73d 4b57 be3d 44ab c6bd 2a72 92bc
00000180: a2d5 dfbd 69b2 e2bd 2bbc 9bbd 0d04 f13d
00000190: bd06 c93d 9e38 9bba ed55 7fbd ec5a f4bd
000001a0: 4634 84bd ce6a 08bd b604 9cbd 98ab 80bc
000001b0: cce0 bcbd 4e5b a43d ede9 8e3d b074 a7bd
000001c0: 4ac0 0a3d 6f47 4a3d feb3 4dbd c964 85bd
000001d0: 7553 2aba 1c9a 0a3c 9d74 0abc 5618 22bd
000001e0: 3a41 7dbd 2074 083d c79d 8e3d 86ee 9abd
000001f0: 6556 c73d 5a10 10bd 03fe d3bc 3afc 003c
00000200: a3d5 45bc aa70 cdbc 2703 6dbc 1cc1 163e
00000210: 17fb 24bd 4f24 b53d 4d80 8dbd f27a 863d
00000220: 2664 bb3d caba d93d 3250 92bd 6738 00bd
00000230: cc97 88bd db2a a1bd 685b 00bd 0699 6cbd
00000240: 9646 613d 91d6 f83d eb68 d73c 1cfd c83d
00000250: 2198 3a3c 07ab 8bbd 6bf6 0bbd df5b 4fbd
00000260: c99d 02be ebc0 1c3d 5eb4 963c f009 e5bc
00000270: 2360 b9bc b5c5 313e 978d a7bd 0901 493d
00000280: b0ea 273c 2ab8 a83d 0777 c0b9 3b59 f53c
00000290: 9f12 6c3d f024 bebc 52ed cabb e83f 0cbd
000002a0: 0ff7 16bd 9a06 44bd 3db8 b03d b224 dabc
000002b0: d455 d13d 76be f53d 1994 453c b9f9 f3ba
000002c0: 56c9 3e3d bfb7 463c c85c ccbd fb19 033b
000002d0: b56b db3d d28b 18be 72e5 91bd 8ead d23d
000002e0: 8039 cdbd 57dd 8fbb acac 043e 9e6a c4bd
000002f0: be3b e5bd cb20 d2bd d69b 16bd b0b7 0c3e
00000300: 3355 26bb d172 4b3d 8027 1b3e d4db ca3c
00000310: bab2 13be d922 a33d 7fe3 f0ba 28a4 42bd
00000320: 593b 65bc b19e 2ebd 080c 8dbd adf6 6bbd
00000330: 0f4a 80bd 51e8 ad3c 6116 b73d a1ef 8abd
00000340: eded a2bd 626c ccbd 5fef a6bd 9546 0f3e
00000350: 2e39 123e c81f 4b3d d2d1 6bbd 8470 bfbd
00000360: e4cd b3bd 60ef e8bd 3708 6abd bb53 d23a
00000370: f2ab 7bbd 496e df3d 0ba6 573d b50a b13c
00000380: 0828 fdbc f780 c0bd 1b55 673d 4ad3 093e
00000390: 9e1b 02be 162a 933d 3c68 febd 88c6 09be
000003a0: 00af adbd 3e11 a33d ff23 67bd 1e17 b83d
000003b0: 4e06 453d 36f2 043e 70a6 c0bc d5d5 bebd
000003c0: e111 033e 969a 833d ca9d eebd 1e87 9f3d
000003d0: 9de0 fc3d 4825 7c3d baa3 52bc c4dd fb3d
000003e0: dc2e a6bd dea8 73bd 3588 933c 6f41 c23c
000003f0: b8f9 973d 562b a63b 4fe2 b83c 9b80 973d
-0.09954354 -0.03577083 -0.097799405 -0.11414946 0.055353727 -0.09172404 -0.022505324 0.0928955
0.08843244 0.04183291 -0.075313 -0.036115497 -0.10613969 -0.013747284 0.10717012 -0.06091838
-0.037748896 -0.04308803 0.08998477 -0.052818384 -0.0022191997 -0.111223996 0.047626197 0.12403701
0.055221252 -0.038323954 -0.07683448 -0.12569055 -0.04783156 0.0956794 -0.048617266 0.0325612
-0.033207484 -0.026185583 0.106876075 0.038681515 -0.1074145 -0.03017387 -0.035311725 0.03481779
-0.12283704 -0.03768592 -0.044494107 0.044298235 0.085331224 -0.008566008 0.03240003 0.06570362
0.089820564 0.006931248 0.12360013 -0.056848124 -0.07227168 0.04849433 0.070773706 -0.12603155
-0.027703606 -0.048869018 0.09218215 0.037583422 -0.10533586 -0.02851373 0.09809439 -0.111620076
-0.086840004 0.0085109 0.034277562 -0.0006902276 -0.035626177 0.07549636 -0.037104234 0.03914669
0.067068964 0.064924486 -0.10840154 -0.07424434 -0.0008068766 0.11045011 0.016622806 -0.13790552
-0.0051815077 -0.04683162 -0.02270926 -0.0061001787 -0.05506311 -0.0051219305 0.04283092 0.060004536
-0.09836082 0.057765774 -0.0683144 0.035358727 0.08974617 0.092939936 -0.09700635 -0.017876703
-0.10929419 -0.11069185 -0.076042496 0.11768351 0.09815738 -0.0011842435 -0.062337805 -0.119314045
-0.06455283 -0.033304982 -0.07618086 -0.015706822 -0.09222564 0.080252275 0.069782116 -0.08176553
0.033874787 0.04938453 -0.050220482 -0.06513364 -0.00064974214 0.008459594 -0.008450654 -0.03957399
-0.061829783 0.03331387 0.069636874 -0.07565026 0.09733275 -0.035171844 -0.025877958 0.0078726355
-0.012074861 -0.025078136 -0.014466084 0.14722103 -0.04027852 0.08844816 -0.06909237 0.06566419
0.09149961 0.1063133 -0.07144202 -0.03130379 -0.06669578 -0.07869502 -0.03133717 -0.057763122
0.054998957 0.121503 0.026295146 0.09813902 0.011388809 -0.0681973 -0.03417055 -0.050624724
-0.12755503 0.03826992 0.018396553 -0.02795884 -0.02262885 0.17360575 -0.08181303 0.049073253
0.010248825 0.082382515 -0.00036709776 0.029949775 0.057634946 -0.023210973 -0.0061928416 -0.034240633
-0.036856707 -0.04785786 0.08628891 -0.026628826 0.102214485 0.11999218 0.012059235 -0.0018613852
0.046578728 0.012128769 -0.09978634 0.00200045 0.10713903 -0.14897087 -0.07123841 0.10287009
-0.10020733 -0.0043903994 0.12956494 -0.09590648 -0.111930355 -0.10260161 -0.03676971 0.13741946
-0.0025380373 0.049670044 0.15151787 0.024763025 -0.14423648 0.07965631 -0.0018378346 -0.047519833
-0.0139912 -0.04263181 -0.068870604 -0.057608295 -0.062641256 0.021228941 0.08939815 -0.06783987
-0.07955537 -0.0998161 -0.08151125 0.13991769 0.14279625 0.049590856 -0.057573147 -0.093476325
-0.08779505 -0.11373782 -0.05713674 0.0016046682 -0.061443277 0.10909707 0.052648585 0.02161155
-0.030902877 -0.09399598 0.056477647 0.13459507 -0.12705848 0.07185762 -0.12422225 -0.1345464
-0.08480644 0.07962273 -0.056430813 0.08988784 0.048101716 0.12983021 -0.023516864 -0.09318129
0.12799789 0.06425969 -0.116511896 0.077894434 0.12347529 0.06155899 -0.012856418 0.12298158
-0.081144065 -0.059487216 0.018009285 0.023712842 0.07420677 0.005071084 0.02256885 0.073975764

lstm.weight_hh_l1 f4 [256, 64]
00000000: bd0d a83d e61e a8b9 5595 d43d 4843 993d
00000010: 6ad5 4fbd 95dd f73d f19b 103e 9e9e e13c
00000020: c3ab 533d 313e 473d b914 e63d a8da 89bd
00000030: b8d9 c5bc 1ccb 8bbd 0ba6 11bd 303c 09bd
00000040: 8020 86bc 6bd8 4d3d c07f 6d3d 85bc 0dbe
00000050: 5a2d bf3d 78ae 3ebd d449 eebd bbb8 c03d
00000060: 238d b13d 6f63 91bd 7369 243d 84b3 6f3c
00000070: d39b f03c 7c07 32bc 05ae abbd 93ef cd3d
00000080: e40a 8ebc f025 aabd 0b39 09bd 38dd a13d
00000090: 260c eb3d 0998 98bd 76dd 883d 95fe d7bd
000000a0: c1fe 3dbd 2179 05be 88fc a53d 76c9 3fbd
000000b0: 301b 213d a673 d7bd 20a4 b7bd 6d78 0cbe
000000c0: dd06 a4bb b960 6ebd 8e27 11bd 9bea e0bd
000000d0: bc4f c4bd 4bfd 9a3d 8e92 a73d a7ec b8bd
000000e0: e262 de3d 1c94 aebd 60a4 78bd a8fa 893d
000000f0: b8a9 edbc 0c24 a4bd 7d7a d0bd df4b a5bd
00000100: d7a0 d13d 655a 8e3d e588 90bc fb2f 813a
00000110: acaa 1b3b 9c51 023e 8bcf 3d3d ccf5 97bd
00000120: 649a 5fbc d822 adbd 116d 453c 0b61 f43c
00000130: ca74 09be 5c43 17be cf17 c9bd d5a0 a0bd
00000140: 0995 a23d 3d47 11bd 832c 9e3d f36b 6e3c
00000150: 0460 46bd 3328 d8ba f345 963d 76ea adbc
00000160: 3c09 143d cdf4 08be a46b ea3c fe7f 13bd
00000170: 29d7 cd3d 404a 19be 7242 883c 100b 6abd
00000180: ff45 1a3d aee3 af3d f793 76bd 0217 10be
00000190: 6e7e 4abd 68b4 cdbd dd7c 7fbd df75 f83a
000001a0: 55bf 36bb 79c3 c1bd b68b a03d 71d9 c23d
000001b0: e82f 9a3d 7b21 f4bd 5d5a ffbd c1d6 bfbc
000001c0: 9148 193d 8bda 1fbd 718f 80bd fbc3 103d
000001d0: bbfc 0a3e 4dd0 bb3d 853d 6e3c c612 02bc
000001e0: 81e0 59bd fd3d f5bd 881a a03c 3f61 0ebd
000001f0: 8aa7 27bd c5f2 e43d c673 c43d b8f3 8cbd
00000200: a151 b83d d51f aa3d 0b52 b33d 6c92 3c3d
00000210: a06e c5bc f516 8fbd 642b 98bd 0cb6 f23d
00000220: 629a f13d 8912 1cbd 19ca f7bc 4561 623d
00000230: 321e d63d 9594 c43d 01c9 00bd 005c 4c3c
00000240: eed1 6cbc 7596 c7bd 0621 883d 48bb bcbc
00000250: a0bc 983d 5c21 e2bd 1665 fb3d e31f 6a3d
00000260: 8b66 973d 8c10 dabd ade4 0fbe 9782 31bc
00000270: db0d d73d 2f80 633d 0415 2fbc 0bec 5abd
00000280: c4d8 95bd 6d3d 82bd e94a 07bd 93d7 8a3d
00000290: 93ac b63d c456 603d 68eb ef3b 8e8e 033e
000002a0: 50af b2bb 91c8 21bd f29a 5b3d eb94 ab3c
000002b0: 80ba 39bd 462b bd3d 91b9 f53d 351a febc
000002c0: 686e febd 82a3 ae3d 32f6 41bd 87ef e6bd
000002d0: de0e cd3d 91c7 b4bc fd11 ac3d 07eb f8bd
000002e0: 4193 30bd 2dc9 133d a02f 1bbb ea18 143c
000002f0: 75f0 debd 4e34 2fbd 51ba f8bd acc4 993d
00000300: 1f43 a4bd 1704 c8bd 8137 79bd 88b9 4dbd
00000310: 70aa adbd 49cd c2bc 9c86 e6bd ce1e d1bc
00000320: b92c 633d c2f9 48bd 786b e03d 1c34 d63c
00000330: 8b61 e63d 1a4e d3bd 0443 803c a2a1 db3d
00000340: 94e7 8fbd 63ac 3a3d e28d d33d 87c4 08bd
00000350: f970 83bc d9c0 043e 097b e33d c066 e1bd
00000360: c354 8bbd 97bd cc3c 1bb1 dfbd 0a71 94bc
00000370: 0898 853d 2129 0bbd b44c a3bd d5ba f1bd
00000380: 2cc5 0abd 3361 bb3d 5b0c ea3d 7bc3 363d
00000390: 5a28 a33d ec6e c4bc 2284 2b3d 3a96 6b3d
000003a0: 7bfc 993c e1b5 3c39 bf7b 83bc efd3 513d
000003b0: a610 d83c 84be e1bd 411d b53d 18d7 2b3d
000003c0: a0dd 4dbd 1d98 fb3d 8d23 ef3c a0fd 26bd
000003d0: 860b 8bbd c6df 9f3d cf56 95bc 9327 863d
000003e0: 6910 6f3d 5c73 8dbc 13ae d3bd 0eba b0bc
000003f0: f606 353d fba6 d23d 3e6e d9bd 8f58 d53d
0.08205745 -0.00032066478 0.10380045 0.07483536 -0.050740637 0.1210281 0.14121987 0.027541455
0.051677477 0.048643295 0.11234421 -0.067311585 -0.024151668 -0.068258494 -0.03555874 -0.033504665
-0.01637292 0.05025522 0.05798316 -0.13841446 0.09334822 -0.046553105 -0.11635175 0.094102345
0.08669498 -0.070990436 0.040139627 0.014630202 0.029371178 -0.010866042 -0.08382801 0.10055461
-0.017339177 -0.08308017 -0.033501666 0.07903522 0.114769265 -0.074508734 0.06682865 -0.105466045
-0.04638553 -0.13034488 0.08104807 -0.046822987 0.03933257 -0.10520105 -0.08966851 -0.13717814
-0.005005701 -0.05819771 -0.035438113 -0.109822474 -0.095855206 0.07567843 0.0818225 -0.09029513
0.10858704 -0.08524343 -0.060703635 0.06737262 -0.029011592 -0.08014688 -0.10179613 -0.08071112
0.10235756 0.06950835 -0.017643401 0.0009856218 0.0023752851 0.12726444 0.046340507 -0.07419929
-0.013647649 -0.084539115 0.012049929 0.02983143 -0.13423458 -0.1477179 -0.09818994 -0.07843176
0.079385825 -0.03546833 0.07723334 0.014552104 -0.04843141 -0.0016491472 0.073375605 -0.021229964
0.03614162 -0.13374634 0.02861578 -0.036010735 0.10050804 -0.1496973 0.016633246 -0.057139456
0.03766441 0.08588348 -0.060199704 -0.14071277 -0.04943698 -0.100441754 -0.06237494 0.0018956027
-0.002788504 -0.094611116 0.07839148 0.0951413 0.07528669 -0.119204484 -0.12468407 -0.023417832
0.03742272 -0.03902678 -0.06277359 0.03534315 0.13572972 0.091705896 0.014541035 -0.007939046
-0.05319262 -0.11974714 0.019543901 -0.03476071 -0.040931262 0.11179117 0.095923945 -0.06882423
0.089999445 0.08306853 0.08755883 0.046038076 -0.024100602 -0.069868006 -0.07430151 0.11851129
0.11797024 -0.038103614 -0.030247735 0.055268545 0.10454978 0.09598652 -0.031441692 0.012473106
-0.014454348 -0.09745494 0.06646924 -0.023038521 0.07457852 -0.11041519 0.1227514 0.057159316
0.073926054 -0.10647687 -0.14052077 -0.010834358 0.105006896 0.055542167 -0.010686163 -0.053447764
-0.073167354 -0.06359372 -0.033030424 0.06779399 0.08919635 0.054770246 0.007321764 0.12847349
-0.005453028 -0.039497916 0.053614564 0.020945033 -0.045343876 0.092367694 0.119982846 -0.031018356
-0.12423402 0.085272804 -0.04735393 -0.11276155 0.10012601 -0.022067817 0.084018685 -0.12154203
-0.043109182 0.036080528 -0.002367951 0.009039143 -0.10885707 -0.04277449 -0.12144912 0.07508215
-0.08020615 -0.09766405 -0.06084395 -0.050225765 -0.08479774 -0.023779528 -0.112561435 -0.025527384
0.055462573 -0.049066313 0.10957998 0.026147895 0.112490736 -0.10317631 0.015656956 0.107241884
-0.07026592 0.045574557 0.103297964 -0.033390548 -0.01604508 0.1296419 0.111074515 -0.11005926
-0.068032764 0.024992747 -0.10922452 -0.018120307 0.06523138 -0.03397477 -0.07973614 -0.118032135
-0.033879444 0.09149399 0.11428138 0.04462002 0.07966681 -0.023978673 0.04187406 0.057516314
0.01879715 0.00017996832 -0.016050218 0.051227506 0.026375126 -0.11022666 0.0884347 0.041953176
-0.050260186 0.12284873 0.029191757 -0.04076922 -0.06789307 0.07806353 -0.01822987 0.06550517
0.05836526 -0.017266922 -0.103359364 -0.021573093 0.04419609 0.10285755 -0.1061673 0.10417282

lstm.bias_ih_l1 f4 [256]
00000000: 981c e2bd 8dd6 6abd 0a40 5e3c 3d74 8d3d
00000010: 4508 d33d 52dc b33c f9d3 573d 5b89 51bc
00000020: db76 c43d 4ba0 0ebe 5655 8f3d 1f17 6dbd
00000030: 2b89 253d 951a 293d 0707 e4bd fb15 0abd
00000040: 6659 b53d 3cd3 0cbe 8db0 bc3d 8d60 9abd
00000050: 5542 2abc 0c6c 76bd 2643 983d 83d4 273d
00000060: 6592 8e3d e97d fbbc 8220 993d f173 12bc
00000070: 2047 cb3c 6de6 343d 8496 07be b491 debd
00000080: e9d2 b2bd a137 913d 3d7f bb3c 1c89 83bc
00000090: 188c 2e3d 4bb2 21bd 4619 a43c de1d e5bd
000000a0: 036d fabd 07aa 09be bd1a fdbc 0658 47bc
000000b0: 961b c53d 0b63 a83d 05bd 513d 23db c73d
000000c0: a609 f33c 97b6 8fbb ec67 3fbc c201 cbbc
000000d0: c8d9 ed3c 7e88 bfbd 0503 d3bd 9030 fbbc
000000e0: b71c d4bd 4eb7 55bd 6bb5 4ebd 2c80 0ebd
000000f0: 5f89 553d 6421 423d 1167 a4bd fc5e d53d
00000100: 6e19 d63d 610d f8bc 8952 033e 0a2a aebc
00000110: b759 90bd a973 373d ac1c 8ebc 09ab 143e
00000120: 6fe2 923c 603c 923d c7e2 bd3d 634c e7bc
00000130: 0875 133d a692 85bd c03f b03b b0fe ec3d
00000140: 190b 83bd 1b67 1ebd a468 353d 9637 d0bd
00000150: 2753 4fbd 1376 f5bd 68b0 0d3e e9e5 14be
00000160: 8805 e73c 0536 433c 699c 6b3d 2eb0 dabc
00000170: e2a4 a1bd 7c5f 04bd ec38 89bd 5168 973d
00000180: 523e a6bc e4c0 013c 7e10 bfbc 3412 173d
00000190: 7c3d 30bd 316c aebd 15d4 abbd 0a33 56bd
000001a0: 6ad5 69bd 5c65 4cbd 1fd1 343d aa77 14bd
000001b0: 5ee1 f6bd d3fe b13d 6c55 843d 73aa 72bc
000001c0: c7e1 fd3d 7e0b 943d 9784 013c eb21 b13d
000001d0: 3d21 d23d fe7a 403d 78b7 71bd 7904 f53c
000001e0: 20db 573d c800 f5bc 4b63 be3c 97b7 26bd
000001f0: 1233 353d 73ef 313d 9309 013d 260e c7bd
00000200: 358f be3d 5738 80bc 18e8 c6bd eb8c 99bd
00000210: 754c a9bb 3e9b 3b3d fef5 ccbd 5b02 ae3d
00000220: 817e 69bd d0f4 e63d 12bc f6bd b00f b9bc
00000230: 8cc8 0b3e 2acb 763d cc9b cd3d 9ec5 d3bd
00000240: e122 e33c 1a2a 883d 963b 893d e6a7 6cbd
00000250: e25b 88bd ac92 0abe 6477 8cbd 78f5 e6bd
00000260: c226 e33d f847 9ebc 2c5c c13d e130 81bd
00000270: 3922 d7bd fa3b fb3c 9d2b 1abc 885f 843c
00000280: d848 453d 4a68 b23c a570 ff3d ff3f 96bd
00000290: d3e0 d23d ff10 89bb 4590 77bd 7ef5 2d3c
000002a0: 9e7b 383d 9be8 c6bd 3569 e1bd 5df5 903d
000002b0: 293a 21bd 0b78 b43d 79bf a73c 49a1 ff39
000002c0: 2e96 c0bd a622 b6bd 41f1 bbbc beea d9bd
000002d0: a3c8 5ebb fb68 133e e83a cbbd f1d9 b13d
000002e0: 1564 76bd 40c5 913d 563f 09be 6200 9dbd
000002f0: 6e2b 0abe 55a1 7e3d 5b4a 063d acef e53d
00000300: a987 2a3d 8f02 1e3d 03a1 873d 14d0 aabc
00000310: e1a8 9f3d 5272 4c3d b120 d4bd f89e 04bd
00000320: 153b c6bd ba82 c9bc 7acf b63d 41d5 9abd
00000330: 6561 e83d 47e8 e7bd f845 8cbd fcca 3d3d
00000340: 2f2e ccbc bc0a d03b d4e7 363d dfbb aa3d
00000350: 4cb1 eeba 919c d23c 8140 863d df9e d0bd
00000360: 871e f23d a049 19bc aa8c 143e 693c 58bd
00000370: acf6 8ebd 176e 88bd 4a50 bd3b 09eb 173c
00000380: 62d6 08be 4644 803d 35fa ea3c 4cdc 89bc
00000390: 85bf 09be c755 0fbd d092 f9bd 9795 db3d
000003a0: 60fb 84bd 0f71 a03d 34aa 1cbd 04f1 fb3b
000003b0: 914d f83d 12ce f5bd 14b3 afb9 a695 b93d
000003c0: cc3e 9f3c c31d 7abd fb58 22be bc84 ffbc
000003d0: 9d82 f3bc fd18 d2bd ff17 3abb bd97 e93d
000003e0: f704 873b 2359 bb3d 95f9 07bd 7ba1 053e
000003f0: 8a20 c93c dc74 9f3d d33b cc3c 57f9 7ebd
-0.1104061 -0.057333518 0.013565073 0.06906936 0.10304312 0.021955643 0.052692387 -0.012789096
0.095929824 -0.13928334 0.069986984 -0.057883378 0.040414017 0.041285116 -0.11134153 -0.03371237
0.08854942 -0.13752455 0.09213362 -0.07537947 -0.010391791 -0.060161635 0.074346825 0.04097415
0.06961516 -0.030699687 0.074769035 -0.008938775 0.024814188 0.044165064 -0.13241011 -0.108676344
-0.08731634 0.070906885 0.02288782 -0.01605659 0.042614073 -0.039476674 0.020031583 -0.11187337
-0.122278236 -0.13443767 -0.030896539 -0.0121669825 0.09624402 0.08222016 0.051205654 0.09758594
0.029667687 -0.00438578 -0.011682492 -0.024781112 0.02903451 -0.09352206 -0.1030331 -0.030662805
-0.103570394 -0.052176766 -0.050465982 -0.034790203 0.05213296 0.047395125 -0.08027471 0.104185075
0.10454069 -0.030279817 0.12824453 -0.02126028 -0.07048362 0.044788036 -0.017347656 0.1451837
0.017930238 0.07140422 0.0927177 -0.028234666 0.03600028 -0.065221116 0.0053786933 0.11572015
-0.06398601 -0.038672548 0.044289246 -0.10166852 -0.05061641 -0.119854115 0.13836825 -0.14540829
0.02820088 0.011914735 0.05752221 -0.026695337 -0.07892777 -0.032317623 -0.0670031 0.07392944
-0.020293389 0.007919524 -0.023323294 0.036882594 -0.043027386 -0.085167296 -0.08390061 -0.05229477
-0.057088293 -0.04990135 0.044144746 -0.036246933 -0.12054704 0.08691182 0.064616054 -0.014811146
0.12396579 0.072287545 0.007905147 0.086490475 0.10260246 0.046992294 -0.05901286 0.02990936
0.05269921 -0.0299076 0.023240706 -0.04070243 0.044238158 0.043441247 0.03150327 -0.097194955
0.09304658 -0.015651865 -0.09712237 -0.07497581 -0.005166585 0.045802347 -0.10007857 0.08496543
-0.05700541 0.11277163 -0.1204759 -0.022590488 0.13650721 0.060252346 0.100394815 -0.10340427
0.027726592 0.06648655 0.06700818 -0.057777308 -0.0665815 -0.13532513 -0.068587095 -0.11277288
0.11091377 -0.019321427 0.094414085 -0.06308151 -0.10504574 0.030668247 -0.009409812 0.016158834
0.048165172 0.021778245 0.12472657 -0.07336425 0.10296788 -0.0041829343 -0.06044032 0.010617612
0.045039766 -0.09712335 -0.11006395 0.07078049 -0.039362106 0.08811959 0.020477043 0.00048757557
-0.094036445 -0.088933274 -0.022942187 -0.10640477 -0.00339941 0.14395516 -0.09923345 0.08684147
-0.06015404 0.071177006 -0.13403067 -0.07666089 -0.1349313 0.062165577 0.032785755 0.112273544
0.04163328 0.03857666 0.066225074 -0.020851173 0.07795883 0.04991371 -0.10357798 -0.032378167
-0.09679238 -0.024598468 0.08926292 -0.07560206 0.113467015 -0.113236 -0.06849283 0.04633616
-0.024924366 0.006348936 0.044654682 0.08336615 -0.0018210798 0.025709422 0.06555272 -0.10186552
0.11822229 -0.0093559325 0.14506784 -0.052791987 -0.06980643 -0.06661623 0.0057773935 0.009272345
-0.1336303 0.06263022 0.028683761 -0.016828679 -0.13451965 -0.034993913 -0.121862054 0.107218914
-0.064932585 0.07834064 -0.038248256 0.0076886434 0.121241696 -0.120021954 -0.00033512025 0.09061746
0.019439124 -0.06106354 -0.15854256 -0.031191222 -0.029725367 -0.102586724 -0.002839565 0.11405895
0.004120465 0.09147861 -0.033197004 0.13049881 0.024551649 0.07785961 0.02493087 -0.062249508
