best_model.pt (torch, 214194 bytes, 9 tensors)

lstm.weight_ih_l0 f4 [256, 11]
000000 9c 52 25 3d 1f 2a eb bd 1c 69 af bd 99 f9 51 3d
       0.040361986 -0.11482643 -0.0856497 0.051263425
000010 bf 63 4a bd 74 f0 94 3c ee c1 58 3d a4 af 02 bd
       -0.04941153 0.018181063 0.05291932 -0.031905785
000020 8a 40 91 bd d5 99 49 bd 69 d1 d6 3b 04 5b 0c 3e
       -0.07092388 -0.04921897 0.0065557254 0.13706595
000030 a4 93 e3 3d fd c8 bd 3d a0 97 22 3d f8 d3 a9 bd
       0.111121446 0.09266851 0.039695382 -0.08292383
000040 33 17 6d bc 0f 10 1a 3d 7a 2f 45 bd df fb e2 3d
       -0.014470863 0.03761297 -0.04814098 0.11083197
000050 f8 90 03 bd 08 da 87 3d 2c 0b 00 be 43 43 19 3d
       -0.032120675 0.06633383 -0.12504262 0.03741766
000060 c5 12 fd bc 1f ba b7 bd f9 49 aa bd c0 a8 8c 3d
       -0.03089274 -0.08971047 -0.083148904 0.06868124
000070 d8 4d 13 be 9d 43 b2 bc b7 7d 30 bd 38 54 04 be
       -0.14385164 -0.021760756 -0.04308864 -0.12922752
000080 b5 59 8d bd a0 c9 83 3d 98 7e e3 bd 44 78 13 3d
       -0.06901876 0.06434941 -0.1110813 0.036003366
000090 cf df 17 3c 03 8d 38 3d b0 1e 3b bc ce 05 11 be
       0.009269669 0.045056354 -0.011420891 -0.1416237
0000a0 45 6a e3 bd 4b e0 1a be b1 75 9b 3d fd ac de bd
       -0.11104254 -0.15124623 0.07590807 -0.10872839
0000b0 62 70 ee bd c1 d2 45 3d 7b 71 8d bc 61 21 69 bd
       -0.11642529 0.048296694 -0.017266026 -0.0569166
0000c0 e6 58 bd bb e4 ce 92 3d 69 d7 40 bd 1c ee f3 bb
       -0.00577842 0.071683675 -0.04708043 -0.0074441563
0000d0 78 bb 30 3d d0 05 30 3d cf 42 79 3d 8f f4 07 3d
       0.043147534 0.042974293 0.06085473 0.033192214
0000e0 fa 0a 0b be fa e0 ab 3d f1 fc ff bd 5f f3 1b 3d
       -0.13578406 0.0839252 -0.124994166 0.038073894
0000f0 4d e2 fc 3c fd f4 01 3d 67 15 8d bd b6 b2 57 3b
       0.030869627 0.03172778 -0.06888848 0.0032912917
000100 2e d6 fe bd 8b db c4 bd 1f b3 89 3d 2c 19 bc 3b
       -0.12443195 -0.09612187 0.06723618 0.0057403054
000110 1a bc c7 bd 7b 41 83 3d 46 ca dc 3d 01 98 d1 bd
       -0.097526744 0.06408974 0.10780768 -0.102340706
000120 e4 89 97 3d 69 a2 87 bd d8 64 6c bd 06 37 d5 3b
       0.073993474 -0.06622774 -0.05771336 0.0065068034
000130 73 c7 99 bc 57 52 9f bd c7 a2 e4 bd e0 99 9b bc
       -0.018771863 -0.07779377 -0.1116386 -0.018994272
000140 8b ee f3 bd b6 8a 92 3d 74 d4 14 bd 49 a6 db 3c
       -0.11910733 0.07155363 -0.036335424 0.02681269
000150 e6 40 e0 bd 3b 1c e5 bd 1a a4 93 3d 40 fd 79 bc
       -0.109498784 -0.11187025 0.07209034 -0.015258133
000160 b7 29 0c be 7a ce 64 bd 43 c5 16 3d c9 bd ef bd
       -0.13687788 -0.055860974 0.036809217 -0.117061205
000170 8a d6 47 3d 4f ce 08 be 45 c3 0a be 27 94 8e bb
       0.048788585 -0.1335995 -0.13551052 -0.004351157
000180 6b c3 05 be 77 95 cb 3c f6 de cd bc 51 57 b9 3c
       -0.13062827 0.024851544 -0.02513073 0.022624644
000190 bf 3b 0f be e7 39 c0 3c de 2c 75 bd f8 86 3c 3b
       -0.13987635 0.02346511 -0.05985724 0.002876697
0001a0 74 9d 6d bd 47 39 12 3d 42 5f 3a 3d 50 24 d1 3b
       -0.058011487 0.035699155 0.045501 0.0063825026
0001b0 d3 c3 47 bd 94 71 0f 3e 71 77 3b 3d d3 84 cd bd
       -0.048770737 0.1400817 0.045768205 -0.100351
0001c0 f6 08 07 be 0d 6a 23 3b ed 0c 24 bd ed ea fa bd
       -0.13187012 0.0024935037 -0.04005139 -0.1225184
0001d0 a2 73 ee bd 92 c6 3b 3d 90 e3 0d bd 35 b6 0b be
       -0.11643149 0.04584367 -0.03464085 -0.13643725
0001e0 36 65 98 bd 46 bc 19 be fa 92 ab 3d 21 45 b8 bd
       -0.074411795 -0.15013227 0.08377643 -0.0899756
0001f0 12 09 b8 bd 24 56 db 3d 5d 62 85 bd 64 a3 35 bd
       -0.08986105 0.107097894 -0.06512902 -0.044345275
000200 f8 af 42 3c b7 d6 b6 bc 1d 08 1c be 59 e9 e8 bd
       0.0118827745 -0.02231918 -0.1523747 -0.113726325
000210 c2 b9 e6 3d b0 d0 20 3e 75 27 19 3e 73 d8 83 3d
       0.11265899 0.15704608 0.14956458 0.06437769
000220 e4 76 ac 3d 4f de 21 3e e8 a8 85 bd 2b 67 bf 3d
       0.08421114 0.1580746 -0.06526357 0.093458496
000230 62 4b e4 bb fa ce cd bd 73 b3 1a be 63 61 98 bd
       -0.006966994 -0.10049243 -0.15107517 -0.0744045
000240 41 24 40 3d 7d 1e b5 bd ca a5 bf bd d7 98 6f bd
       0.046909574 -0.08843706 -0.09357794 -0.05849537
000250 a5 76 94 3d b7 3f b6 bd 0b 17 cc 3d 9c 14 91 bc
       0.07249192 -0.088988714 0.099653326 -0.017710023
000260 ff 09 2c 3d 5c 90 fd 3d 97 6c 8c 3d e0 05 d4 bd
       0.04200172 0.1238105 0.06856649 -0.10352683
000270 7f 95 a6 3c 65 06 15 bd c9 ed 1d bd d2 ed 99 3d
       0.020334957 -0.03638305 -0.038556848 0.07516064
000280 ac 85 9a bd 0b bb 12 3c 0a bf 45 3c 57 da 20 be
       -0.07545027 0.008955727 0.012069473 -0.1570829
000290 a0 7e 17 3d c2 35 73 bd bc cd 5d 3d d0 54 87 bc
       0.036985993 -0.05937744 0.05415128 -0.016519934
0002a0 a1 45 28 bc e0 22 9d bd 31 4b 73 3d ab 9a 9c bc
       -0.010270507 -0.076726675 0.05939788 -0.01911672
0002b0 4b 9b 9d bc 83 4a eb bd c7 04 17 3e f7 3c b2 3d
       -0.019239089 -0.11488821 0.14747916 0.08703034
0002c0 07 6d 0f be 0c 05 04 3d e2 61 bc 3d 6b 42 31 3d
       -0.14006434 0.032231376 0.09198357 0.04327623
0002d0 e9 c3 f0 bd 60 95 d9 bc e4 da 16 be 15 a3 18 be
       -0.11756117 -0.026560485 -0.14731938 -0.14905961
0002e0 d6 ea 39 3d 4d 51 9f 3c 48 ed e4 bc e2 af 37 bd
       0.045389973 0.019447947 -0.027945176 -0.04484547
0002f0 2f 1a 0e be 4f f4 c2 bd 57 23 64 bd 2e cf b9 bd
       -0.13877176 -0.095192544 -0.055697765 -0.090727195
000300 de ac cd 3d 32 14 8e 3d 3d 0b aa bd bf c9 54 3d
       0.100427374 0.06937446 -0.08302925 0.051950213
000310 17 d9 29 3d bf 38 34 3d 81 57 9b 3a 25 97 a8 3d
       0.0414668 0.04399943 0.001185164 0.082319535
000320 b7 b0 f1 bb 3b 24 9b bb 23 9c 66 bd b1 95 ba 3d
       -0.0073758024 -0.0047345436 -0.056301247 0.091105826
000330 91 31 a7 bd 6e cf df bc 90 17 8c 3d d1 a9 f5 3c
       -0.08163751 -0.02732059 0.06840432 0.029988201
000340 9d 04 9b 3d cb d8 02 be a5 ec 30 bd 51 69 ec bd
       0.07569239 -0.12778012 -0.04319443 -0.11543525
000350 76 50 d4 3c ac 79 91 bd cb 3c a9 bb d8 75 b4 bc
       0.025917273 -0.07103285 -0.005164718 -0.022028849
000360 48 5e 89 3c 39 3a 45 bd 3b 5a de bc 5f 79 b6 bd
       0.01676859 -0.04815123 -0.027142635 -0.089098684
000370 b9 09 94 3d 7a 1d 4f bd c2 f9 41 3d 37 a7 de bd
       0.07228417 -0.05056522 0.04735733 -0.108717375
000380 ff 9f ef 3a ea 9f 83 bc 3f f8 a7 3d 5d a7 b6 3d
       0.0018281935 -0.016067464 0.08201646 0.08918641
000390 ba 5f 30 bd 9d 73 86 3d fd e8 38 bd 44 a3 1f 3e
       -0.043060042 0.0656502 -0.04514407 0.15589625
0003a0 be fb 01 3d 26 fc a7 3d ea 3e 15 3d 96 0f 81 3d
       0.03173422 0.082023904 0.036436953 0.06301801
0003b0 bb 1e e0 3d 4b 17 a5 bd 10 e7 8d 3d bf 27 3b 3d
       0.10943361 -0.080610834 0.06928837 0.0456922
0003c0 9e 9f 99 3d d4 74 14 3e c8 f7 fa bc 7b ca f2 bd
       0.07501148 0.14497691 -0.03063573 -0.11855026
0003d0 ff 1a c8 bc b8 a9 4c 3d c3 78 bb 3d 2e 0b 07 be
       -0.024426935 0.049966544 0.09153893 -0.13187858
0003e0 f2 3d 08 3c 74 d2 68 bd a7 d5 85 3b d8 00 23 be
       0.00831555 -0.05684133 0.0040843072 -0.1591829
0003f0 26 2b 50 3d c2 5b b3 bc af bf 09 be 0f f0 c8 bd
       0.0508224 -0.02189434 -0.13452028 -0.098114125

lstm.weight_hh_l0 f4 [256, 64]
000000 52 95 da 3c 98 81 c8 bd 24 db d3 bc 72 26 c2 bd
       0.02668253 -0.09790343 -0.02586133 -0.09479989
000010 25 1f ed bb 6a 85 03 3d d0 84 2f bc 23 42 d0 3c
       -0.0072363787 0.032109655 -0.010712817 0.025422161
000020 00 eb 35 bb 36 c2 ab bc b9 5a 15 3d b2 23 ba 3c
       -0.002775848 -0.02096663 0.036463473 0.022722099
000030 1e 63 3f 3c ba 2f b4 3c 06 55 47 3d 06 37 87 3d
       0.011681346 0.021995414 0.04866507 0.06602292
000040 ab dc a6 3d a6 3e 93 bd a6 59 85 bc 9a dd 85 3d
       0.08147558 -0.071896836 -0.0162781 0.06536408
000050 cf 6d a4 3d c0 67 86 ba 11 6b ee 3d 8e fe b1 bc
       0.08028757 -0.0010254309 0.11641515 -0.021727826
000060 9f c0 07 3c d3 22 91 3d 96 7a 7c bd 4f cf 3f bd
       0.008285671 0.0708672 -0.061640345 -0.046828564
000070 ec b4 05 bd 1a f2 3b 3d 0c 17 12 3d 37 c8 e1 3d
       -0.032643244 0.045885183 0.03566651 0.11024516
000080 61 e6 e7 3c 11 63 a2 bd 72 1b 36 3d 49 f6 4e 3d
       0.028308095 -0.07929052 0.044459768 0.050527845
000090 4c 8a dd bd e7 93 e7 bd f9 cc 2c bc dd 2c ae 3c
       -0.10817394 -0.11307507 -0.010546916 0.021261627
0000a0 df ea dd bd 1b 95 5a bd 8c 4c e9 3c 05 79 f9 3b
       -0.10835814 -0.053364854 0.028478883 0.0076133036
0000b0 7b 80 fe bd 30 5a 80 bb f8 28 9a bd 41 ee 85 bd
       -0.124268495 -0.003917001 -0.075273454 -0.06539584
0000c0 f1 e8 61 3c 39 24 bf 3d a7 a7 ce bd ac e7 bd bd
       0.013788448 0.09333081 -0.10090571 -0.092727035
0000d0 55 50 b3 bd 7e 16 66 3d 15 f1 fb 3c f4 69 27 bd
       -0.087555565 0.056173794 0.030754605 -0.04087253
0000e0 82 bb 28 3d ae 9a 22 bd cc 5e b6 bd dc e0 d9 3d
       0.041194446 -0.039698295 -0.089048 0.10638592
0000f0 5f 28 48 3d ae 50 a3 bd 50 75 cd 3a 9e 2e a9 3b
       0.048866626 -0.07974373 0.0015675221 0.005163028
000100 73 8d 12 3c 5b e4 50 3d a1 17 69 bd f9 de 8d 3d
       0.008944857 0.050999027 -0.0569073 0.06927294
000110 49 fb 78 3c 7c b6 09 3d c8 92 d1 3c d1 26 be 3d
       0.01519663 0.033621296 0.025582686 0.092847474
000120 0c 7a 0b be d4 03 89 3d 9d 60 f2 bd 5f b7 15 be
       -0.13620776 0.06690183 -0.11834834 -0.14620732
000130 57 0b 63 bd a9 34 ba bd 31 97 73 bd f2 7e 90 bd
       -0.055430736 -0.090920754 -0.05947036 -0.07055463
000140 92 4f c7 3d 06 ed 15 be 7f 3a c6 3d 8c 0d 17 3e
       0.09731974 -0.14641199 0.09679126 0.14751261
000150 c4 c7 0d bd c3 75 5f bd ba ea 37 3d 24 09 2d 3d
       -0.03461434 -0.054555666 0.044901587 0.042245045
000160 8e d6 04 3e 2c a2 0d 3e 13 ca 05 be 74 40 fb bd
       0.12972471 0.13831395 -0.13065366 -0.12268153
000170 fe b0 06 3c ed 10 74 3c 9b d7 40 3d 9a bb b1 bd
       0.008220909 0.014896614 0.047080617 -0.0867836
000180 90 17 e6 3c 80 8c c6 3b ce 23 92 3d 6a e0 15 3e
       0.028087407 0.0060592294 0.071357355 0.14636388
000190 42 4f 93 bd d0 23 c5 3c 58 2a a7 bd 2e 01 18 3d
       -0.071928516 0.024064928 -0.08162373 0.0371105
0001a0 22 d5 86 3c 39 9b 0b 3e 94 66 49 bb e7 5b dd bc
       0.016459052 0.13633431 -0.0030731307 -0.027021362
0001b0 59 9e 4e 3d d6 0a 78 bd d5 8c 66 3d 28 25 a0 3d
       0.05044398 -0.06055721 0.05628665 0.07819587
0001c0 eb 74 82 3d a7 60 b5 3b b3 d8 e5 bc b4 36 ed 3d
       0.063699566 0.0055352035 -0.028057432 0.115826994
0001d0 fd 0f c7 bd 83 7e d4 3d 1b 93 cf 3d f2 79 30 3d
       -0.097198464 0.10375693 0.1013548 0.043085046
0001e0 68 81 81 bd 84 a5 88 3d b1 a5 0b bd 9b 29 74 3d
       -0.063235104 0.066721946 -0.034093563 0.05960999
0001f0 2f 7b 41 3d cc b6 05 bc ab d7 a3 3d e0 71 fb bc
       0.047236618 -0.008161258 0.0800012 -0.030693948
000200 b9 05 e6 3d 84 83 b2 bd da ab 9a 3d a4 ed b5 3d
       0.1123156 -0.08716491 0.07552309 0.08883217
000210 f6 82 06 bb 2b a0 21 bd 78 10 17 bd 2d 81 65 3b
       -0.0020524836 -0.03945939 -0.03688094 0.0035019622
000220 91 87 76 bd 23 91 5f bd 8c 5c b7 bd 83 b8 fc bc
       -0.06018788 -0.054581773 -0.08953199 -0.0308497
000230 d0 20 f1 bd 81 da d6 3d a5 05 c0 3d 28 34 e3 bd
       -0.117738366 0.10490895 0.093760766 -0.110939324
000240 fe 09 02 be c1 4c c1 3d 24 02 06 3e 72 77 92 3c
       -0.12699124 0.09438468 0.13086754 0.017879222
000250 a1 6c f4 bc 05 c5 b3 3d 8e e6 8d bd 99 48 27 3d
       -0.029836955 0.08777813 -0.069287404 0.04084072
000260 2f 34 a8 bc 7f 64 e4 bc d3 85 a5 3d 8f 72 d6 bd
       -0.020532696 -0.027879952 0.080821656 -0.10471069
000270 4f e0 a8 bd d8 c0 d4 3d 5e 15 cd 3d ba 0b 9a bc
       -0.082459085 0.103883445 0.10013841 -0.01880442
000280 25 f4 3a bd cc 37 7c bd 92 cd d7 bc 57 a0 c7 3c
       -0.04564299 -0.06157665 -0.02634314 0.024368448
000290 97 3f f6 3d 62 66 50 bc d5 43 79 bd 20 ef c3 bd
       0.120238476 -0.012719722 -0.060855705 -0.09567094
0002a0 2d 3f a2 bd 71 c6 33 bd 0d 46 87 bb 86 07 56 bd
       -0.07922206 -0.04389042 -0.0041282238 -0.05225327
0002b0 5f 7f 73 3d 33 a4 bb 3c df c2 05 3e e5 ce a3 3c
       0.059447642 0.022905445 0.13062619 0.019996116
0002c0 d8 a2 6a 3d d8 fa ea 3d b0 69 b8 bd da bc 11 bd
       0.057284206 0.11473626 -0.09004533 -0.035580494
0002d0 73 5a dc 3c 76 2e f7 bd 61 e1 32 bd 93 22 b9 3d
       0.026898598 -0.120694086 -0.04367197 0.09039798
0002e0 f7 ca 4b bd 45 f6 62 3d 86 03 f3 3d 0e bf 16 3d
       -0.04975411 0.055410642 0.118659064 0.036803298
0002f0 61 8c 8b bd 9e 0a 4a 3d 98 14 d2 bd a4 32 cc 3d
       -0.068138845 0.04932653 -0.10257834 0.099705964
000300 cc 48 df bd c5 14 32 bd b0 2f e2 bd 6c e1 e0 bd
       -0.10902557 -0.04347684 -0.11044252 -0.10980496
000310 be dd c7 3d 41 3b 51 3d 6c 2f 86 bd 32 76 aa bd
       0.09759091 0.0510819 -0.06552014 -0.08323325
000320 9e 38 ea bd 6c c0 b2 bd 0d b2 dd 3d 9e 47 d1 3d
       -0.1143658 -0.08728108 0.10824976 0.10218738
000330 86 ec 9f 3c e4 cb 8f bd b2 7d e3 bd 82 1d 95 3d
       0.019521963 -0.07021311 -0.11107959 0.07281019
000340 a6 7b 4d 39 2a 82 c5 bb 0f 66 19 3d 81 53 b9 bd
       0.00019596386 -0.0060274797 0.037450846 -0.0904913
000350 6c 89 2e bd 30 aa f3 3d ba 4a 65 bd bc 2e b0 3d
       -0.042611524 0.11897695 -0.055979468 0.08602664
000360 c2 ea 02 be ff 40 bc 3d f3 82 4a 3d 31 fe 9d bd
       -0.12784865 0.091920845 0.04944129 -0.07714499
000370 c9 96 c6 3d 5e 34 36 bd 5b fe ad bd dd 55 24 3d
       0.09696729 -0.044483535 -0.0849578 0.040120948
000380 81 13 96 bd de 32 8b ba 41 31 a5 bd c6 1c dc 3c
       -0.07327939 -0.0010620018 -0.08066035 0.026869189
000390 55 ef 66 bd 9d e2 38 bd 2d 42 d2 bd ad d9 cb bd
       -0.05638059 -0.04513799 -0.10266528 -0.09953628
0003a0 c5 d7 ba bd c4 39 04 bd 7a f9 8f bd 53 5f 49 3b
       -0.09123186 -0.032281652 -0.07030006 0.0030726984
0003b0 80 2c e5 3d 1e 7a cb 3d a2 6e 86 3d 11 c4 43 bd
       0.11190128 0.099354014 0.0656407 -0.047794405
0003c0 1d da f8 3d 45 cd bd 3d d9 47 34 3d 54 fe e4 bd
       0.12150977 0.09267668 0.04401383 -0.11181322
0003d0 a6 26 77 3d 4c 8e d4 bd d7 14 73 3d 55 c8 f4 3d
       0.060339592 -0.103787035 0.059346046 0.11952273
0003e0 6d 91 cd 3d f0 b8 c6 3c 0c 3a 34 bd 13 74 60 3d
       0.100375034 0.024258107 -0.04400067 0.054798197
0003f0 c2 d1 96 bd c9 81 37 3d e9 b0 ba bd 7e da 98 3d
       -0.07364227 0.044801507 -0.09115774 0.07463549

lstm.bias_ih_l0 f4 [256]
000000 21 65 78 3d a0 02 6f bd 89 c1 8b 3d b6 7a 25 bd
       0.06064332 -0.058352113 0.06824023 -0.04040023
000010 71 8e fe bd 5a 02 4b bc 86 23 a5 bd 2c 13 cf 3d
       -0.12429512 -0.012390697 -0.08063416 0.101110786
000020 17 a6 c3 bd 68 e0 e3 3d 8f 52 ae 3c 3d fb 3f 3d
       -0.095531635 0.111267865 0.021279601 0.04687046
000030 a8 56 c5 3b 95 71 88 bd 86 c5 31 3d 25 6a 9d bc
       0.006022293 -0.06662289 0.043401264 -0.019215653
000040 29 24 2b 3d a3 2b 31 3c 21 b8 8f 3d 76 9a 81 3c
       0.041782532 0.010813626 0.07017542 0.015820723
000050 30 f0 94 3d d3 ec 0f bd 41 30 41 3d f0 5f ef 3d
       0.07272375 -0.035137963 0.04716516 0.116882205
000060 aa b5 94 3d e4 aa 77 bd e7 60 3a bd fa d8 86 bd
       0.07261212 -0.06046571 -0.04550257 -0.06584354
000070 d9 08 86 bc eb fb d3 bd 61 e5 bc 3c a4 c6 3e 3d
       -0.01636164 -0.10350784 0.023058595 0.046576157
000080 fe e2 9b 3c a5 79 05 bc 07 33 80 ba 2f eb f6 bc
       0.019029137 -0.008146678 -0.0009780832 -0.030141441
000090 bc 80 e4 bd c2 89 32 3c ac 32 aa 3d 59 f7 9c 3c
       -0.11157367 0.010897102 0.08310446 0.019160913
0000a0 f4 20 8d bd 2a 7f 33 bd cd fd 86 3d a2 35 e8 3d
       -0.06891051 -0.043822445 0.065913774 0.11338355
0000b0 d0 c7 9c bd 66 06 39 3d cb f1 b5 3d cf 6a fb 3c
       -0.07655299 0.045172118 0.08884009 0.030690579
0000c0 56 2b 8e ba 2f 8d a6 bb cf 8d 44 bd 1d a9 06 3d
       -0.0010846655 -0.0050827484 -0.0479868 0.032876123
0000d0 f2 78 a8 bd 9f 5b 9c 3c 40 0b 53 bd b7 5a 4e 3d
       -0.082261935 0.019086657 -0.0515244 0.05037948
0000e0 f1 19 a1 3d 15 df ae 3d e5 e3 d1 bd b7 dc 96 3d
       0.07866276 0.08538643 -0.102485456 0.07366317
0000f0 8d a2 ea 3c be 99 6e 3d 1a 9c b7 bd 29 18 aa 3c
       0.028641963 0.05825209 -0.08965321 0.020763474
000100 a8 e5 88 3c e3 39 6b 3c 3b 0b 6a 3d f3 49 22 bd
       0.016711071 0.014357063 0.057139616 -0.039621305
000110 09 6e ed bd ad 9e a9 3b 65 dc f3 bd d2 ed 64 3d
       -0.11593253 0.0051763863 -0.11907271 0.055890866
000120 2a a9 63 bd 73 61 e0 bd 2b 89 16 bd 11 6c b9 3c
       -0.05558125 -0.10956087 -0.036751907 0.022634538
000130 83 34 03 be 74 31 40 bd 35 50 8f 3d 63 6a 39 3c
       -0.12813 -0.046922162 0.0699772 0.0113168685
000140 b8 bc 41 3d 76 e2 61 bd 57 cf d6 bd c7 d3 be 3c
       0.047299117 -0.05514761 -0.10488766 0.023294343
000150 7e f6 00 be 53 98 cf 3b 4e 37 8f 3d 5f 08 d0 bd
       -0.1259403 0.006335297 0.069929704 -0.10157847
000160 b6 97 e8 bd cb 2d b8 3d 0e 73 31 3d cd 01 59 3d
       -0.113570616 0.08993109 0.043322615 0.052980233
000170 79 fe 01 bd 9d 69 96 bc 54 af b5 bd 3f f6 c6 3d
       -0.031736825 -0.018360907 -0.08871332 0.097149365
000180 39 0a 42 3c 82 f6 e4 3d 37 a0 45 bd 7e ca 73 3d
       0.011843258 0.1117983 -0.048248496 0.059519283
000190 5c 05 c5 3c df fe a6 3d 40 23 e0 3d b4 d2 6b bd
       0.024050407 0.081540816 0.109442234 -0.05757399
0001a0 15 65 3f bd 70 df c5 bd c7 c0 f3 bd 04 87 ff bd
       -0.04672726 -0.09661758 -0.11902004 -0.12476924
0001b0 fb 31 4f bc d2 5c 3f bd e4 ca 06 be df ae 34 3d
       -0.012646194 -0.04671938 -0.13163334 0.044112083
0001c0 ad d0 8d 3d c3 94 cb bd e4 de 82 3d e6 fe 9e bd
       0.06924567 -0.099404834 0.06390169 -0.07763462
0001d0 b4 ff 9a bc 7b 1a 99 3d 1e 3e 15 be 51 7a 87 3b
       -0.018920757 0.07475754 -0.14574477 0.0041344543
0001e0 ad 7e df bd da 8f c1 3d b0 d1 88 3d 8a 52 f3 bc
       -0.10912833 0.09451266 0.0668062 -0.029702444
0001f0 16 9e 01 be 4a 63 b8 3d 6d 51 cc bc 24 d0 9c 3d
       -0.12657961 0.09003313 -0.02494117 0.07656887
000200 cd b0 82 bd 3d bb 97 bd 90 ef 9d 3c e2 c0 cf bd
       -0.06381378 -0.0740876 0.019279271 -0.10144211
000210 14 17 eb 3d b1 11 0c bd 47 b4 89 3d 07 f2 d2 3d
       0.11479011 -0.03419656 0.06723838 0.10300069
000220 08 3d d9 3b 1b db 7f 3b 9b ee ec 3d d2 09 8c bd
       0.00662959 0.003904051 0.11568948 -0.068378106
000230 77 d2 09 3d dc f5 54 bd 4f e8 9c 3d 4e db a4 bd
       0.03364798 -0.051992282 0.07661497 -0.080496415
000240 f4 c6 97 3d 17 08 87 3c e8 e6 b2 bd 64 03 63 bd
       0.07410994 0.01648335 -0.08735448 -0.055423155
000250 51 ae dd 3c 49 8f 88 3d c1 5b fb 3d a8 0b 03 3e
       0.02706066 0.066679545 0.1227336 0.12797415
000260 47 b5 d5 3d 3d 06 10 3e e2 f6 a5 3c 07 1b 90 3c
       0.104349665 0.1406488 0.020259324 0.017591013
000270 e3 6c 10 3d d2 f2 92 bd 7f ea 49 3d 4c 8b f3 bd
       0.035260092 -0.071752205 0.0492959 -0.11891803
000280 d4 d2 53 bd 0c de d1 3d 6a f0 10 bd 24 a9 95 bc
       -0.051714733 0.1024743 -0.035385527 -0.01826913
000290 57 11 1e bd 98 3d 7e bd ae 7c cb bd 01 5d cd 3d
       -0.038590755 -0.06207046 -0.0993589 0.10027505
0002a0 18 84 53 3d 18 0b 7a 3b 9f 99 e4 bd be 3f 0f be
       0.051639646 0.0038153585 -0.111621134 -0.1398916
0002b0 17 c9 93 bc 65 1a 26 3d c2 90 57 bd 16 58 8b 3d
       -0.018040223 0.040552516 -0.052628286 0.068039104
0002c0 9f ae 02 bd 4e cb 30 3c 8c e9 06 bd 65 97 02 bd
       -0.031904813 0.010790659 -0.03293757 -0.031882662
0002d0 70 6b ad bd d4 f4 47 3c 81 3b 03 3c 41 91 59 bb
       -0.08467758 0.012204368 0.008009792 -0.003319815
0002e0 a4 02 a7 3d 93 5a 05 3d 7d 51 3c bd 08 52 e7 3d
       0.081548005 0.03255708 -0.04597615 0.11294943
0002f0 68 2a 2f bd 47 c0 a4 bd 46 e8 b9 3d 01 85 28 bd
       -0.04276505 -0.080444865 0.09077506 -0.041142467
000300 4e ca 52 bd 48 aa 00 3d 7d 9c 8e 3c 83 8d 47 bc
       -0.051462464 0.031412393 0.017408604 -0.012179735
000310 fd ea 9a bd 3b e7 dc 3d 1a 86 a1 bd a0 65 83 bc
       -0.07564352 0.10786291 -0.07886906 -0.01603967
000320 1f 71 a1 3c 0e 86 96 3d 5a f6 fe bd ed 29 02 3d
       0.01970726 0.07349788 -0.124493316 0.031778265
000330 0e 2e f2 bd 92 0d a5 3d e8 46 fc 3b e6 fb 90 3d
       -0.118251905 0.08059229 0.0076988824 0.07079296
000340 90 c6 dd 3d 63 6d 0f 3c 38 e4 5f 3d a3 fb dc bd
       0.108288884 0.008754107 0.054661006 -0.107901834
000350 c9 28 a3 3d b7 d9 18 be 15 06 3d 3c 18 bb d5 3d
       0.079667635 -0.14926802 0.011537095 0.10436076
000360 37 c8 fb 3b 24 aa 3c bc 2b 60 0f bd a5 47 18 bd
       0.0076837796 -0.011515174 -0.035003822 -0.0371777
000370 c7 5c 6e bd 63 50 c9 bd e9 6e a0 bd 0c b4 7c 3d
       -0.058193948 -0.09829786 -0.078336544 0.061695144
000380 e4 93 fc bd a9 10 b5 3d bb 3e 70 bd 12 4a 17 3d
       -0.123328954 0.08841068 -0.058653574 0.036935873
000390 ef d8 a9 bd 32 c4 26 bc c9 d1 b6 3d bb 35 db bd
       -0.0829333 -0.010178613 0.08926732 -0.10703608
0003a0 a1 e6 8a bd fc 65 b6 3a 37 e4 85 3a d6 8b 69 3d
       -0.0678227 0.0013915892 0.0010215108 0.057018124
0003b0 58 a0 67 bd 46 43 b1 3d be ff 10 be 6f 59 a1 3d
       -0.0565494 0.086554095 -0.14160058 0.07878386
0003c0 f0 52 d0 bd 0f 62 11 3c 13 84 dc bd 23 2b 7d bd
       -0.10172069 0.008873477 -0.10767379 -0.061808717
0003d0 e3 a9 2c bd bb d0 aa 3d f2 96 99 3d 3d f5 19 3d
       -0.042154204 0.083405934 0.07499494 0.037587393
0003e0 19 e5 69 3c 93 59 cb 3c a5 eb 59 3d 9b f8 80 bd
       0.014275813 0.024822986 0.053203244 -0.06297418
0003f0 9c 32 b7 bb be b3 7e bb a8 7d fb bb 8d 2b cc 3d
       -0.00559075 -0.003886446 -0.0076748915 0.09969244

lstm.bias_hh_l0 f4 [256]
000000 df 66 a5 3b 49 e9 e8 bd 5f e8 8c 3d d9 5c e1 bc
       0.0050476636 -0.113726206 0.06880259 -0.027510094
000010 8b a2 a5 3d 84 37 eb 3d ab 3a 60 3d fb 5e 58 3d
       0.08087643 0.11485198 0.05474345 0.052824955
000020 9d a4 85 3d 8a 8c 45 bd 74 c5 47 3d 50 a7 95 bd
       0.06525538 -0.04822973 0.04877229 -0.07307303
000030 c2 f4 58 3d 2c 24 62 bd 15 ef 7e bd 1f de 07 3d
       0.052967794 -0.055210277 -0.062239725 0.033170816
000040 d9 23 06 3d 9a 09 e4 bd 24 fe f6 3d 7e 35 05 3e
       0.03274903 -0.11134644 0.12060192 0.13008687
000050 85 a0 e8 3d 4f 02 b0 3a 1f f6 94 3c be d0 a5 bd
       0.11358742 0.0013428422 0.018183766 -0.08096455
000060 da 57 e5 3d 2e a4 1e 3d 06 8e c5 bd bf f3 9d 3d
       0.11198397 0.038730793 -0.096462294 0.077125065
000070 31 55 ae 3d 97 b4 42 bc 24 82 5b 3c 0d b4 92 ba
       0.08512343 -0.011883876 0.013397727 -0.0011192575
000080 40 3b 17 3d 60 56 a4 3d c0 3d d7 3d d5 0b f1 3d
       0.03692174 0.08024287 0.10509825 0.11769835
000090 c6 b2 b5 3d d7 06 bb 3d d9 57 80 bd 8b 72 fc bd
       0.08871989 0.09132164 -0.062667556 -0.12326535
0000a0 4c 52 9e bd 67 8b e1 bd ee 11 81 bd ea 9f cc 3d
       -0.07730541 -0.11012917 -0.06302248 0.09991439
0000b0 67 5f 95 bc da 2a 07 3d cc d4 35 bd 03 f6 b4 3d
       -0.018233968 0.03299985 -0.044392392 0.088359855
0000c0 f3 05 a2 bd ea d0 7f 3d cb 0a ec 3d d0 2a a2 3b
       -0.07911291 0.062455095 0.11525496 0.0049489513
0000d0 9f 88 4c bd 63 79 a2 3d 7c b5 c0 bd 75 62 f0 bd
       -0.04993498 0.07933309 -0.094096154 -0.11737529
0000e0 0c 21 87 3c e9 ba 89 3d e3 f3 af 3d 3b 82 b0 bd
       0.01649525 0.067251034 0.085914396 -0.086185895
0000f0 58 6d 63 bd f4 9a 48 bd 48 45 1f 3d 3a 0f 8e 3d
       -0.0555242 -0.0489759 0.03888443 0.06936498
000100 f7 8b eb bd bd da 77 3d 5a 44 cf bd a6 a8 d7 3d
       -0.115013056 0.06051134 -0.10120459 0.10530214
000110 db 1c f4 bd 7b 2a 9b bd 94 86 4a bb e2 28 f5 bd
       -0.11919566 -0.07576462 -0.0030902969 -0.119706884
000120 a0 f1 ec 3d 8e f7 47 3d 89 b9 70 3d 48 92 3f 3c
       0.11569524 0.04882007 0.05877069 0.011692591
000130 f6 c4 b7 bd d6 23 d8 3d 62 64 34 bd 53 60 02 be
       -0.08973114 0.1055371 -0.044041045 -0.12732057
000140 fe ed 68 bc 8e 6b f2 3c 82 89 23 3d e7 c6 85 bd
       -0.014216898 0.029592302 0.03992606 -0.06532078
000150 17 1e a2 3d 68 2f 17 bc ad 0e ea bc 17 38 a8 bd
       0.079158954 -0.009227611 -0.028571451 -0.08213823
000160 30 2b da 3d fa ff a9 bb 13 04 c8 3d fd 79 40 bd
       0.106527686 -0.0051879855 0.09766402 -0.046991337
000170 5e a2 d4 3d 9c 1f ac 3d e0 a8 be bd 59 3d 47 bd
       0.103825316 0.084044665 -0.09309554 -0.04864249
000180 40 52 f8 3d b2 82 4b bd f4 e9 eb 3a a0 c1 cd bb
       0.12125063 -0.049685188 0.0017998801 -0.0062791854
000190 77 a1 3c 3d 2d 64 93 3d 09 66 c3 3d ff 26 69 3d
       0.046052422 0.071968414 0.09540946 0.056921955
0001a0 b1 19 76 bd 84 8d 9e 3b 70 e4 f7 3c 97 3d 69 bd
       -0.060083095 0.0048386473 0.030260295 -0.056943502
0001b0 25 a4 0a be 41 09 d5 3d c5 e4 14 3d db 6c 07 bd
       -0.13539179 0.10402156 0.036350984 -0.033062797
0001c0 a3 3d d5 bd 23 5b a6 3d bd 9a 1f 3b 7c aa d1 3d
       -0.10412147 0.08122852 0.0024353706 0.102375954
0001d0 c9 df 97 bd 95 d8 83 bd 27 49 0d be c6 db 9b 3d
       -0.074157305 -0.06437794 -0.13797437 0.07610278
0001e0 c2 dd 96 bd de 3d 9b 3d c7 c2 83 bd 83 1b e5 bd
       -0.07366516 0.075801596 -0.06433635 -0.11186888
0001f0 8b 93 ac bd 52 2e b5 bd 7e 5e 70 bd 08 04 b0 bd
       -0.08426579 -0.088467255 -0.058683865 -0.08594519
000200 51 e9 c3 bd 5f ea 40 bd 42 e9 e9 bd 74 43 ac bd
       -0.09565986 -0.047098514 -0.114214435 -0.08411303
000210 a4 f2 8a bd e7 2f 23 bd 14 3e 78 bb e7 f1 e8 bd
       -0.06784561 -0.039840605 -0.0037878798 -0.11374264
000220 73 82 84 bd a0 ac 53 bd 53 af 22 3d 01 5a 79 3d
       -0.06470194 -0.0516783 0.039717983 0.06087685
000230 7f 75 bc 3d 1a 95 5b ba 3c 47 19 bd 91 38 88 3b
       0.09202098 -0.0008376405 -0.03742145 0.004157134
000240 06 fc 42 bd 74 c8 e2 3d cb 7d 53 3c c2 a3 ed 3d
       -0.04760363 0.1107339 0.012908409 0.116035
000250 e9 2c 7b 3d 44 1d 52 bd ef da 97 bd c0 70 07 3e
       0.061322127 -0.05129744 -0.07414805 0.13226604
000260 f6 59 92 bc 04 a2 70 3d c6 91 98 3d d5 e9 af 3d
       -0.017865162 0.05874826 0.07449679 0.08589522
000270 ba 1d e7 3c 63 e5 03 3e a8 7f c4 3c 93 03 66 3c
       0.028212417 0.12880473 0.023986652 0.014038938
000280 dd 9f 52 3d 6d 74 ae bd 28 82 b2 bd 32 f0 f6 3d
       0.05142199 -0.085183 -0.087162316 0.12057532
000290 d8 58 aa bd e3 ba 01 bd 40 3b c4 bd 7e 0a 9e bc
       -0.08317727 -0.03167237 -0.095816135 -0.019292112
0002a0 bc 19 55 bd b6 b3 c6 3b e5 d1 27 be fa b4 15 be
       -0.052026495 0.0060639037 -0.16388662 -0.14619818
0002b0 54 24 63 3b 24 04 92 3c d3 c2 d5 3d 63 77 06 bd
       0.0034659104 0.01782424 0.104375504 -0.0328287
0002c0 0d 30 9b 3d 2a e0 40 3d 86 3d 74 3c 56 17 36 bd
       0.07577524 0.04708878 0.014907246 -0.04445585
0002d0 d0 ab c6 bd 60 67 8c 3c 50 dc c0 3d ef f6 3d 3d
       -0.097007394 0.017139137 0.09417021 0.046378072
0002e0 f1 a1 b4 3d f2 21 fe bd d1 92 b5 3d 98 87 d6 bd
       0.0881995 -0.12408818 0.08865894 -0.10475081
0002f0 f5 51 ce 3d 27 78 e9 3d 68 12 9b 3d ca 1a ce 3d
       0.10074226 0.1139987 0.0757187 0.10063703
000300 45 5f e7 bd 0f 1d 48 bd 7d f4 e4 bc b9 fd 03 be
       -0.11297468 -0.048855837 -0.027948612 -0.12889756
000310 fb 86 7b bd 40 e4 9a bd a8 3a c2 bd 9d d4 1b bd
       -0.061408024 -0.075630665 -0.09483844 -0.03804456
000320 5d 70 e6 bd e3 98 6a 3d 4a 10 80 bd d5 72 88 3d
       -0.112519 0.05727471 -0.06253107 0.066625275
000330 c7 f0 97 bc 60 e2 a2 bd ce 5d bf bd 18 0e ae 3c
       -0.018547429 -0.07953334 -0.09344064 0.021246955
000340 7e 68 45 bd f2 0b 52 3c ed a5 ac 3d 37 6d 35 bc
       -0.048195355 0.012820231 0.08430085 -0.011073402
000350 b9 d5 b5 3d 62 f3 1b be 4d 02 e6 bd 94 0b d2 bd
       0.08878655 -0.15229562 -0.112309076 -0.102561146
000360 50 42 12 3d c3 66 17 3d 78 2f 91 bc 92 cc 15 be
       0.03570777 0.036963236 -0.01772283 -0.14628819
000370 e3 b1 8c 3d 0b 89 d9 bd 39 9c c3 bd 9f 37 9f 3d
       0.06869867 -0.10621842 -0.095512815 0.07774281
000380 4e 2d bf bd ec b4 ea 3d 80 c8 00 be 3d f5 f9 bc
       -0.09334813 0.11460289 -0.12576485 -0.030512447
000390 f1 df 49 3a 51 60 94 3d 0f 36 76 bc 7b bc 83 3d
       0.00077009114 0.072449334 -0.015027537 0.06432434
0003a0 9a c3 e3 bd 75 a0 14 3d ab a0 19 3d 3c c3 c6 bd
       -0.111212924 0.036285836 0.03750674 -0.09705207
0003b0 71 9b 6f 3a 80 ce b5 bd b3 13 49 3d 85 47 18 bb
       0.0009140289 -0.088772774 0.049091052 -0.0023235988
0003c0 cd ef 77 bc e1 cd e6 bc 03 3d c6 bd c5 64 38 bd
       -0.015132857 -0.028174343 -0.09679606 -0.045017976
0003d0 ab 7b 0a bc 8d 79 05 3d 9d 3c 2d 3d 53 ce 04 3d
       -0.008452336 0.032586623 0.042294133 0.03242333
0003e0 a1 bf 82 3d 16 f7 7f 3d 58 39 a8 bd c7 92 2a 3c
       0.063842066 0.0624915 -0.082140625 0.010410971
0003f0 eb 7e 9b bd c8 cc 76 3d a3 c4 50 bc 24 9a 92 3a
       -0.07592567 0.06025389 -0.012742194 0.0011184854

lstm.weight_ih_l1 f4 [256, 64]
000000 e8 b2 d7 3b 2d b2 05 3e 36 65 96 bd 2a dc 72 ba
       0.0065826066 0.1305625 -0.07343523 -0.00092643744
000010 73 09 85 bd 71 6a 21 bd 58 1f 8f 3d 22 3f 4e 3d
       -0.06495943 -0.03940815 0.069884 0.050353177
000020 43 70 06 3d 4b 70 a7 3d ce 51 ea 3d 3d e0 1b 3e
       0.032821905 0.08175715 0.11441384 0.15222259
000030 87 46 90 bd 36 06 ce 3c 0f cd 17 bd 62 df e4 bd
       -0.07044702 0.025149446 -0.037060793 -0.111754194
000040 79 a5 f4 3d 7b db d3 3d a9 62 4f 3d 1a 6b 33 3d
       0.11945624 0.10344597 0.0506312 0.043803312
000050 0d 4c 58 bd d4 25 d1 3d 24 c8 0f be e6 ea 1c be
       -0.052806903 0.10212293 -0.14041191 -0.15323982
000060 17 e5 4e 3d 3d 95 a2 bd 29 6d d9 3d 8a 1e d6 3d
       0.050511446 -0.07938621 0.10616524 0.104550436
000070 08 f4 82 bd 56 32 68 3d e9 89 f1 bc f1 74 aa bc
       -0.063942015 0.05668863 -0.029484706 -0.020807715
000080 79 28 00 bd 76 51 07 be 6e a8 51 3d f5 ba 8f 3c
       -0.031288598 -0.13214669 0.051186018 0.017545203
000090 72 f3 ab 3c bb 49 85 bc be fd c2 3d e6 bc 8e 3c
       0.020990107 -0.016270509 0.09521054 0.017424058
0000a0 57 57 f3 bd 5a 56 29 bd 27 1c 97 bd 58 b6 29 3d
       -0.11881893 -0.041342117 -0.073784165 0.041433662
0000b0 5e c3 b4 bd 99 53 3f bd 81 6e b1 3c c5 3a 90 bd
       -0.08826326 -0.046710584 0.021659138 -0.070424594
0000c0 cc bc 69 39 b1 d5 0e be 5c 54 5c bd 81 8c 31 3d
       0.00022290944 -0.13948704 -0.05379139 0.043346886
0000d0 f3 ae 9b bc 50 ac a6 bb 69 1d 37 3d 8c 9d bb 3d
       -0.01900432 -0.005086459 0.044705782 0.09160909
0000e0 47 a9 81 bd 86 57 f9 bc 67 0c c3 3d 19 b1 71 bc
       -0.06331115 -0.030437242 0.0952385 -0.014751696
0000f0 70 c6 16 3e cd e8 51 3b c5 f9 de bd 4e ea 03 bd
       0.14724135 0.003202963 -0.108874835 -0.032205872
000100 cb 33 d7 bd 7e 95 7d bd 33 34 e2 3d d0 de f2 bd
       -0.105079256 -0.061910145 0.110451125 -0.11858904
000110 64 59 d0 3d 33 45 8a 3c 76 60 9d 3d 4f be 2c bc
       0.101733 0.0168787 0.07684414 -0.01054342
000120 5e 81 8a bd 29 e0 87 3d 8b 97 20 3c 1d 54 8e 3d
       -0.06762956 0.06634552 0.009801756 0.06949637
000130 07 29 63 bd 36 62 18 bd 16 40 21 3d 54 3d d7 bd
       -0.05545905 -0.037203036 0.039367758 -0.10509744
000140 dd 29 da bc 12 b7 00 be d1 84 e8 bc ac 0e 2b bd
       -0.02663129 -0.12569836 -0.028383644 -0.04176204
000150 08 06 25 3d bd 1a 85 bb be d0 ce 3c b6 6b a9 bd
       0.040288955 -0.0040620253 0.02524602 -0.08272497
000160 85 f6 74 bb 9d e8 95 3d 1a af a3 bd 24 e7 c9 3d
       -0.0037378382 0.07319758 -0.07992382 0.0985854
000170 96 e7 04 be d3 25 20 bb b1 d9 84 bd 8c 5e ba 3c
       -0.12978968 -0.0024436607 -0.06486834 0.022750162
000180 18 1e 23 bd 69 6f 83 bd f2 9e 80 bd 89 5e ae 3d
       -0.03982362 -0.06417734 -0.062803164 0.08514125
000190 18 51 74 bd 0e 03 df 3d b6 06 11 3d 3c 36 d5 3d
       -0.05964765 0.108892545 0.03540679 0.10410735
0001a0 a0 78 b6 bd 5f ad f1 bd a4 0a f1 3c 93 c9 86 3d
       -0.08909726 -0.11800646 0.02942402 0.06581416
0001b0 ea 56 c8 3d ae 52 d4 bd 9a 24 db bb a4 09 7b bd
       0.097822025 -0.103673324 -0.006687713 -0.06128849
0001c0 49 93 b3 3d d3 8c 09 3d 60 79 d8 bc 0a 13 ac bd
       0.08768327 0.033581566 -0.026425064 -0.08402069
0001d0 74 5e e2 3d e0 6c 5f 3d fb a3 75 bd db 32 88 3d
       0.11053172 0.05454719 -0.059970837 0.06650325
0001e0 c9 53 9a 3c 95 21 b5 bc c9 fe 6b 3c 34 ed d8 3c
       0.01883878 -0.02211074 0.014404007 0.026480295
0001f0 6e 18 9c 3b cb 93 2c bd a3 91 eb 3d 37 bf 04 bc
       0.0047636544 -0.042133134 0.115023874 -0.00810223
000200 5a 08 95 bd 2d a6 57 bd b1 dc a3 3d 13 6a 0c be
       -0.072769836 -0.052648712 0.08001078 -0.13712339
000210 80 6e 8b bd 7f 84 3a bd 7a 07 d6 3d b3 96 5a 3c
       -0.068081856 -0.045536514 0.10450645 0.013341594
000220 30 cc 9e bd 96 6b 98 3d a1 68 ff bc ac e4 b4 3c
       -0.077537894 0.074423954 -0.03117782 0.022081695
000230 30 30 aa bd 57 e0 a8 bc a7 cd 84 3d a7 82 70 3d
       -0.08309972 -0.020614786 0.064845376 0.05871835
000240 e4 65 06 3c 6b 18 00 3e 94 1d d9 bd 37 02 0e be
       0.008203004 0.12509315 -0.10601345 -0.13868032
000250 23 fb 09 3e 87 ca e1 bd b3 71 c1 bd a7 e9 27 be
       0.13474707 -0.11024957 -0.094455145 -0.16397725
000260 56 dc f9 b9 6b d1 f1 bd d3 0b ca bd aa 8c e2 3d
       -0.00047657144 -0.118075214 -0.098655365 0.11061986
000270 b6 24 85 bb 56 1a 79 3d 3f 92 ae 3d 17 75 4c 3d
       -0.004063214 0.06081613 0.08523988 0.049916353
000280 f5 50 19 be 82 13 08 be f9 a2 b7 bd 4c ba ee 3b
       -0.14972289 -0.13288692 -0.089666314 0.007285392
000290 e4 2c a6 3d 48 7f 60 bd c5 37 bc bd 4a 27 ee 3c
       0.08114031 -0.054808885 -0.09190325 0.029071469
0002a0 f6 c2 39 3d 2c 7a ce bd 2b bf 0f 3e 35 ef 6d bd
       0.045351945 -0.10081896 0.14037769 -0.058089454
0002b0 83 b0 8c 3d dc e0 0d 3d 12 0e f6 3d a2 5c c0 3d
       0.068696044 0.03463827 0.120144024 0.09392668
0002c0 20 a5 28 bd e8 23 cc bd 34 0d dd 3a d7 a2 3d bd
       -0.0411731 -0.09967786 0.0016864897 -0.046297874
0002d0 e1 61 9f bd 4d b1 12 be f6 d4 a5 3c cf 8d d6 bd
       -0.07782341 -0.14325447 0.02024315 -0.104762666
0002e0 01 f8 e2 bd 5f 71 f8 bd 77 22 2b 3c c0 50 12 bd
       -0.11082459 -0.12130999 0.010445229 -0.03572154
0002f0 08 bc 18 3d 2c 9a 9e 3d 09 c1 f3 bd b0 1d f4 3c
       0.037288696 0.0774425 -0.11902053 0.029799312
000300 f2 47 47 3d a1 66 f5 3c a5 d2 cc bc 71 2e 75 3c
       0.048652597 0.029956164 -0.025002787 0.014964686
000310 d3 1a 86 3d 83 0c f6 3d 8a 3e 8b 3d 7b 3c 4b bd
       0.06548085 0.12014105 0.06799038 -0.049618226
000320 d7 1b 17 3c 23 c4 13 bd f4 e5 61 3d 17 a7 2d bd
       0.009222946 -0.036075722 0.05515094 -0.042395677
000330 01 e1 c4 3d 0f 4b e1 3d d7 ff 52 bd 66 f2 af bd
       0.096132286 0.110006444 -0.05151352 -0.08591156
000340 06 ed ed bd 04 3a c1 3b 2d 51 29 bd 92 e8 a3 bc
       -0.11617474 0.0058968086 -0.04133718 -0.02000836
000350 16 66 60 bd b6 69 b0 bc 12 30 98 bd e6 a4 d2 bc
       -0.054784857 -0.021534782 -0.07431044 -0.025713395
000360 fa 37 fd bc a6 ce 52 3c 43 0b b0 3d 10 a8 03 3e
       -0.03091048 0.012866652 0.08595898 0.1285708
000370 12 34 11 3d c2 2d 9a 3d 93 dd 5d 3d fb d4 70 bd
       0.03545005 0.07528259 0.054166388 -0.058796864
000380 6e d7 6e ba 5c f4 99 bd b9 69 ec 3d 75 b2 2c bc
       -0.0009111081 -0.07517311 0.115436025 -0.010540594
000390 a4 c4 1e 3c 3b 77 bc bd 78 f6 26 bd 95 e4 6d bd
       0.0096904375 -0.09202429 -0.040762395 -0.05807932
0003a0 fb 4a ec 3d c9 97 0f 3e ae 93 84 3c e2 81 48 3d
       0.11537739 0.14022745 0.0161837 0.04895199
0003b0 e0 f1 93 3d 63 41 9b bd d5 a0 59 bd a2 0a 2e 3c
       0.07223868 -0.07580831 -0.053131897 0.010622652
0003c0 5a 92 8f 3c 6b 89 39 bd f1 f5 cc 3d e7 77 b1 3d
       0.01752584 -0.045297068 0.10007847 0.08665448
0003d0 17 03 04 3e 31 84 15 bd 5c 2e 09 3d 8f b7 c0 3c
       0.12891804 -0.03650302 0.033491477 0.023525028
0003e0 60 76 f3 ba e5 44 ce 3d 2e d9 83 bc 74 67 e2 bc
       -0.0018574707 0.10071734 -0.01609477 -0.02763722
0003f0 cb 22 aa 3d 05 25 30 3d 38 88 ec 3d 65 61 c1 bd
       0.083074175 0.043004055 0.11549419 -0.09442405

lstm.weight_hh_l1 f4 [256, 64]
000000 d3 41 ba 3d 4d bc a3 3d 83 fa 11 3d 52 fc a0 3d
       0.09094586 0.079949 0.035639297 0.07860626
000010 35 53 33 bd a4 e2 d0 3d 1b 16 97 3c e3 fa c5 bd
       -0.043780524 0.10199478 0.018443158 -0.096669935
000020 36 c0 52 bd e9 a0 b3 bd 5b ea ce bd 6a 2b 46 bd
       -0.051452838 -0.087709256 -0.101032935 -0.048381247
000030 ca c6 18 3d d7 db 98 3c d3 2f bb 3d 91 cb 9c bd
       0.037298955 0.018659515 0.09139981 -0.07656015
000040 4b 80 50 bd 96 a4 88 bd a4 e1 b0 3d ea 65 bc 3a
       -0.0509036 -0.06672017 0.086367875 0.0014373634
000050 89 83 ad bd 66 1f ca 3c 32 c6 2e bd ce 8d b8 3b
       -0.08472354 0.024673175 -0.042669483 0.005632139
000060 ae 31 a8 3d 8d 3d df bd ce ee 82 3d 09 9c 61 3d
       0.08212601 -0.10900412 0.06393205 0.055080447
000070 85 24 c5 bc 96 c7 9e 3c 39 b5 0c bd 3a 9a b9 3d
       -0.024065265 0.01938228 -0.034352515 0.090626195
000080 62 bb af 3c 69 f0 55 bd 2a 67 c0 bd 63 cc 1d bd
       0.021451656 -0.052231226 -0.09394677 -0.038524996
000090 71 dc 23 bd 5a 64 b9 3d 62 d9 83 bd 1b fa 86 bd
       -0.04000515 0.09052344 -0.06437947 -0.065906726
0000a0 b2 9b 82 3d f1 42 8f bc f1 74 df bd 9d 4e e2 bd
       0.06377353 -0.017487975 -0.10910977 -0.110501505
0000b0 ce 08 17 bd 63 0d 9b 3d d9 be a8 bd 98 96 85 3c
       -0.03687363 0.07570913 -0.08239526 0.01630716
0000c0 d3 27 83 bd f3 8e 9e 3b 95 5b b1 bd dd 3f bc bd
       -0.0640408 0.004838818 -0.08660046 -0.091918685
0000d0 a8 25 cf 3d 17 ea 0b bc ae a7 cf bd 19 09 af bd
       0.10114604 -0.008539698 -0.10139404 -0.08546657
0000e0 7d fd d3 3b 8c 29 43 3d e4 84 d6 bc e1 dc dc ba
       0.006469427 0.047647044 -0.026186414 -0.0016850495
0000f0 ce e7 d5 bd cb f4 d7 3d ad 70 6d bd 57 5c 95 bb
       -0.10444604 0.105447374 -0.057968784 -0.004558127
000100 61 14 04 3e b2 24 a9 3d 5d a7 ca 3d c0 10 91 bd
       0.12898399 0.08258952 0.09895203 -0.07083273
000110 42 38 73 bc 09 fa 16 3d f6 1b aa bd 8d 3c ff 3d
       -0.014844956 0.036859546 -0.083061144 0.12462721
000120 ee e8 5c bd 10 8c 3e bc be 5c 0c be b1 de a5 bd
       -0.053933077 -0.011630073 -0.13707253 -0.08099116
000130 89 4e 75 3d 6e 0b 86 bd ff 6b 38 bd b1 4b ed 3d
       0.05988935 -0.06545149 -0.045024868 0.115867026
000140 69 1a 74 3d ed de 96 bd 20 5c 13 bd 67 af e1 bb
       0.0595955 -0.073667385 -0.03597653 -0.0068873647
000150 fa f6 96 3d 76 8b c7 bd 72 d3 1f 3e 6c cf bf 3d
       0.07371326 -0.09743397 0.15608004 0.093657345
000160 0c 3a a1 3d 5b e7 9f 3d 43 56 a8 bd 20 43 94 3d
       0.078724 0.078077994 -0.08219578 0.072393656
000170 41 aa 75 bd 6a b1 10 3e 7a 64 19 3d bd c5 d9 3d
       -0.05997682 0.14130178 0.037449338 0.10633419
000180 cc 30 bd 3d 8d 63 88 3d cb c0 9d bd b9 a0 17 3d
       0.09237823 0.06659613 -0.07702788 0.03701851
000190 91 6f 03 3e 5f ee b0 bc 93 37 56 3c 50 22 66 3d
       0.12835528 -0.02159804 0.013074773 0.056185067
0001a0 63 e5 90 bd cc 59 8e 3b 3a b9 ab 3c 62 2c f2 bd
       -0.07075002 0.0043442007 0.020962346 -0.118248716
0001b0 2f 6f bc bc 05 b2 06 be 53 f0 5f 3d 22 65 9d 3d
       -0.023002235 -0.13153847 0.05467255 0.07685305
0001c0 18 23 90 3d 07 87 d5 3d 73 cb 3d bd d8 e5 c9 3d
       0.070379436 0.10426145 -0.046336602 0.09858292
0001d0 e3 21 3b 3c 6d 90 69 3c 36 94 97 3d 5e 55 ea 3c
       0.011421653 0.014255625 0.07401316 0.02860516
0001e0 83 6d 50 bd bd 67 83 bd c2 9c 11 3d 4c c5 f0 3d
       -0.05088569 -0.06416271 0.035549887 0.117563814
0001f0 c6 9e 05 3e cf c2 39 bd 57 64 21 bd e1 e4 66 ba
       0.13048849 -0.0453518 -0.039402332 -0.00088079093
000200 c4 ad f8 bc 8a 06 91 bd 6d ed a9 bd 1c a7 4e bd
       -0.030356295 -0.07081325 -0.082972385 -0.050452337
000210 0d 44 50 bc 87 08 0a bc 4f 0b ad bd fa 0a fc ba
       -0.012711537 -0.008424885 -0.084494226 -0.0019229345
000220 d6 23 b9 bd a1 00 3d 3d bd 1a 60 bc bb 8b 91 3d
       -0.09040038 0.046143178 -0.01367825 0.071067296
000230 3a 9f 6d bd 9a cb ca bd f0 f6 a4 3d 4b 27 da 3d
       -0.05801318 -0.09902115 0.08054912 0.10652026
000240 29 56 0a 3b ac 36 40 bd ac e5 0e bd 6b ad 8c bd
       0.0021108484 -0.04692714 -0.034887 -0.06869014
000250 15 12 f4 bc eb f8 00 be bf f3 7d 3d 78 fb 05 bd
       -0.029793778 -0.12594955 0.062000033 -0.032710522
000260 fe af 0e 3e e7 f4 87 3d 0c 97 e1 3d ab d3 8f 3d
       0.13934323 0.06638508 0.11015138 0.07022794
000270 79 2c 3c bd 33 51 9c 3d 41 08 91 bc 8d 5d 79 bd
       -0.04594085 0.07632675 -0.017704131 -0.060880233
000280 f1 65 9b bd 09 86 83 bd dd 04 cb bb 4e 98 81 bd
       -0.07587803 -0.064220496 -0.006195648 -0.06327878
000290 dc d4 6d 3c 09 69 63 bd 69 57 f7 3d 5a 1a 86 bb
       0.014516082 -0.05552009 0.12077219 -0.004092497
0002a0 aa 54 30 bd fe 73 22 bd fb d8 c8 bc 6c 70 f7 3d
       -0.043049492 -0.0396614 -0.024517527 0.1208199
0002b0 2f 42 c8 3d a3 bb cc bd db 52 c7 3d d3 dc 8b 3d
       0.097782485 -0.09996726 0.097326 0.06829228
0002c0 e3 be cb bd 3f b6 42 bc a2 a3 45 3d ab f0 88 bd
       -0.09948518 -0.011884271 0.048251756 -0.06686529
0002d0 0e 21 98 bd 6a 66 d1 bd 01 f5 76 3d c8 d0 33 3d
       -0.0742818 -0.10224612 0.060292248 0.04390028
0002e0 0a 65 45 3d 16 25 a4 bc 6d 02 cc 3d 48 ec aa 3d
       0.04819206 -0.020037215 0.099614 0.08345848
0002f0 e3 f5 01 be d5 a0 cd 3d ef 8c 82 3b b1 bd 32 3d
       -0.12691455 0.10040442 0.0039840857 0.043637935
000300 04 e9 84 3c 7a d7 9b bc 5a bf 91 3c 46 e9 3d 3c
       0.016224392 -0.019023646 0.017791439 0.011591261
000310 7e f7 89 bd ce ec ba bd 95 a0 0b 3d d4 55 0e 3e
       -0.067366585 -0.09127198 0.03408869 0.13899928
000320 56 d5 9d bd d8 8d 8e 3d 17 b6 9d 3d d3 8d 02 3e
       -0.07706706 0.06960648 0.077007465 0.12749414
000330 0f bf f0 3d 32 8b 05 bd 94 be 23 bc ca 8b 7d 3d
       0.117551915 -0.03260345 -0.009994168 0.06190089
000340 58 51 00 be 6a e1 c6 bd 76 a7 8f 3c 03 0d 97 bc
       -0.1253103 -0.09710963 0.017535906 -0.018438822
000350 37 18 9e bd d1 27 26 bc e0 aa 8b 3d 00 28 41 bd
       -0.07719462 -0.010141329 0.06819701 -0.047157288
000360 f5 b7 cb 3d 4a cb 88 bd 0a 4e b8 3d b5 25 92 3c
       0.099471964 -0.06679399 0.0899926 0.017840246
000370 5b 24 b1 bc 25 45 87 3d 46 9e 90 bd 77 95 d8 bd
       -0.021623781 0.06604985 -0.07061438 -0.10575383
000380 73 89 d1 bd a2 3a c4 bd d2 b0 b0 bd ed 63 1c be
       -0.102312945 -0.09581496 -0.08627476 -0.15272494
000390 19 2c 19 3d 01 a1 c5 bd 95 29 f2 3d 9b 1a 01 3e
       0.03739557 -0.0964985 0.118243374 0.12607805
0003a0 36 cf 6b bd a4 8a 18 be 35 0a 12 3e 07 b0 21 3d
       -0.05757066 -0.14896637 0.14261706 0.039474513
0003b0 f3 93 2c 3c 3d 51 1b bc 48 a1 a6 bd 91 53 d9 bd
       0.010533321 -0.009479818 -0.08136231 -0.10611642
0003c0 f6 9d 1c bd 68 c6 54 bd c5 f4 6b 3c a2 e1 ea bd
       -0.03823658 -0.051947027 0.014401619 -0.11468817
0003d0 05 ec 09 be a4 6c c3 bc d2 64 09 3e 5a 23 8f bd
       -0.1346894 -0.023855515 0.13417366 -0.06989165
0003e0 b9 56 eb 3d 8c 29 10 be 5b 72 68 3d d2 8c 0f 3e
       0.114911504 -0.14078349 0.056749683 0.14018562
0003f0 ea 77 a9 3d 4b 95 29 bd dc 76 9e 3c fe d6 6b bd
       0.08274825 -0.041402142 0.019343786 -0.05757808

lstm.bias_ih_l1 f4 [256]
000000 ea f2 11 3e be 9b 9c 3d c1 5f c2 bd 9e 21 d3 3d
       0.1425282 0.07646893 -0.0949092 0.10309146
000010 c9 ec 10 bd f6 40 c0 bc b0 55 9e bd 8b ef 83 bd
       -0.035382066 -0.023468476 -0.07731187 -0.064421736
000020 23 5f 08 bd 03 c3 88 bd 75 17 ec 3d 42 d3 95 bd
       -0.033293854 -0.066778205 0.115279116 -0.07315685
000030 5c d5 a5 bb 75 04 0b bd e8 3b b8 3d f5 98 bf 3d
       -0.005060835 -0.033939797 0.08995801 0.09355346
000040 5d a3 5d bd 2c 86 8f 3d 2c 55 00 bd 19 45 c1 bc
       -0.054110873 0.07008013 -0.031331226 -0.023592519
000050 8e e5 92 bd 85 80 fd 3d a3 a6 d2 3d 85 ff 7b bd
       -0.0717269 0.12378029 0.1028569 -0.06152298
000060 57 9e 1c bd c6 da e0 3d b7 b9 ad 3b 0f ac 00 3d
       -0.038236942 0.10979228 0.00530168 0.031414088
000070 1c ca 57 bc 81 d7 02 3d c3 e9 02 3e 8a 2b ea bd
       -0.013170745 0.0319438 0.12784486 -0.11434086
000080 7e cd 03 3b b5 ee a8 bd 8c 16 54 bd 0b 13 a9 3d
       0.0020111497 -0.08248655 -0.051779315 0.08255585
000090 76 c1 c1 3d e4 8f a7 bc 80 f1 93 3c 6f 75 40 bd
       0.09460728 -0.020454355 0.018059492 -0.046986993
0000a0 4f 13 d3 bd 1c 79 b7 3d ae 51 4a bd 76 84 91 bc
       -0.10306417 0.08958647 -0.049394302 -0.017763358
0000b0 3b 86 38 bd f6 3c 30 3d 84 fa c7 bd 60 b9 f2 bd
       -0.045049887 0.043026887 -0.09764579 -0.11851764
0000c0 ff bf 2c 3d db a2 04 3d 58 22 b7 3d fb c4 d4 3d
       0.04217529 0.032381874 0.089420974 0.103891335
0000d0 c7 df 0b bd db 9a f5 3d 99 d1 37 bd db aa 6c bd
       -0.034148958 0.11992427 -0.044877622 -0.057780128
0000e0 6e 9e a2 3d 8e cb 9f 3d 76 39 1a 3d de 0f c6 3d
       0.07940374 0.07802497 0.037652455 0.09670995
0000f0 8c f3 a2 bd 85 c7 98 3c 2b 0c d2 3b e0 e5 c7 3d
       -0.07956609 0.018649826 0.006410142 0.09760642
000100 81 40 e9 3d ae 88 f5 bc 2d 75 b5 3d 81 17 e1 bc
       0.11389256 -0.0299724 0.0886024 -0.027477028
000110 38 d6 8a 3c 15 54 3d bd 5c 8a f5 bc 7c c3 4f bd
       0.01694785 -0.046222765 -0.029973201 -0.050723538
000120 c0 45 91 3c 6d 40 bb 3d df ce c0 3d 61 18 14 bd
       0.017733455 0.091431476 0.094144575 -0.036156062
000130 12 1d bf bd 0b 4a 90 3d 1f 7b 5f bd 12 9d 5d bd
       -0.093317166 0.070453726 -0.054560777 -0.054104872
000140 16 d2 04 bd 9e e7 81 3d c0 d2 f3 bc c5 a2 eb 3c
       -0.032426916 0.063430056 -0.02976358 0.028764138
000150 d5 ce 50 3d fd 6c b5 bd 26 ae a8 3d a3 f7 25 ba
       0.0509785 -0.088586785 0.08236341 -0.0006331151
000160 09 83 61 bd 45 3a 06 3e f2 33 36 3d 79 8b 4f 3d
       -0.055056605 0.13108166 0.044483133 0.05067012
000170 09 e6 2d 3d 27 c8 b9 bc a4 5d 14 3e e9 43 97 bd
       0.042455707 -0.022678448 0.14488846 -0.07386
000180 2f f2 da bb 66 44 f5 bc ca 77 d2 3d 74 8a 2c bd
       -0.0066817026 -0.029939841 0.10276754 -0.042124227
000190 2b ce 4f bd e2 e2 d2 bc af ea 00 bc 75 ec c3 bd
       -0.050733726 -0.025742952 -0.007868453 -0.09566585
0001a0 3d 63 52 bd 35 08 0e 3d 24 74 23 bd 60 62 de bc
       -0.051364172 0.034675796 -0.039905682 -0.027146518
0001b0 d5 ac 9e bb 89 c1 78 bd 0b de d5 bd 9b 0c bb 3d
       -0.0048423805 -0.060731445 -0.10442742 0.09133264
0001c0 20 5c 4b 3c cf fb df 3d 74 97 42 3d d9 e8 fd 3d
       0.012412101 0.109367006 0.04750772 0.12397928
0001d0 ca f1 b1 3d f6 51 8d 3c 5c 3f 88 bd 5c 49 c1 3d
       0.08688696 0.017250996 -0.0665271 0.0943782
0001e0 bc ec d7 bb 66 a9 9a 3d 06 3d b7 3d d5 92 1c 3d
       -0.0065895002 0.075518414 0.08947186 0.038225967
0001f0 93 61 a5 3d b7 be c4 3c 7d f2 b7 3d 63 09 df bd
       0.080752514 0.024016721 0.08981798 -0.10890462
000200 a5 9f 73 bd 1e d1 2a 3d 60 73 f6 3d 7e de 94 bd
       -0.05947842 0.041703336 0.12033725 -0.072689995
000210 4c 6b d3 bd 1e 7b a3 3c 7c 13 f8 3c 30 f4 a3 bd
       -0.103232 0.019956168 0.030282728 -0.080055594
000220 74 18 b0 3b 7a 51 ad ba 77 77 5b bd 2a b8 aa bd
       0.005374009 -0.0013223134 -0.053580727 -0.08335908
000230 4a fe 7b bd fb 99 e8 bd 0d 12 e0 3d d2 66 d9 3c
       -0.061521806 -0.113574944 0.10940943 0.026538286
000240 f6 fb a5 bd 7b 25 0c 3e 41 39 04 3d 07 b8 06 be
       -0.08104698 0.13686173 0.032281164 -0.13156138
000250 ef 23 00 3e 44 b4 d0 bc a0 aa 96 bd ea 85 80 3d
       0.12513708 -0.025476582 -0.07356763 0.06275542
000260 70 b5 d6 3d 41 b9 0a be 7c 94 88 bd 1f 24 1e 3c
       0.10483825 -0.13547231 -0.06668946 0.009652167
000270 61 7d 5b 3d 7e ed 28 bd 75 93 81 3d a5 f7 c0 3c
       0.053586368 -0.041242115 0.06326953 0.023555586
000280 a4 70 3d 3c 0e 51 82 3d 43 b0 07 3e f6 34 db 3d
       0.0115625 0.06363116 0.13250832 0.10703461
000290 c4 c6 0d 3d b9 60 84 bd 2f f6 f2 3c 1e 85 e4 3b
       0.034613386 -0.06463761 0.029658405 0.0069738766
0002a0 93 33 6b bd b5 6d c2 3c 92 26 03 bd cd 98 01 3e
       -0.057422232 0.023733953 -0.032019205 0.12655945
0002b0 3a 9c 6c 3d 06 e7 16 3e 1f c5 a1 3d 49 b0 aa bb
       0.057766177 0.14736566 0.07898926 -0.005209003
0002c0 4a 74 c4 3d 3d 21 74 3c da 5b b9 bd 4a f3 b4 bc
       0.09592493 0.014900503 -0.090507224 -0.022088666
0002d0 0b a0 bc 3d 54 46 0b 3d 35 93 2f bd cd 08 96 3d
       0.09210213 0.034002617 -0.042864997 0.07325897
0002e0 90 54 81 3c 05 9a aa 3d 02 83 8b bd a7 de 00 bd
       0.015787393 0.08330158 -0.06812097 -0.031462338
0002f0 73 e8 ee bc 05 74 92 3d f2 73 04 be a5 cd 8e 3c
       -0.029163575 0.07151035 -0.12934855 0.017432043
000300 8d 94 09 bd be 3e 44 bd 46 49 ba 3d 67 27 92 bc
       -0.033588935 -0.047911398 0.09096007 -0.017841054
000310 b4 fe a2 3d a6 14 d6 bd 20 52 49 bc cd dc 8a bc
       0.07958737 -0.10453157 -0.0122876465 -0.01695099
000320 15 ad 52 bd 55 d8 ef 3d 3f b7 bc bd 0c 2d 9f bc
       -0.051434595 0.11711184 -0.09214639 -0.01943066
000330 7c 48 56 bd 92 a8 89 3d c5 49 95 3d fc 24 9f 3d
       -0.05231522 0.06721605 0.07289461 0.07770726
000340 db f8 cd bc b9 83 ed bc 1b 08 91 3d cd 08 a8 3d
       -0.025143078 -0.028993474 0.07081624 0.082048036
000350 00 75 71 3d 6d a7 94 3d 5d f1 dd 3d 7b 3d 01 be
       0.05894947 0.072584964 0.10837052 -0.12621109
000360 4e 81 8f 3c b2 c8 8d bc e1 47 2c bd 0e 3e df bd
       0.017517712 -0.017307613 -0.042060737 -0.10900508
000370 c8 02 8a bc cf 85 d9 3c 17 da cf bd ec 75 a8 bc
       -0.01684703 0.026553063 -0.10149019 -0.020564042
000380 fc 4e 8e 3d f7 25 16 bd bb 94 63 bd ed a6 bf 3c
       0.06948659 -0.0366573 -0.055561762 0.023395026
000390 5c 5d 27 3d fb b4 17 be d7 af cc bd 2c 60 7e 3d
       0.04086052 -0.14815132 -0.09994476 0.062103435
0003a0 34 8d d9 3d e2 16 f2 3b 20 00 42 3d b7 20 12 bc
       0.106226355 0.0073879818 0.0473634 -0.008918933
0003b0 31 1d b6 bd 2e d4 f5 3d 29 8a 22 3d 1a 1e 83 3c
       -0.088922866 0.12003361 0.03968254 0.016005564
0003c0 47 68 15 bd 67 5c 44 bb 82 a8 b9 3c 40 6b eb bd
       -0.0364764 -0.0029962303 0.022663359 -0.11495066
0003d0 b1 30 ad 3d 8c fe 40 3d 72 bb 01 be a1 c7 d4 bc
       0.08456553 0.047117755 -0.12669161 -0.025974097
0003e0 cb e0 a3 bd b8 8a 88 3d 15 f5 52 3d 0d 26 f2 bd
       -0.0800186 0.066670835 0.05150326 -0.11823664
0003f0 e8 c3 cb 3d d2 43 06 be 1f be b5 3d b7 60 b6 3d
       0.099494755 -0.13111809 0.08874153 0.08905166
