best_model.pt (torch, 214194 bytes, 9 tensors)

lstm.weight_ih_l0 f4 [256, 11]
0.049229197 -0.11192247 0.07796994 -0.13693269 -0.049689703 -0.10075968 0.041156746 0.016815066
-0.06546138 -0.07448864 -0.11877188 0.009265504 0.08130534 0.007878964 0.008294625 -0.065471835
-0.08741076 -0.0027650879 -0.027057951 0.057855558 -0.07997044 0.12267207 -0.12666306 0.019119749
-0.058197543 -0.103127815 0.07724731 0.044742666 0.098516524 -0.031239334 0.08320295 -0.07116099
0.014924433 -0.11811576 -0.13050118 0.057822485 -0.027291149 0.03156413 0.018211562 -0.04267422
-0.10342233 -0.08985722 0.0034129906 0.028998703 -0.031035852 0.02276709 0.10806571 0.107255414
0.06355159 0.05951538 -0.039213948 -0.12126982 0.07138371 -0.15171368 -0.13555449 0.16808878
-0.05513759 -0.031811222 -0.016509619 -0.0077436096 -0.03373546 0.10561015 0.16151905 0.17120211
0.21066685 0.044074044 0.14290382 0.010723534 0.10649362 -0.027709892 0.0001264989 0.07904868
-0.024420802 -0.021141889 0.12602758 0.03621218 0.1147974 -0.0558352 -0.0025104359 -0.10053714
0.056212712 -0.13006593 0.029660532 -0.1356689 -0.1520062 -0.009113073 -0.02472459 0.0007768832
-0.09687901 -0.031042904 -0.006895081 -0.10267761 0.07470231 -0.13538194 -0.062204983 0.050513174
-0.073134266 -0.14358926 -0.03420866 -0.07108886 -0.09009949 -0.14263651 -0.045776486 -0.104646996
-0.05861929 0.011668287 -0.123278685 -0.15584677 -0.094899975 0.016909907 -0.100331396 0.026758755
-0.043050226 0.016258845 0.08678971 -0.10230343 -0.12543775 -0.043733507 -0.09971977 -0.1046872
0.018697023 -0.09216235 -0.12269408 -0.08896938 -0.0014636528 -0.1132561 -0.09056953 0.048070315
-0.0133792665 -0.07958122 -0.18547052 -0.12092674 -0.046793748 0.07007491 0.09704193 -0.10333936
-0.06456559 -0.12051731 -0.11750929 -0.001289839 -0.06578465 -0.037331942 0.055809326 0.082895085
-0.0016769599 0.017954186 -0.06167291 0.07033928 -0.055240445 -0.13885696 -0.1296242 0.092989616
-0.001759182 0.07629382 -0.15646364 0.038662884 -0.11642715 -0.07214642 0.07724753 0.006296541
-0.09779731 -0.13192317 -0.07943113 -0.14427301 -0.029421166 -0.07902316 -0.0455568 0.03138601
-0.06071371 0.07278047 0.102178335 -0.08580861 0.10232756 -0.05410817 -0.049600296 0.004170503
0.098893784 0.12289931 -0.050726198 0.1082422 -0.06236868 0.042263824 -0.03914686 0.029430097
0.12736292 -0.08119322 -0.018920673 -0.15605453 0.069869556 0.012517405 -0.033837777 -0.12098972
0.023767928 -0.08521291 0.017642451 -0.0876013 -0.058991715 0.0017380854 -0.056983013 -0.09612735
0.054714493 -0.050463803 0.06746121 0.099811114 0.029000806 -0.011714865 0.002538881 0.107643686
-0.033446193 0.056648098 0.022140235 0.10089103 0.002249513 0.015436167 0.06913277 0.081042886
0.0035877433 0.03873725 -0.08935935 0.041473392 0.068029545 0.008314954 -0.15394615 0.0039218743
0.07731458 -0.13515939 -0.002791702 -0.0064639244 -0.13616891 -0.13581957 -0.09321067 -0.14807352
-0.10065211 -0.042225864 -0.15697479 -0.015575842 0.033203207 0.03035575 -0.12041267 -0.0052915365
0.030332027 -0.05795348 0.011309563 -0.023306776 -0.08006744 0.076647066 -0.064712025 -0.022821946
-0.005037905 0.005092224 -0.026396444 0.01986222 0.016175691 -0.05654645 -0.020102754 0.09592887
00000000: 8ea4 493d 9c37 e5bd b4ae 9f3d 1538 0cbe
00000010: 6e87 4bbd 175b cebd fa93 283d c0bf 893c
00000020: 9e10 86bd 808d 98bd ac3e f3bd 57ce 173c
00000030: 6a83 a63d c516 013c 2ee6 073c 1916 86bd
00000040: 6a04 b3bd 7a36 35bb a3a8 ddbc f3f9 6c3d
00000050: 8bc7 a3bd 7f3b fb3d f6b3 01be 05a1 9c3c
00000060: 8c60 6ebd ad34 d3bd d633 9e3d 1644 373d
00000070: 08c3 c93d a2e9 ffbc 4f66 aa3d dabc 91bd
00000080: 9c85 743c ade6 f1bd 1aa2 05be 45d7 6c3d
00000090: b091 dfbc 6449 013d 6a30 953c 2acb 2ebd
000000a0: 16cf d3bd 1007 b8bd 7bac 5f3b b08e ed3c
000000b0: e63e febc 0c82 ba3c 8e51 dd3d baa8 db3d
000000c0: 5627 823d 66c6 733d ce9e 20bd 505c f8bd
000000d0: 9f31 923d d55a 1bbe ccce 0abe 771f 2c3e
000000e0: f4d7 61bd 7c4c 02bd 2e3f 87bc 1bbe fdbb
000000f0: 322e 0abd 224a d83d 4065 253e 9b4f 2f3e
00000100: 0db9 573e fc86 343d 6155 123e c3b1 2f3c
00000110: 5419 da3d dbff e2bc caa4 0439 46e4 a13d
00000120: 220e c8bc c131 adbc 600d 013e 3953 143d
00000130: e61a eb3d 73b3 64bd 2086 24bb 6be6 cdbd
00000140: 4d3f 663d 0130 05be a5fa f23c caec 0abe
00000150: 83a7 1bbe 004f 15bc 398b cabc c0a7 4b3a
00000160: 8168 c6bd b04d febc 22f0 e1bb a448 d2bd
00000170: 86fd 983d 90a1 0abe a7ca 7ebd e7e6 4e3d
00000180: 6bc7 95bd 1009 13be 611e 0cbd 0997 91bd
00000190: 1586 b8bd 4e0f 12be 2080 3bbd 2a51 d6bd
000001a0: c81a 70bd 582c 3f3c 8979 fcbd 4c96 1fbe
000001b0: eb5a c2bd a586 8a3c 8c7a cdbd 2d35 db3c
000001c0: 6f55 30bd 4531 853c cebe b13d 7684 d1bd
000001d0: c172 00be e821 33bd e139 ccbd 3e66 d6bd
000001e0: 802a 993c 9dbf bcbd 0947 fbbd 9435 b6bd
000001f0: 0ad8 bfba d0f2 e7bd 857c b9bd 61e5 443d
00000200: b634 5bbc 7bfb a2bd fceb 3dbe 70a8 f7bd
00000210: cdaa 3fbd 6f83 8f3d ebbd c63d 96a3 d3bd
00000220: f73a 84bd c8d1 f6bd b6a8 f0bd d10f a9ba
00000230: 1aba 86bd 61e9 18bd 5298 643d e6c4 a93d
00000240: 70cd dbba a814 933c bc9c 7cbd 0a0e 903d
00000250: ce43 62bd 8530 0ebe 35bc 04be 5771 be3d
00000260: 5a94 e6ba ef3f 9c3d 0138 20be f95c 1e3d
00000270: 5c71 eebd 81c1 93bd f433 9e3d 3753 ce3b
00000280: f549 c8bd de16 07be caac a2bd 4ebc 13be
00000290: a804 f1bc e5d6 a1bd c499 3abd 9e8e 003d
000002a0: f0ae 78bd ed0d 953d e042 d13d 6dbc afbd
000002b0: 1d91 d13d 87a0 5dbd ae29 4bbd b7a8 883b
000002c0: d388 ca3d a2b2 fb3d 46c6 4fbd 16ae dd3d
000002d0: 4d76 7fbd d51c 2d3d 7558 20bd 6317 f13c
000002e0: 6d6b 023e a248 a6bd 87ff 9abc c2cc 1fbe
000002f0: c517 8f3d cd15 4d3c 7b99 0abd 75c9 f7bd
00000300: f5b4 c23c 1b84 aebd e786 903c 4f68 b3bd
00000310: 4ca1 71bd 78d0 e33a 0567 69bd 6bde c4bd
00000320: 4e1c 603d 22b3 4ebd 1a29 8a3d c569 cc3d
00000330: 1993 ed3c b5ef 3fbc 5b63 263b 4b74 dc3d
00000340: e0fe 08bd d607 683d 705f b53c f59f ce3d
00000350: 916c 133b fae7 7c3c 7b95 8d3d d0f9 a53d
00000360: 5820 6b3b f3aa 1e3d 0902 b7bd 01e0 293d
00000370: 1353 8b3d 723b 083c 0fa4 1dbe 1183 803b
00000380: 1b57 9e3d 3967 0abe fdf4 36bb 54cf d3bb
00000390: dd6f 0bbe 4914 0bbe 3ce5 bebd 96a0 17be
000003a0: b222 cebd 07f5 2cbd 00be 20be d131 7fbc
000003b0: 1600 083d 9fac f83c eb9a f6bd a064 adbb
000003c0: df7a f83c a160 6dbd bf4b 393c daed bebc
000003d0: 66fa a3bd 23f9 9c3d bd87 84bd 17f5 babc
000003e0: 0315 a5bb acdc a63b 5b3d d8bc 18b6 a23c
000003f0: e282 843c 409d 67bd 88ae a4bc 5b76 c43d

lstm.weight_hh_l0 f4 [256, 64]
0.12017697 0.04470999 -0.04056598 -0.061211456 0.019319518 0.03905778 -0.02118032 0.024210228
-0.034822043 -0.032547873 0.005972411 -0.06330569 0.01636777 0.08433185 0.011655598 0.0013004766
0.050536018 0.046089116 -0.043741688 -0.1324968 -0.019402 0.08221437 0.07872316 0.06181832
-0.07626216 -0.053980533 0.07792175 0.048566848 -0.08694207 0.120928176 0.11588235 0.11661717
0.116866626 -0.021541566 0.11426175 0.084105246 0.04286968 -0.124201775 -0.08769382 0.003341083
-0.05747548 0.102524795 0.119821675 0.084570095 -0.018853491 0.03329382 0.018467218 -0.118892334
-0.09568018 0.021895824 -0.08909598 -0.052612618 -0.09675252 -0.11946337 -0.009366685 0.1189302
-0.12208946 0.016331114 0.054615512 -0.07548564 -0.07332389 -0.07928869 -0.028539013 0.114690006
0.071026586 -0.12264025 -0.022234414 0.07921833 -0.019685114 0.0925962 -0.037173275 -0.10583923
0.055457715 -0.025079567 0.11567114 0.07412923 0.043856174 -0.09805344 -0.031197872 0.022929398
-0.08208236 -0.035195857 -0.012195765 0.019107247 0.060834993 -0.0961382 0.06171212 0.08817607
-0.024070863 0.020962285 0.08024988 0.13356301 -0.019017275 -0.13563436 -0.03909056 0.030986845
-0.06727445 -0.062113013 0.079434335 -0.049560845 0.09858516 -0.062224295 -0.08206383 0.111190386
-0.09817984 -0.048205778 -0.12150336 0.073293604 -0.041422326 0.10598184 0.045136146 0.049059447
0.053171184 -0.1016617 -0.008775712 0.084454924 0.10098162 -0.029786805 0.0776545 -0.011623608
-0.043528043 -0.0546175 -0.028099129 -0.011458013 0.05094181 0.09180268 -0.03980091 0.051555444
-0.08123973 -0.11433481 0.089249976 -0.12739855 -0.015627347 0.11237203 -0.12141832 0.108074546
0.10398576 0.0132921655 -0.06997636 0.12914786 0.028922107 0.017714912 -0.012302271 -0.025553856
-0.05546119 0.024427503 -0.0072519076 -0.030040314 0.0832789 -0.06522472 0.11739745 0.019713076
-0.08756105 -0.12555861 -0.12434925 -0.074586846 -0.021108547 -0.09630004 0.017435117 -0.1340786
0.0682702 -0.05099372 0.12299302 0.11811246 -0.043599837 0.055486407 0.056956254 -0.12439653
-0.004210057 -0.012779795 0.032375053 -0.06236246 0.06570266 0.10420054 -0.010069232 0.0031986246
-0.07795923 -0.06664023 0.061768457 -0.09444169 0.032995664 -0.03026899 -0.028573332 0.07218137
0.01652269 0.102979906 -0.08773014 0.046563916 -0.039570123 0.033521734 -0.0014100865 0.12263352
0.016557125 0.027980328 0.06741922 -0.056870546 -0.028372677 0.14275731 0.0889399 -0.02004358
0.016908206 -0.025919184 0.06292893 0.027092796 -0.002199809 -0.060204275 -0.049084794 -0.0043464326
-0.094766006 -0.10339917 -0.13579206 -0.12467205 0.025382226 0.09451083 0.0028490825 0.11620753
-0.039566003 -0.019492425 0.06885648 -0.08505998 -0.060081903 -0.09131728 -0.028295983 -0.030294403
-0.062893346 0.03140159 -0.05783359 0.12791395 -0.036541976 0.06771375 0.05561929 -0.025370616
-0.096075855 0.08048699 0.08916843 -0.06847095 0.09761897 0.086364634 0.12714845 -0.067836314
0.07467912 0.06198834 -0.08001207 -0.059275605 -0.022789055 -0.0034854535 -0.036926597 -0.0945627
-0.020366652 -0.0623576 -0.117083 0.028665816 0.12005655 -0.038718384 -0.034981143 -0.0788242
00000000: 581f f63d d321 373d 8328 26bd ddb8 7abd
00000010: f743 9e3c 0dfb 1f3d 5a82 adbc 8754 c63c
00000020: 8fa1 0ebd eb50 05bd 37b4 c33b 6aa6 81bd
00000030: b415 863c 2db6 ac3d 1ff7 3e3c c174 aa3a
00000040: dbfe 4e3d f1c7 3c3d 7c2a 33bd 3ead 07be
00000050: f1f0 9ebc 0260 a83d 9c39 a13d 3535 7d3d
00000060: 562f 9cbd b11a 5dbd 7095 9f3d 08ee 463d
00000070: af0e b2bd 31a9 f73d ba53 ed3d fcd4 ee3d
00000080: c557 ef3d f077 b0bc 1002 ea3d 5f3f ac3d
00000090: 1e98 2f3d 805d febd d198 b3bd 12f6 5a3b
000000a0: 696b 6bbd 85f8 d13d 1165 f53d 1633 ad3d
000000b0: a372 9abc 1a5f 083d 9048 973c d37d f3bd
000000c0: f8f3 c3bd df5e b33c f477 b6bd 5480 57bd
000000d0: 2f26 c6bd 36a9 f4bd b976 19bc ad91 f33d
000000e0: 0a0a fabd d4c8 853c 84b4 5f3d 3798 9abd
000000f0: d62a 96bd 1c62 a2bd a6ca e9bc 98e2 ea3d
00000100: 6376 913d d02a fbbd f224 b6bc 383d a23d
00000110: ad42 a1bc 14a3 bd3d 0143 18bd 3dc2 d8bd
00000120: a127 633d aa73 cdbc fee4 ec3d 11d1 973d
00000130: 88a2 333d 3ed0 c8bd ae92 ffbc 6fd6 bb3c
00000140: cc1a a8bd 8829 10bd bfd0 47bc cd86 9c3c
00000150: 1d2e 793d 1be4 c4bd d9c5 7c3d a895 b43d
00000160: 4230 c5bc 19b9 ab3c 0d5a a43d bec4 083e
00000170: 1eca 9bbc bce3 0abe 6c1d 20bd 20d8 fd3c
00000180: 30c7 89bd 376a 7ebd 78ae a23d 5000 4bbd
00000190: 04e7 c93d e7de 7ebd 1511 a8bd c9b7 e33d
000001a0: 8312 c9bd 6c73 45bd c1d6 f8bd f51a 963d
000001b0: 75aa 29bd 020d d93d aee0 383d 8ff2 483d
000001c0: 07ca 593d 0234 d0bd 01c8 0fbc b4f6 ac3d
000001d0: 74cf ce3d 7503 f4bc 5309 9f3d f270 3ebc
000001e0: 764a 32bd 9ab6 5fbd 2530 e6bc 64ba 3bbc
000001f0: 5ca8 503d 0b03 bc3d 4706 23bd cd2b 533d
00000200: 0461 a6bd 5e28 eabd b1c8 b63d c474 02be
00000210: ec04 80bc 4f23 e63d 2baa f8bd 3056 dd3d
00000220: 7cf6 d43d 62c7 593c c44f 8fbd 563f 043e
00000230: 0eee ec3c dd1e 913c 778f 49bc 5256 d1bc
00000240: 462b 63bd 301c c83c 69a1 edbb 1b17 f6bc
00000250: 218e aa3d 8a94 85bd 136e f03d 517d a13c
00000260: 3553 b3bd 7092 00be d2aa febd fdc0 98bd
00000270: d5eb acbc f538 c5bd 17d4 8e3c e74b 09be
00000280: 3fd1 8b3d cade 50bd c4e3 fb3d f2e4 f13d
00000290: be95 32bd b745 633d f64a 693d 9cc3 febd
000002a0: 85f4 89bb 5862 51bc b49b 043d c76f 7fbd
000002b0: 1e8f 863d 1867 d53d 6cf9 24bc 04a0 513b
000002c0: 17a9 9fbd ac7a 88bd ec00 7d3d a56a c1bd
000002d0: 7626 073d acf6 f7bc 9f12 eabc d3d3 933d
000002e0: 985a 873c 21e7 d23d dcab b3bd ceb9 3e3d
000002f0: 4814 22bd 164e 093d a7d2 b8ba 4827 fb3d
00000300: cfa2 873c 0037 e53c 1713 8a3d 17f1 68bd
00000310: d16d e8bc f92e 123e 1f26 b63d 6f32 a4bc
00000320: 1483 8a3c 7854 d4bc e2e0 803d b6f1 dd3c
00000330: ac2a 10bb c298 76bd 230d 49bd 856c 8ebb
00000340: ae14 c2bd f2c2 d3bd 130d 0bbe 0f54 ffbd
00000350: 63ee cf3c e58e c13d acb7 3a3b 37fe ed3d
00000360: f60f 22bd 94ae 9fbc a004 8d3d ed33 aebd
00000370: 7118 76bd 8e04 bbbd facc e7bc f82b f8bc
00000380: 3ace 80bd f49e 003d eae2 6cbd e0fb 023e
00000390: 0aad 15bd 82ad 8a3d 0dd1 633d 0ad6 cfbc
000003a0: 6bc3 c4bd 5dd6 a43d f09d b63d 7f3a 8cbd
000003b0: 74ec c73d f1df b03d 3433 023e c4ed 8abd
000003c0: 5ef1 983d 7ce7 7d3d 5edd a3bd faca 72bd
000003d0: 1db0 babc 356c 64bb 5840 17bd 17aa c1bd
000003e0: f7d7 a6bc af6a 7fbd 36c9 efbd 93d4 ea3c
000003f0: 35e0 f53d 2b97 1ebd 6348 0fbd 956e a1bd

lstm.bias_ih_l0 f4 [256]
-0.025354614 0.0029767854 0.12091204 -0.11350474 -0.10632046 0.105629355 0.004952814 -0.060503155
-0.076931365 0.073477186 -0.08145186 0.01135135 0.06916124 0.08527395 -0.109104015 -0.08717401
0.10162213 0.05263579 0.0897025 -0.08745151 -0.12631962 -0.087309755 0.058906253 0.06418479
-0.04018925 -0.10174403 3.5201905e-05 -0.0072678505 0.06924496 -0.08756714 0.0040574465 -0.025414208
0.093478166 -0.04098962 -0.011839215 0.04792987 0.023414897 0.03172161 0.047343634 -0.07977744
0.049323153 0.031281848 -0.06343765 -0.115388855 -0.1373961 0.09517942 0.07690569 0.05303079
-0.081728645 0.06437453 -0.029376421 -0.03308458 0.09862012 -0.052689068 0.002841046 -0.10859056
0.06412718 -0.077947944 -0.111909576 -0.059661128 -0.07363677 0.10236818 0.015038413 -0.13389853
-0.09119063 0.10769263 0.053862136 -0.08054064 0.06294973 0.0021927764 0.04431212 0.05271808
-0.07732419 -0.03635979 0.020176332 -0.040494394 -0.13179044 0.10396444 0.107879736 -0.090786874
-0.02338934 0.12561876 -0.025748672 -0.121158555 0.034453504 0.0005209955 -0.12958455 0.037902508
-0.071190424 0.089392975 -0.07442594 0.11264511 -0.026148627 -0.08022067 0.03165453 -0.09335057
-0.044836596 -0.1037899 -0.05706628 -0.020709021 -0.1198851 -0.047452 -0.008827099 0.111935
0.00031462355 0.062097285 0.02420498 -0.09039181 0.04433862 -0.028046502 -0.065150134 0.10437854
-0.062993355 -0.012523546 -0.09288849 -0.07132055 -0.08138581 0.06393354 0.088905014 0.04784212
0.08666074 -0.007815801 0.08803642 0.0024948558 -0.11699659 0.026644798 0.018604858 -0.009284886
0.10512269 0.12324716 -0.11255122 -0.03196888 0.10595747 -0.08218671 -0.08968822 0.14540242
0.05082154 0.045212537 0.009804297 -0.046316884 0.0515721 -0.097292036 -0.0070139566 0.009874797
-0.0465711 0.0208714 0.04215139 0.09216211 0.13666019 0.055281892 -0.06256299 -0.029611964
0.028741747 -0.110374935 0.103391394 0.050810408 0.13356331 -0.14407688 0.095923714 0.068181425
0.032592967 -0.007120491 0.084422134 0.11967774 0.011013909 0.10726545 -0.0028299943 0.086214975
0.08433178 -0.067935795 -0.09288378 -0.025893219 0.068273805 -0.119775 -0.05870092 0.058690935
-0.09160707 0.05905238 0.04036654 -0.036385454 0.05630002 0.031249402 0.045386538 0.054640174
-0.0644809 -0.012963679 -0.02390771 -0.002840917 -0.115360536 -0.10017575 0.04536991 0.031974684
0.08770504 -0.12611613 0.10335315 0.11576054 0.060829505 -0.07057229 -0.14777382 -0.07720234
-0.109170675 0.03597871 -0.11792654 0.046137296 0.11678085 0.03462689 -0.1062542 -0.08147553
-0.084796 0.016760422 0.06579654 0.05594196 0.052352715 -0.026746694 -0.10499081 -0.011106031
0.06280743 -0.0024668865 0.092057906 0.13386625 -0.063130714 0.10258981 0.06364917 0.03723482
0.04954915 -0.07402172 -0.1377583 0.03518861 0.049239922 0.070095755 -0.009532912 0.11111521
0.09984373 -0.11283069 -0.002664133 -0.022302564 -0.07821028 -0.010861978 -0.040677495 0.066037096
0.094691075 0.111316934 0.104365416 0.051164526 -0.10109831 -0.047993537 -0.07514467 -0.038216308
0.096675806 0.03689135 -0.07551793 -0.09540532 0.08069849 0.09916121 -0.058648143 -0.027539268
00000000: 7bb4 cfbc 2c16 433b bba0 f73d 2c75 e8bd
00000010: 8bbe d9bd 3454 d83d 374b a23b 28d2 77bd
00000020: 318e 9dbd 357b 963d 3cd0 a6bd 03fb 393c
00000030: 68a4 8d3d 1ca4 ae3d ed71 dfbd 4a88 b2bd
00000040: 431f d03d a098 573d f2b5 b73d c719 b3bd
00000050: ee59 01be 75cf b2bd af47 713d 5173 833d
00000060: 7c9d 24bd 2d5f d0bd c2a5 1338 2627 eebb
00000070: 4dd0 8d3d 6756 b3bd 54f4 843b 7531 d0bc
00000080: 7b71 bf3d bbe4 27bd 44f9 41bc 1d52 443d
00000090: 99d0 bf3c 85ee 013d 66eb 413d 5b62 a3bd
000000a0: 1307 4a3d 6521 003d 99eb 81bd fe50 ecbd
000000b0: 90b1 0cbe 6eed c23d bb80 9d3d d036 593d
000000c0: 5961 a7bd cbd6 833d d2a6 f0bc b283 07bd
000000d0: 58f9 c93d 7ed0 57bd d830 3a3b ba64 debd
000000e0: 1c55 833d 2ca3 9fbd d930 e5bd 3a5f 74bd
000000f0: e0ce 96bd 69a6 d13d ad63 763c b21c 09be
00000100: 27c2 babd f48d dc3d 8b9e 5c3d 7ef2 a4bd
00000110: caeb 803d afb4 0f3b a080 353d eaee 573d
00000120: 255c 9ebd 01ee 14bd d648 a53c 73dd 25bd
00000130: 13f4 06be 4feb d43d 0df0 dc3d 78ee b9bd
00000140: 009b bfbc 34a2 003e e1ee d2bc fa21 f8bd
00000150: 1e1f 0d3d 6b93 083a d0b1 04be a93f 1b3d
00000160: 49cc 91bd aa13 b73d a16c 98bd 7bb2 e63d
00000170: a535 d6bc bc4a a4bd 2ea8 013d 952e bfbd
00000180: 94a6 37bd cd8f d4bd 55be 69bd f7a5 a9bc
00000190: 5286 f5bd 075d 42bd 899f 10bc 2d3e e53d
000001a0: 0ff4 a439 b959 7e3d 8649 c63c 571f b9bd
000001b0: 6a9c 353d c7c1 e5bc 6f6d 85bd 6ac4 d53d
000001c0: a902 81bd 8f2f 4dbc 523c bebd 8210 92bd
000001d0: 9bad a6bd 96ef 823d d513 b63d 19f6 433d
000001e0: 307b b13d d80d 00bc 704c b43d bc80 233b
000001f0: e89b efbd 3146 da3c 3769 983c a21f 18bc
00000200: 914a d73d 0269 fc3d 4181 e6bd cdf1 02bd
00000210: 3b00 d93d 8151 a8bd 75ae b7bd 5fe4 143e
00000220: 3f2a 503d c830 393d 34a2 203c c6b6 3dbd
00000230: 443d 533d 0c41 c7bd 55d5 e5bb e7c9 213c
00000240: 56c1 3ebd 80fa aa3c f0a6 2c3d 7dbf bc3d
00000250: a6f0 0b3e 446f 623d 0621 80bd ca94 f2bc
00000260: d073 eb3c 410c e2bd debe d33d 931e 503d
00000270: d2c4 083e e488 13be a773 c43d b4a2 8b3d
00000280: 3480 053d 0253 e9bb 83e5 ac3d 9a19 f53d
00000290: af73 343c fdad db3d 6d77 39bb 7a91 b03d
000002a0: 24b6 ac3d ec21 8bbd da39 bebd 041e d4bc
000002b0: 23d3 8b3d 984c f5bd 6070 70bd e865 703d
000002c0: 7d9c bbbd e9e0 713d 6357 253d ea08 15bd
000002d0: da9a 663d bffe ff3c 3ce7 393d 60ce 5f3d
000002e0: 900e 84bd 9c65 54bc 1ada c3bc ae2e 3abb
000002f0: 2542 ecbd f228 cdbd ccd5 393d e3f7 023d
00000300: b39e b33d 9624 01be d1aa d33d dd13 ed3d
00000310: 5c28 793d 3488 90bd 0552 17be 431c 9ebd
00000320: e094 dfbd 695e 133d 7883 f1bd 76fa 3c3d
00000330: cc2a ef3d edd4 0d3d cd9b d9bd a5dc a6bd
00000340: 86a9 adbd 274d 893c 56c0 863d 6623 653d
00000350: cd6f 563d e21b dbbc 6c05 d7bd 12f6 35bc
00000360: 2fa1 803d 7dab 21bb db88 bc3d 3c14 093e
00000370: ad4a 81bd 9b1a d23d 7f5a 823d 8a83 183d
00000380: 0df4 4a3d b398 97bd 8310 0dbe ef21 103d
00000390: cdaf 493d 5d8e 8f3d ee2f 1cbc 5f90 e33d
000003a0: df7a cc3d c713 e7bd bc98 2ebb deb3 b6bc
000003b0: b62c a0bd 70f6 31bc 729d 26bd 753e 873d
000003c0: 65ed c13d 22fa e33d 89bd d53d e591 513d
000003d0: a10c cfbd df94 44bd 73e5 99bd b488 1cbd
000003e0: f7fd c53d 621b 173d 25a9 9abd dd63 c3bd
000003f0: 4045 a53d 0815 cb3d 0939 70bd 089a e1bc

lstm.bias_hh_l0 f4 [256]
0.056890685 -0.11058944 -0.04962658 -0.090439186 0.07171885 0.036241923 0.008820136 0.018670514
-0.046481837 -0.008786563 0.015786273 0.07138265 0.12037087 -0.017210783 -0.08783393 0.09314151
-0.13539925 -0.051756516 -0.08579439 -0.035697535 -0.110365465 0.02735007 -0.003455078 -0.067398585
0.07804488 -0.1178109 0.072625 0.07939633 -0.06600988 0.10064749 -0.08593776 -0.0068897735
0.080294125 -0.04933387 -0.03893729 -0.09495755 -0.0777028 0.06562023 -0.0016697267 -0.041414477
0.07490139 0.08207216 0.09940095 0.10274562 0.048434403 0.07257727 -0.05495596 -0.0863891
0.0077780304 0.023420218 -0.033706058 0.052928217 0.009522798 0.038289584 0.019350447 -0.034356758
-0.0011029054 -0.093220904 -0.021833375 -0.085370965 -0.049900465 -0.119402386 -0.026664505 -0.029033795
0.072498016 -0.129011 0.08828383 -0.10113077 0.050948072 0.07320039 -0.08432514 0.05399593
0.08988512 0.08095835 -0.13274945 -0.06597 -0.101516366 -0.027963925 0.053370863 0.0022743663
0.1007657 0.11417123 -0.087210275 0.06444086 0.05550421 -0.08341725 -0.027511396 0.011516157
-0.046981126 0.058937266 -0.029499851 0.10117563 0.10006804 -0.057156865 0.039250188 -0.12959945
-0.024928406 0.060356177 -0.045144286 -0.01911791 -0.11188981 -0.037323635 -0.09675481 -0.0033365195
-0.1002493 -0.114112005 -0.09083653 -0.011577245 0.06436118 -0.024852237 0.03258845 -0.12252088
-0.09117868 -0.07483812 0.041310046 -0.12109757 0.051940054 -0.072309114 -0.0011848409 0.11740574
-0.06931784 0.0784169 -0.093087226 0.09423118 -0.10302766 0.03855726 0.049783528 0.007976717
-0.11446434 0.031307265 0.040343508 0.025913933 0.075416096 0.049976513 0.1343642 0.036169063
0.015384097 0.068372145 -0.075334854 0.06486992 0.11614222 -0.038924903 0.012315104 0.11735909
0.13762529 -0.09968191 0.119033985 -0.022991413 -0.083374485 -0.091774665 0.03533733 -0.05252309
0.08574213 0.017141135 -0.123279765 -0.014443651 -0.05094513 -0.06840665 0.0074120355 0.037186947
0.049614508 -0.060054425 0.015624552 -0.05852061 0.062267754 -0.027231105 -0.012571789 -0.05888678
0.07815412 -0.001929109 0.030780435 -0.028065933 -0.019968906 0.050010797 -0.00034946192 0.026553225
-0.03660412 0.0362643 0.036363684 -0.072234705 -0.09123298 -0.07053009 -0.11399541 0.07867708
0.0892374 -0.106604144 -0.10310511 -0.03676546 -0.06770209 -0.082880735 -0.02422144 0.056407385
0.016109888 -0.08808716 -0.11289998 0.008503756 0.07058124 -0.019288182 0.07460043 -0.1068994
0.07978541 -0.0022528102 -0.1067936 -0.06479581 0.075212345 -0.05835491 0.0883678 -0.14852324
-0.08493109 -0.07948418 -0.11603673 0.0976898 -0.009829387 0.102333 -0.106035635 0.018551813
-0.09081105 -0.07547048 0.042279784 0.030971617 -0.019722618 -0.011971466 -0.13014045 -0.11287514
0.03735051 0.05642211 -0.026697617 0.004664667 0.04358827 0.01439888 -0.014880166 0.042012442
0.059676606 -0.029423838 0.104251355 -0.0061325985 0.028933942 -0.024469081 -0.10919746 0.09178852
0.11136355 -0.002635296 -0.024340874 -0.04757878 -0.07261465 0.014219273 -0.022837458 0.0692075
-0.052703377 -0.028011898 0.024350796 -0.02853794 -0.09378469 0.11616016 0.07757216 -0.11087269
00000000: 3506 693d b77c e2bd 3e45 4bbd 2e38 b9bd
00000010: 55e1 923d 6972 143d 5582 103c e8f2 983c
00000020: bd63 3ebd 84f5 0fbc 3752 813c 1131 923d
00000030: 0185 f63d a1fd 8cbc 47e2 b3bd fac0 be3d
00000040: 1aa6 0abe a4fe 53bd f8b4 afbd 9437 12bd
00000050: 4a07 e2bd 410d e03c 976e 62bb 4508 8abd
00000060: fed5 9f3d d746 f1bd 6abc 943d 8b9a a23d
00000070: 3030 87bd 4520 ce3d 2300 b0bd 9cc3 e1bb
00000080: 3f71 a43d 5012 4abd b57c 1fbd 1b79 c2bd
00000090: a522 9fbd e663 863d bbda daba 3aa2 29bd
000000a0: e665 993d 7315 a83d ba92 cb3d 4c6c d23d
000000b0: 2763 463d 64a3 943d 8019 61bd c5ec b0bd
000000c0: d9de fe3b c2db bf3c 5d0f 0abd 42cb 583d
000000d0: 8205 1c3c 8ad5 1c3d d484 9e3c acb9 0cbd
000000e0: 5d8f 90ba 9aea bebd e8db b2bc f9d6 aebd
000000f0: 6e64 4cbd 3d89 f4bd 856f dabc 48d8 edbc
00000100: d779 943d 761b 04be 27ce b43d a61d cfbd
00000110: edae 503d 16ea 953d a9b2 acbd d62a 5d3d
00000120: b115 b83d 7ecd a53d 79ef 07be 481b 87bd
00000130: d0e7 cfbd 9a14 e5bc 689b 5a3d 890d 153b
00000140: 3f5e ce3d 9bd2 e93d 4d9b b2bd 92f9 833d
00000150: 6258 633d aad6 aabd 945f e1bc 43ae 3c3c
00000160: 486f 40bd 3468 713d aca9 f1bc 2b35 cf3d
00000170: 79f0 cc3d 511d 6abd cec4 203d b8b5 04be
00000180: a836 ccbc 0a38 773d 37e9 38bd 2a9d 9cbc
00000190: 7c26 e5bd abe0 18bd 6327 c6bd 82a9 5abb
000001a0: 814f cdbd 8eb3 e9bd 8108 babd 7cae 3dbc
000001b0: cbcf 833d eb96 cbbc 777b 053d 3aec fabd
000001c0: e3bb babd ba44 99bd b934 293d 0102 f8bd
000001d0: 18bf 543d cd16 94bd aa4c 9bba 6c72 f03d
000001e0: 83f6 8dbd 0a99 a03d 84a4 bebd 47fc c03d
000001f0: 2a00 d3bd 38ee 1d3d d0e9 4b3d c7b0 023c
00000200: 486c eabd 0c3c 003d 3c3f 253d 7549 d43c
00000210: c173 9a3d 2cb4 4c3d c596 093e 0326 143d
00000220: 940d 7c3c b206 8c3d 2949 9abd 85da 843d
00000230: f9db ed3d b86f 1fbd 4ac5 493c f659 f03d
00000240: a5ed 0c3e 0726 ccbd 17c8 f33d 7d58 bcbc
00000250: 3ec0 aabd 5bf4 bbbd e0bd 103d 7422 57bd
00000260: 9299 af3d 916b 8c3c 1a7a fcbd 10a5 6cbc
00000270: d7ab 50bd c918 8cbd a9e0 f23b 5751 183d
00000280: 9538 4b3d a1fb 75bd 1ffe 7f3c 4fb3 6fbd
00000290: 790c 7f3d c413 dfbc e8f9 4dbc 4433 71bd
000002a0: 440f a03d 28da fcba 4027 fc3c 87ea e5bc
000002b0: d595 a3bc 1fd8 4c3d fc37 b7b9 2686 d93c
000002c0: 34ee 15bd e089 143d 16f2 143d caef 93bd
000002d0: 5bd8 babd 1472 90bd 6d76 e9bd 7321 a13d
000002e0: 19c2 b63d 4653 dabd c628 d3bd 6197 16bd
000002f0: 65a7 8abd 60bd a9bd 0b6c c6bc 6e0b 673d
00000300: e2f8 833c 0a67 b4bd 1b38 e7bd 5653 0b3c
00000310: e68c 903d 4002 9ebc 1cc8 983d 13ee dabd
00000320: 8866 a33d e2a3 13bb 9ab6 dabd aab3 84bd
00000330: ee08 9a3d 8f05 6fbd 2dfa b43d 7a16 18be
00000340: 5af0 adbd 9ac8 a2bd aaa4 edbd 9711 c83d
00000350: 700b 21bc f793 d13d 3629 d9bd f9f9 973c
00000360: 25fb b9bd 4490 9abd 912d 2d3d 30b8 fd3c
00000370: 5491 a1bc f823 44bc 8a43 05be 152b e7bd
00000380: d9fc 183d df1a 673d f6b4 dabc 10da 983b
00000390: 9d89 323d 48e9 6b3c f1cb 73bc 3d15 2c3d
000003a0: 756f 743d 430a f1bc bc81 d53d f7f3 c8bb
000003b0: e006 ed3c 6273 c8bc eba2 dfbd 9ffb bb3d
000003c0: 9312 e43d eeb4 2cbb 8366 c7bc f8e1 42bd
000003d0: fdb6 94bd f4f7 683c 9f15 bbbc a9bc 8d3d
000003e0: 7fdf 57bd 3579 e5bc 527b c73c 66c8 e9bc
000003f0: 3012 c0bd 61e5 ed3d 27de 9e3d 3911 e3bd

lstm.weight_ih_l1 f4 [256, 64]
-0.0767236 -0.04322338 0.015185382 -0.07287786 -0.08048731 0.095289186 -0.11460468 -0.039563917
0.013200065 -0.08109272 -0.02810771 -0.065418765 -0.0025237636 0.068063125 -0.14594729 0.09997307
0.11838052 -0.012483794 -0.091516264 0.012612703 -0.061277356 0.04510139 0.07967171 0.14048135
-0.020092234 -0.10108089 0.047217965 -0.035818666 -0.015978275 -0.07883184 0.05486086 -0.052562058
-0.033219427 -0.072707176 -0.072540656 -0.07562159 -0.09667065 0.072419606 -0.09332053 0.023209333
-0.04780995 -0.00044588168 -0.008016313 -0.0046964246 -0.024202403 -0.09605166 0.041449253 -0.11714846
-0.033436522 0.08108783 0.045036204 0.13454 -0.12840252 0.03993982 -0.04793686 -0.05537147
0.08076041 0.11777219 -0.020199632 0.113546066 0.005599226 0.13277581 -0.0021197633 -0.05108411
0.017925145 0.0063397363 0.002878282 0.09506089 -0.01076614 0.13120906 0.020204406 -0.01736679
0.038536727 -0.03973595 0.0818815 -0.08878485 0.009562563 -0.11117603 -0.0598252 0.07518677
-0.13524705 0.06777829 0.09606754 0.07733115 -0.100207545 -0.13702767 0.11273863 0.022688206
0.036219113 0.1113312 -0.01416505 -0.12337843 0.022353858 0.11538067 -0.048212644 -0.0957993
0.043251473 0.02565469 0.02262427 -0.09562866 -0.071607016 0.07764499 0.06838757 0.030594744
0.08243594 0.011606791 0.019342085 -0.049308743 0.115914114 -0.0023614825 0.12227095 -0.017547097
-0.07180386 0.037914053 0.10428934 0.08748314 -0.04833928 0.10480355 -0.037785944 -0.072305016
-0.07934164 -0.027432755 0.00059214456 -0.042931605 0.054632563 -0.024283646 -0.0044229473 0.072532885
-0.026658548 0.090240076 -0.07468857 -0.13150991 -0.0077772806 -0.022383371 0.10508706 0.037331503
0.08058699 -0.105033055 0.09696807 -0.06531767 0.056192745 -0.046632342 -0.00569508 -0.083690114
-0.06630256 -0.008621193 0.010379384 0.055343274 -0.00924806 0.008573842 -0.0524753 0.06695368
0.101733424 0.0005292702 -0.0066065714 -0.12676708 -0.12182062 -0.071854346 -0.08108808 -0.12998047
0.10087019 0.099558465 -0.043060772 0.019891618 0.06895695 0.0655502 0.03681121 -0.011037402
-0.056859866 -0.06771434 0.101730295 -0.095059395 -0.036116064 0.11004919 0.044297047 0.07373494
-0.02223998 -0.07333478 0.11150343 0.038534038 0.12694505 -0.019953394 0.029550472 0.061651703
0.065481395 -0.124748446 0.016346736 -0.121303596 -0.06981085 -0.10694079 0.024295231 -0.081804164
0.12897854 0.1115771 0.0596964 0.059220407 0.087669715 0.005438223 -0.027674582 -0.07805576
-0.099339604 -0.040923383 -0.1135243 0.11366018 0.089179456 0.07595764 0.10382404 -0.063698746
-0.13011168 -0.07130528 -0.06739919 -0.06413486 0.09457681 -0.08601324 0.022709696 0.06306805
-0.057797637 0.09177366 -0.014901987 -0.030846862 -0.039790187 0.07385058 0.033969965 -0.10554328
0.076029144 -0.034385554 -0.07974836 -0.07207004 -0.11163195 -0.14331621 0.06769987 -0.12640052
-0.013873838 -0.06363592 -0.09917713 0.10413005 -0.057802975 -0.0739824 -0.11451051 -0.08353433
0.004294264 -0.072224945 -0.0472502 -0.12724146 0.11741678 0.051272765 0.08353336 -0.077418484
0.08775758 0.024050128 -0.040902056 -0.07139718 0.10186971 -0.0815782 -0.096488304 -0.07057935
00000000: 4321 9dbd 000b 31bd 1ccc 783c fd40 95bd
00000010: 88d6 a4bd fa26 c33d dcb5 eabd c60d 22bd
00000020: 1645 583c f113 a6bd 2442 e6bc 46fa 85bd
00000030: ba65 25bb ae64 8b3d 3573 15be aebe cc3d
00000040: 7c71 f23d d488 4cbc e16c bbbd 83a5 4e3c
00000050: f7fd 7abd 3cbc 383d ec2a a33d 58da 0f3e
00000060: 7898 a4bc 7f03 cfbd a067 413d 98b6 12bd
00000070: dfe4 82bc 9672 a1bd c8b5 603d 504b 57bd
00000080: 1811 08bd 80e7 94bd 3290 94bd 7edf 9abd
00000090: 43fb c5bd bb50 943d d61e bfbd 8021 be3c
000000a0: 5ed4 43bd 3ac5 e9b9 db56 03bc 77e4 99bb
000000b0: 1e44 c6bc bcb6 c4bd b1c6 293d 88eb efbd
000000c0: bcf4 08bd 6011 a63d e277 383d dbc4 093e
000000d0: f37b 03be f097 233d 7159 44bd 32cd 62bd
000000e0: b765 a53d 8c32 f13d b379 a5bc d78a e83d
000000f0: b679 b73b 62f6 073e baeb 0abb 923d 51bd
00000100: c1d7 923c 90bd cf3b 8fa1 3c3b 49af c23d
00000110: 7764 30bc ab5b 063e b683 a53c cc44 8ebc
00000120: b0d8 1d3d 2ac2 22bd 7db1 a73d d5d4 b5bd
00000130: 4cac 1c3c 42b0 e3bd 450b 75bd 85fb 993d
00000140: 347e 0abe 58cf 8a3d 0fbf c43d cb5f 9e3d
00000150: 9d39 cdbd fb50 0cbe 83e3 e63d 9edc b93c
00000160: 7e5a 143d 9d01 e43d 8714 68bc d5ad fcbd
00000170: 701f b73c b34c ec3d 9f7a 45bd 6c32 c4bd
00000180: 7528 313d c929 d23c 8856 b93c f5d8 c3bd
00000190: b3a6 92bd 5604 9f3d c80e 8c3d d4a1 fa3c
000001a0: 2dd4 a83d 692a 3e3c 4b73 9e3c f7f7 49bd
000001b0: 6164 ed3d 1ac3 1abb 3169 fa3d eebe 8fbc
000001c0: e70d 93bd c44b 1b3d a695 d53d 5c2a b33d
000001d0: 69ff 45bd 3ea3 d63d 6fc5 1abd a714 94bd
000001e0: df7d a2bd a8ba e0bc 263a 1b3a 0dd9 2fbd
000001f0: 65c6 5f3d 7fee c6bc 5fee 90bb 1f8c 943d
00000200: 0763 dabc cacf b83d 52f6 98bd 89aa 06be
00000210: 8fd8 febb 555d b7bc e237 d73d ebe8 183d
00000220: cb0a a53d 921b d7bd 3297 c63d 45c5 85bd
00000230: 5d2a 663d 8e01 3fbd cb9d babb b965 abbd
00000240: a3c9 87bd e73f 0dbc 4b0e 2a3c a1af 623d
00000250: 2d85 17bc 4d79 0c3c 57f0 56bd 031f 893d
00000260: 9d59 d03d b9be 0a3a f07b d8bb 3bcf 01be
00000270: 177d f9bd 5f28 93bd 8211 a6bd 9a19 05be
00000280: 0895 ce3d 4fe5 cb3d 7e60 30bd bff3 a23c
00000290: 4d39 8d3d 2f3f 863d 5ac7 163d 38d6 34bc
000002a0: e4e5 68bd d1ad 8abd f957 d03d 80ae c2bd
000002b0: 70ee 13bd 7861 e13d d270 353d 5802 973d
000002c0: 9e30 b6bc 8c30 96bd e95b e43d ded5 1d3d
000002d0: e2fd 013e 4d75 a3bc d513 f23c 7f86 7c3d
000002e0: 1c1b 863d 1d7c ffbd 97e9 853c 056e f8bd
000002f0: fef8 8ebd c603 dbbd cb06 c73c f188 a7bd
00000300: f312 043e 8982 e43d 3684 743d 1991 723d
00000310: 2e8c b33d 1f33 b23b ceb5 e2bc b3db 9fbd
00000320: 9072 cbbd 479f 27bd 6e7f e8bd abc6 e83d
00000330: b8a3 b63d ae8f 9b3d b3a1 d43d 7d74 82bd
00000340: ff3b 05be 8108 92bd 9608 8abd 2359 83bd
00000350: 7db1 c13d b627 b0bd af09 ba3c d229 813d
00000360: 37bd 6cbd d4f3 bb3d 7727 74bc 8fb2 fcbc
00000370: 09fb 22bd f93e 973d 1724 0b3d 1327 d8bd
00000380: 2bb5 9b3d ded7 0cbd 1c53 a3bd 7599 93bd
00000390: 4b9f e4bd 7cc1 12be 3ba6 8a3d 236f 01be
000003a0: 184f 63bc 8d53 82bd 611d cbbd 2342 d53d
000003b0: d0c2 6cbd 1684 97bd 7c84 eabd 0c14 abbd
000003c0: e6b6 8c3b acea 93bd 6d89 41bd 964b 02be
000003d0: 3578 f03d 6403 523d 8a13 ab3d 958d 9ebd
000003e0: 3fba b33d c604 c53c ea88 27bd af38 92bd
000003f0: 11a1 d03d 7912 a7bd a99b c5bd e88b 90bd

lstm.weight_hh_l1 f4 [256, 64]
-0.039009247 -0.13648497 -0.020206032 0.06248779 -0.1461715 0.08589745 0.022874659 0.11470205
0.048240416 -0.007635173 0.05176201 -0.15205489 -0.07430247 0.1150169 -0.083764784 0.0916742
-0.12530829 0.06489223 -0.032680724 0.027714727 0.08321545 0.12455991 0.025419608 0.11238798
0.0079574585 -0.06755749 -0.098589584 0.070374615 0.11564506 0.034280628 0.050503477 -0.008877804
0.09120645 -0.09876381 -0.110324204 -0.073278874 0.031198282 -0.02619776 0.025739789 -0.018448936
0.047048636 0.13086885 0.08806295 -0.11688319 0.028068086 -0.075096324 -0.10211835 -0.13785377
-0.026751058 -0.0819617 0.0435117 0.13319963 -0.05316008 0.11557195 -0.023579378 -0.032208644
-0.10892437 -0.055319525 0.028151188 0.14974625 0.013439683 -0.05147227 0.047394454 -0.10307223
0.16370155 0.022840891 -0.08726439 -0.10412186 0.014179677 0.022819655 0.04680535 0.104164585
-0.046035778 -0.106027 -0.08161097 -0.0006209671 -0.040386308 -0.11046521 0.12609197 -0.033948
0.05388893 0.115622275 0.09220749 0.045809194 0.008803376 0.014125753 -0.083438605 -0.103585884
0.08916041 0.062869094 0.002082707 0.049133882 0.124737516 -0.041370135 0.15222563 -0.064008206
-0.035057414 -0.12055634 -0.1022204 0.022107482 -0.07678521 0.07474067 -0.10314071 0.06322184
-0.06350612 -0.08041319 0.115179494 -0.05726046 -0.06091894 -0.08005674 -0.036362834 -0.098336644
-0.03824459 0.023203662 0.09106712 -0.118384026 0.012502098 0.059658915 -0.099861175 0.105123535
-0.006501567 -0.0150265535 0.002446463 -0.045314908 -0.03831151 -0.042867057 -0.11280578 0.0807864
-0.03489429 -0.07547067 -0.009361817 -0.10689933 0.09167469 -0.009300595 0.13162579 0.08769963
0.03479277 0.08710191 -0.002745659 0.0063222414 -0.059553232 -0.10932538 0.095468886 -0.004356159
0.046651322 -0.07138115 -0.11263061 -0.021126721 0.092607416 -0.12838823 0.07940141 0.035411663
0.12170405 0.10136802 -0.029313171 -0.0023544503 0.08357639 0.0304743 0.1218603 0.081356145
0.057034694 -0.11768936 -0.042544257 -0.080772325 -0.04849355 -0.11484631 -0.16156672 0.12614956
-0.0009714171 -0.02716468 0.061938595 -0.058824748 0.061764333 -0.031441208 0.046409845 -0.039323892
-0.07364714 0.018897675 0.0021675006 0.10297905 0.10762934 0.0020208245 -0.031770013 0.0021107062
-0.111004256 -0.030068828 -0.07800389 0.11475597 0.09936719 -0.09846918 0.006858504 0.004222376
0.06650007 -0.12882707 -0.10366606 -0.10057656 0.052666284 0.10109406 0.06798973 0.030511165
0.00073902035 -0.092133194 0.04012046 0.025129635 0.078953914 -0.092116915 0.1436693 -0.05156499
0.020210471 0.10866479 -0.115487784 -0.11863431 0.018894603 -0.12114933 -0.12639284 0.124638796
-0.09817142 -0.0009009432 0.10489959 0.07034276 0.014691419 -0.08641622 -0.028814824 0.07244538
0.013664819 -0.081330605 0.0829777 -0.020786835 -0.016671082 0.10665073 -0.079205655 0.03867232
0.11994009 -0.10588662 0.037135735 -0.12149197 -0.07375538 -0.08815603 0.11551422 0.058460668
-0.0936071 0.04599058 0.01928498 0.074233025 -0.08152837 0.1298884 -0.05433113 0.07437608
-0.12895554 0.08099734 0.01950903 0.029630197 0.07039538 0.06406322 0.10423958 0.020940384
00000000: 29c8 1fbd b7c2 0bbe 1f87 a5bc 32f3 7f3d
00000010: fbad 15be 01eb af3d a363 bb3c e9e8 ea3d
00000020: be97 453d 7930 fabb 6704 543d 47b4 1bbe
00000030: e52b 98bd fb8d eb3d df8c abbd afbf bb3d
00000040: d150 00be 38e6 843d 39dc 05bd ff09 e33c
00000050: dd6c aa3d 4419 ff3d c83c d03c ab2b e63d
00000060: 0060 023c 955b 8abd 56e9 c9bd 9120 903d
00000070: 51d7 ec3d d869 0c3d bcdc 4e3d 3574 11bc
00000080: 72ca ba3d ae44 cabd a8f1 e1bd 3c13 96bd
00000090: 8a93 ff3c af9c d6bc 40dc d23c 3922 97bc
000000a0: 12b6 403d 7c02 063e 595a b43d 7460 efbd
000000b0: 0bef e53c 1acc 99bd 6d23 d1bd 8a29 0dbe
000000c0: 0925 dbbc 89db a7bd 5339 323d 7c65 083e
000000d0: 62be 59bd fdb0 ec3d 8a29 c1bc 36ed 03bd
000000e0: bd13 dfbd ba96 62bd 529d e63c 1557 193e
000000f0: 1e32 5c3c 96d4 52bd b020 423d 8917 d3bd
00000100: 61a1 273e d21c bb3c acb7 b2bd d73d d5bd
00000110: e051 683c 49f0 ba3c f7b6 3f3d 3e54 d53d
00000120: 0390 3cbd af24 d9bd a723 a7bd 66c8 22ba
00000130: 1d6c 25bd 963b e2bd 411e 013e 0f0d 0bbd
00000140: a3ba 5c3d 5fcb ec3d 48d7 bc3d 6ca2 3b3d
00000150: 093c 103c b46f 673c dce1 aabd d624 d4bd
00000160: bc99 b63d 83c1 803d 067e 083b 9c40 493d
00000170: 6276 ff3d bb73 29bd 09e1 1b3e bc16 83bd
00000180: 5d98 0fbd 3ee6 f6bd ee58 d1bd c01a b53c
00000190: 9041 9dbd a311 993d 703b d3bd 747a 813d
000001a0: 7f0f 82bd acaf a4bd 3ae3 eb3d f289 6abd
000001b0: 2386 79bd caf4 a3bd 32f1 14bd b964 c9bd
000001c0: 5ca6 1cbd 9b15 be3c 6681 ba3d 5373 f2bd
000001d0: 9ad5 4c3c e85c 743d 0484 ccbd 024b d73d
000001e0: 190b d5bb ef31 76bc d754 203b 209c 39bd
000001f0: 88ec 1cbd 5e95 2fbd b706 e7bd 5773 a53d
00000200: 51ed 0ebd 5e90 9abd 4e62 19bc 09ee dabd
00000210: f1bf bb3d 8661 18bc e9c8 063e dd9b b33d
00000220: dd82 0e3d 7c62 b23d 84f0 33bb ce2a cf3b
00000230: 17ee 73bd fce5 dfbd 3185 c33d 1cbe 8ebb
00000240: 7515 3f3d 4830 92bd e1aa e6bd f211 adbc
00000250: f5a8 bd3d 3478 03be 359d a23d d20b 113d
00000260: f93f f93d 099a cf3d 2d22 f0bc 1f4d 1abb
00000270: 192a ab3d 3da5 f93c e591 f93d 0d9e a63d
00000280: 369d 693d 1f07 f1bd e342 2ebd f66b a5bd
00000290: 2ca1 46bd 8b34 ebbd bf71 25be 5a2d 013e
000002a0: b3a6 7eba 7788 debc 53b3 7d3d 38f2 70bd
000002b0: 99fc 7c3d 7fc8 00bd 4018 3e3d 1712 21bd
000002c0: 50d4 96bd 4ccf 9a3c a00c 0e3b aee6 d23d
000002d0: c56c dc3d cf6f 043b 4621 02bd c653 0a3b
000002e0: 3356 e3bd e752 f6bc 81c0 9fbd 2e05 eb3d
000002f0: 0681 cb3d 36aa c9bd 4dbd e03b db5b 8a3b
00000300: 3031 883d 3eeb 03be df4e d4bd 15fb cdbd
00000310: 9ab8 573d 670a cf3d 333e 8b3d 8df2 f93c
00000320: d1ba 413a 54b0 bcbd 5a55 243d aadc cd3c
00000330: 97b2 a13d cba7 bcbd 0c1e 133e d035 53bd
00000340: 6e90 a53c a58b de3d dc84 ecbd 8cf6 f2bd
00000350: dbc8 9a3c 241d f8bd 206d 01be a042 ff3d
00000360: 190e c9bd 462d 6cba 99d5 d63d dd0f 903d
00000370: 47b4 703c fdfa b0bd 110d ecbc 3e5e 943d
00000380: 68e2 5f3c a990 a6bd 36f0 a93d 2749 aabc
00000390: cb91 88bc b36b da3d 9336 a2bd de66 1e3d
000003a0: 26a3 f53d 16db d8bd a41b 183d c8d0 f8bd
000003b0: 100d 97bd 268b b4bd b892 ec3d 7474 6f3d
000003c0: 14b5 bfbd 9e60 3c3d 89fb 9d3c 7c07 983d
000003d0: 59f8 a6bd 7701 053e 528a 5ebd 7c52 983d
000003e0: ec0c 04be efe1 a53d 67d1 9f3c 07bb f23c
000003f0: 742b 903d 9433 833d 907b d53d 2b8b ab3c

lstm.bias_ih_l1 f4 [256]
-0.060844336 0.058653235 0.09520077 0.026733965 0.032201234 -0.01774752 -0.030831486 0.09422663
-0.024964195 -0.023581972 -0.03169878 -0.057986524 0.051680703 0.06949523 0.04081617 0.052106813
-0.06275544 0.083032556 0.017354326 -0.11070626 0.07708753 0.09985783 0.07513105 -0.0956001
-0.043022968 -0.113441005 -0.12232259 0.050092332 0.05850087 -0.120758474 -0.081551254 -0.08957262
-0.053432744 0.032730523 0.12390197 -0.09178856 0.07867683 -0.072836116 0.07748539 -0.13641474
-0.020543275 -0.08773891 0.09537256 0.018002441 0.083727516 0.07428122 0.12580226 0.06818297
-0.0072439886 -0.07765712 0.11470619 0.07037973 0.048857175 -0.009760922 0.11643395 0.002492851
0.06187494 0.133663 -0.034921795 -0.07900354 -0.05640674 0.01700678 0.00028839352 0.02818305
-0.04903403 -0.04210544 -0.021948105 0.030354569 0.032750685 -0.111469746 0.021033656 -0.05367722
-0.006667158 0.03961887 -0.030230768 0.006382806 -0.11745953 -0.03331005 -0.07013591 -0.081374384
0.058949254 -0.025366988 0.045036428 -0.08602103 -0.08529671 -0.046004966 -0.048878435 0.04858749
-0.13045295 -0.03885284 -0.024166323 -0.07423717 0.022753097 -0.119385816 -0.02086191 -0.12764832
-0.07725337 -0.10378202 0.14098664 -0.04274198 -0.0630843 -0.09876976 -0.12727554 0.05034646
0.053723775 0.09277024 -0.0390497 0.10898701 -0.10562939 0.04379927 -0.042402796 -0.05855079
-0.0123086525 0.06707418 -0.043793365 -0.057973437 0.03822802 0.030612364 0.041034117 -0.13725579
-0.06679487 0.13958299 0.13756126 0.11491806 0.060772784 -0.0432545 -0.10414242 0.08396322
-0.05201788 0.0663548 -0.09814714 0.084294446 0.12615168 0.034451097 -0.004401393 0.0822974
0.07263595 -0.059564516 0.061259355 0.026347227 0.08258602 0.024903925 0.0059125675 0.021273626
0.09864132 0.03583413 -0.026118519 -0.0013877585 -0.12107669 -0.104299076 -0.06860311 -0.0931189
-0.062971726 0.09665541 -0.10806312 -0.04166092 -0.08423387 0.12005391 0.007986653 0.005542219
-0.09654013 -0.021626852 -0.014137436 0.08995929 -0.070473306 -0.0648921 0.04648886 -0.07068523
-0.1049975 0.07705218 -0.12520523 0.1102191 -0.09347925 -0.011084815 0.10986788 -0.046016347
-0.08888072 0.039674524 -0.118145905 -0.13367154 -0.030662645 0.042188406 0.03515438 0.03421556
0.03242186 -0.13169509 -0.05600564 -0.028040769 -0.00047690244 -0.010904485 0.086901695 -0.009790418
0.023513792 -0.032542046 0.04312765 -0.06817242 0.042231247 0.09469107 -0.060205523 0.030165331
-0.09583919 -0.06773419 0.054188043 0.13118787 0.05467729 -0.10617024 0.082455985 -0.075614735
-0.033474084 -0.004113754 0.04293069 -0.041458756 0.014911097 -0.12371941 -0.0745116 0.036900043
-0.050449472 -0.0582896 0.037837338 0.021876544 -0.10860559 -0.010955847 -0.1342994 -0.09695169
0.1115087 -0.026119307 -0.073984765 0.109095514 -0.05867715 0.0493739 -0.11300933 0.03406926
0.044208203 0.003643023 -0.005618693 -0.08108877 -0.1417551 -0.09650611 0.09956482 -0.06945325
-0.04983049 0.045868564 -0.11887187 0.08892132 -0.017957589 0.01680444 -0.09055276 -0.044163663
-0.061331596 0.097902544 0.0077587524 -0.053146053 -0.13036644 -0.07308892 0.091079734 -0.119372234
00000000: e937 79bd 603e 703d 9ff8 c23d 3001 db3c
00000010: 71e5 033d 3f63 91bc 5092 fcbc e4f9 c03d
00000020: b681 ccbc fb2e c1bc 94d6 01bd 4783 6dbd
00000030: 25af 533d 8453 8e3d db2e 273d f46d 553d
00000040: ed85 80bd f90c aa3d a92a 8e3c f7b9 e2bd
00000050: 11e0 9d3d 4382 cc3d 4fde 993d fcc9 c3bd
00000060: da38 30bd c253 e8bd 4484 fabd 9e2d 4d3d
00000070: 9c9e 6f3d 3850 f7bd 5804 a7bd da71 b7bd
00000080: 4bdc 5abd 7110 063d 51c0 fd3d a4fb bbbd
00000090: 5121 a13d 1a2b 95bd a9b0 9e3d 4eb0 0bbe
000000a0: 5f4a a8bc 75b0 b3bd b052 c33d db79 933c
000000b0: 5579 ab3d c120 983d 4fd2 003e 83a3 8b3d
000000c0: fb5e edbb b20a 9fbd 14eb ea3d 3f23 903d
000000d0: 761e 483d 46ec 1fbc ec74 ee3d 1a5f 233b
000000e0: 9470 7d3d f4de 083e 280a 0fbd 9ccc a1bd
000000f0: c10a 67bd cd51 8b3c 8633 9739 24e0 e63c
00000100: e8d7 48bd c176 2cbd 83cc b3bc 25aa f83c
00000110: 9525 063d 404a e4bd c64e ac3c a5dc 5bbd
00000120: 2d78 dabb 6547 223d 84a6 f7bc dc26 d13b
00000130: 9f8e f0bd 1e70 08bd 6aa3 8fbd 9da7 a6bd
00000140: c674 713d 6ece cfbc 1e78 383d cb2b b0bd
00000150: 0bb0 aebd b46f 3cbd c134 48bd ad03 473d
00000160: 7595 05be 2824 1fbd 74f8 c5bc a809 98bd
00000170: b464 ba3c 8d80 f4bd 99e6 aabc 3eb6 02be
00000180: 0437 9ebd ab8b d4bd cd5e 103e 3712 2fbd
00000190: 5732 81bd cd47 cabd 8554 02be 1738 4e3d
000001a0: 760d 5c3d 53fe bd3d 94f2 1fbd 9534 df3d
000001b0: 3954 d8bd dd66 333d 8eae 2dbd f4d2 6fbd
000001c0: 3baa 49bc 305e 893d ac60 33bd 8e75 6dbd
000001d0: fc94 1c3d c8c6 fa3c 6413 283d c88c 0cbe
000001e0: c0cb 88bd d8ee 0e3e dcdc 0c3e 295a eb3d
000001f0: e2ec 783d a12b 31bd 9f48 d5bd e9f4 ab3d
00000200: b310 55bd 06e5 873d 5e01 c9bd 91a2 ac3d
00000210: e82d 013e 981c 0d3d 8f39 90bb 8a8b a83d
00000220: 28c2 943d ecf9 73bd 17eb 7a3d 24d6 d73c
00000230: dc22 a93d 5103 cc3c 36be c13b 0746 ae3c
00000240: 7604 ca3d cfc6 123d 81f6 d5bc 73e5 b5ba
00000250: 0ef7 f7bd c19a d5bd ca7f 8cbd 1fb5 bebd
00000260: 52f7 80bd 46f3 c53d 3250 ddbd a4a4 2abd
00000270: cf82 acbd d3de f53d 73da 023c 819b b53b
00000280: d5b6 c5bd cc2a b1bc b4a0 67bc 943c b83d
00000290: 4f54 90bd 26e6 84bd 1a6b 3e3d 6bc3 90bd
000002a0: ee08 d7bd 89cd 9d3d cd35 00be 8dba e13d
000002b0: 0d72 bfbd 159d 35bc 6902 e13d a37b 3cbd
000002c0: 1807 b6bd c181 223d 7bf6 f1bd 31e1 08be
000002d0: 3a30 fbbc c0cd 2c3d 0afe 0f3d 9d25 0c3d
000002e0: c9cc 043d 14db 06be 2c66 65bd c1b5 e5bc
000002f0: c308 fab9 baa8 32bc 84f9 b13d fd67 20bc
00000300: ff9f c03c cf4a 05bd 9ea6 303d fb9d 8bbd
00000310: acfa 2c3d 64ed c13d 119a 76bd 491d f73c
00000320: 5647 c4bd 39b8 8abd 48f4 5d3d 1d56 063e
00000330: 4bf5 5f3d c86f d9bd afde a83d e6db 9abd
00000340: 1f1c 09bd abcc 86bb 17d8 2f3d a8d0 29bd
00000350: ac4d 743c 9a60 fdbd 8a99 98bd 8024 173d
00000360: 1ba4 4ebd 13c1 6ebd 53fb 1a3d 7036 b33c
00000370: 9c6c debd 2780 33bc c885 09be 9c8e c6bd
00000380: ac5e e43d 28f8 d5bc 5385 97bd 786d df3d
00000390: 7457 70bd 493c 4a3d 7071 e7bd 358c 0b3d
000003a0: a913 353d c9bf 6e3b 031d b8bb de11 a6bd
000003b0: 4028 11be ffa4 c5bd a4e8 cb3d 813d 8ebd
000003c0: 0e1b 4cbd ade0 3b3d 1873 f3bd 621c b63d
000003d0: cb1b 93bc 77a9 893c ba73 b9bd f5e4 34bd
000003e0: d736 7bbd 2181 c83d 223d fe3b adaf 59bd
000003f0: c87e 05be a5af 95bd 0388 ba3d 6e79 f4bd
