best_model.pt (torch, 214194 bytes, 9 tensors)

lstm.weight_ih_l0 f4 [256, 11]
0.07186675 0.07947321 -0.052451268 0.09088373 -0.037283484 0.0010006678 -0.085680306 0.04880597
0.08555293 -0.1635084 0.08927427 0.019681115 0.088330865 0.0130050415 0.05607273 -0.016320176
0.0926735 0.014652757 -0.06213248 0.027915576 -0.066831 -0.03047716 -0.10740402 0.024196122
-0.15321968 -0.11499834 -0.04292721 -0.13401859 -0.049980994 -0.18409489 0.051871467 -0.26243895
0.02690051 -0.016526448 -0.079124995 0.040834066 -0.018508393 0.08893452 -0.024719972 -0.07986665
-0.0059226234 -0.07404095 -0.011645245 0.079804815 0.116779305 -0.010127523 0.11703486 0.067082465
0.11215835 -0.032191686 -0.08183838 -0.005273877 -0.053870026 0.27526376 0.10894957 0.04971578
0.03723613 -0.0040379707 0.09561149 -0.082878396 0.0054473854 -0.08899857 0.035493616 -0.04671593
0.07064576 -0.042229395 0.0773546 -0.10171923 -0.10063924 -0.102139615 0.10850055 0.014746067
0.09210065 -0.13081515 -0.15225223 -0.15305802 -0.11706753 0.01469299 0.007380938 0.068287306
-0.101782955 -0.0990599 0.029781323 -0.08806585 0.038705856 -0.06717224 -0.0014555273 -0.12922724
-0.007210274 0.09570953 0.08172297 0.025344117 0.124647625 0.14139275 -0.030207895 -0.008565102
0.17447567 -0.06220114 -0.055807315 -0.15697448 -0.1094677 -0.0036580663 -0.053716604 -0.08911416
-0.034539986 -0.12547053 -0.14500186 -0.10861327 -0.18410626 -0.098461755 0.12974663 0.028080314
0.04327606 -0.112194754 -0.0731027 -0.036953036 0.023449712 -0.10569008 -0.050000798 -0.04804269
0.02409773 -0.08511748 -0.04883704 -0.12220152 -0.12531893 -0.07902877 -0.0827835 -0.14165138
0.06320705 -0.06748487 0.047677487 0.007898663 -0.15189077 0.038656797 -0.07880884 -0.09474551
-0.11061652 -0.1721748 -0.01574598 -0.07716226 -0.0022886065 -0.18573546 0.040105492 -0.120702915
-0.051846564 -0.002468862 0.03444441 0.09208901 0.08434661 -0.1294892 0.0013935457 -0.08407916
-0.08407827 -0.13364041 0.0927037 -0.11356375 0.046298925 0.02251082 0.036057293 -0.089394525
0.09088271 0.005107974 -0.0064717676 -0.17378592 0.027909836 -0.03409401 -0.07341719 0.09261509
0.012096749 -0.06693365 -0.07928471 -0.023167424 0.05310913 -0.048976243 -0.15758625 -0.011484161
-0.10652599 0.031199226 0.083734296 -0.13102287 0.02120151 0.05123701 0.008720542 -0.058169063
0.051355023 0.04956938 0.024474692 -0.08887054 -0.101695545 -0.05238465 -0.08996359 -0.07093827
0.011583836 0.03653497 -0.08212398 -0.09846607 -0.10741119 -0.054242462 -0.00051330804 0.003103686
-0.14359443 -0.077803396 0.09854545 0.017358085 -0.039085023 -0.107576214 -0.10921069 -0.18243323
-0.07447006 0.04025094 0.07744678 0.05544414 -0.11300411 -0.07176588 -0.021501498 0.120019905
0.016665122 -0.03344363 -0.002680145 -0.09545288 -0.04806009 0.12393234 -0.024007522 0.0076453374
-0.08959293 0.11660602 0.1285559 0.07889716 -0.053332116 -0.17316334 -0.0951306 0.051469434
0.016893128 0.06434155 0.022877377 0.021068824 -0.0441952 -0.14068696 -0.15150757 -0.16237308
-0.018910555 -0.06764759 -0.030780999 -0.078085154 -0.028238455 -0.09406374 -0.07539169 0.03559774
-0.042871214 0.07127449 -0.04589656 -0.15603727 -0.030324908 -0.068518095 -0.046737485 -0.12687005
00000000: e02e 933d dac2 a23d 24d7 56bd 4021 ba3d
00000010: 91b6 18bd d728 833a 2879 afbd c5e8 473d
00000020: 6036 af3d bf6e 27be 6ed5 b63d 4a3a a13c
00000030: d0e6 b43d 1913 553c 85ac 653d e4b1 85bc
00000040: 9bcb bd3d 1e12 703c a17e 7ebd 35af e43c
00000050: b1de 88bd 3dab f9bc a4f6 dbbd f236 c63c
00000060: 9fe5 1cbe 4084 ebbd 71d4 2fbd 2b3c 09be
00000070: dfb8 4cbd 5f83 3cbe 2d77 543d 665e 86be
00000080: 755e dc3c 7962 87bc 490c a2bd 9f41 273d
00000090: ea9e 97bc 4d23 b63d 8a81 cabc 2091 a3bd
000000a0: 9112 c2bb c8a2 97bd b3cb 3ebc b570 a33d
000000b0: fd29 ef3d e9ed 25bc f9af ef3d 8862 893d
000000c0: 47b3 e53d 6edb 03bd e19a a7bd 7dd0 acbb
000000d0: d1a6 5cbd 5fef 8c3e f420 df3d c6a2 4b3d
000000e0: ea84 183d f450 84bb f5cf c33d 26bc a9bd
000000f0: fb7f b23b e244 b6bd c161 113d 3459 3fbd
00000100: b9ae 903d bbf8 2cbd 176c 9e3d 2c52 d0bd
00000110: f21b cebd 932e d1bd 8935 de3d 7d99 713c
00000120: 449f bc3d 68f4 05be 02e8 1bbe 3ebb 1cbe
00000130: 1ac1 efbd deba 703c ccdb f13b 37da 8b3d
00000140: 9573 d0bd ebdf cabd f6f7 f33c de5b b4bd
00000150: 088a 1e3d 9991 89bd 64c7 beba 2554 04be
00000160: 2a44 ecbb 5c03 c43d 5f5e a73d 779e cf3c
00000170: 4147 ff3d 43c9 103e 8c76 f7bc a454 0cbc
00000180: c0a9 323e 9fc6 7ebd 3696 64bd ebbd 20be
00000190: 9a30 e0bd 2bbc 6fbb f105 5cbd 7c81 b6bd
000001a0: cd79 0dbd 597b 00be 5e7b 14be a270 debd
000001b0: 5a86 3cbe 51a6 c9bd 4ddc 043e b008 e63c
000001c0: 3d42 313d 5dc6 e5bd deb6 95bd 115c 17bd
000001d0: 9c19 c03c 0a74 d8bd a3cd 4cbd 69c8 44bd
000001e0: 9a68 c53c 1352 aebd 5909 48bd ca44 fabd
000001f0: 9b53 00be d6d9 a1bd 658a a9bd 0f0d 11be
00000200: b372 813d 8235 8abd 7849 433d 6569 013c
00000210: 4189 1bbe 9756 1e3d 8766 a1bd ef09 c2bd
00000220: ea8a e2bd 974e 30be b7fd 80bc 3f07 9ebd
00000230: 72fc 15bb 7031 3ebe a845 243d 1733 f7bd
00000240: 105d 54bd a2cc 21bb 9515 0d3d 2a99 bc3d
00000250: eabd ac3d d198 04be a2a7 b63a b231 acbd
00000260: 3a31 acbd 08d9 08be 70db bd3d 1d94 e8bd
00000270: f1a3 3d3d 9c68 b83c d0b0 133d 7a14 b7bd
00000280: b720 ba3d cb60 a73b 1f11 d4bb f0f4 31be
00000290: 2ba3 e43c 29a6 0bbd c05b 96bd fbac bd3d
000002a0: 7131 463c 8214 89bd 0660 a2bd 9cc9 bdbc
000002b0: f688 593d 509b 48bd 4a5e 21be 1028 3cbc
000002c0: 4c2a dabd 8595 ff3c e37c ab3d dc2a 06be
000002d0: caae ad3c e6dd 513d 9be0 0e3c af42 6ebd
000002e0: a559 523d 4309 4b3d 267f c83c c201 b6bd
000002f0: c145 d0bd 4991 56bd d53e b8bd 1548 91bd
00000300: 21ca 3d3c b1a5 153d 9e30 a8bd 94a8 c9bd
00000310: 66fa dbbd 582d 5ebd 858f 06ba 3667 4b3b
00000320: 6b0a 13be 6357 9fbd 32d2 c93d 8b32 8e3c
00000330: 9e17 20bd eb50 dcbd dba9 dfbd c7cf 3abe
00000340: c283 98bd 2bde 243d 6b9c 9e3d 6519 633d
00000350: b36e e7bd fdf9 92bd e923 b0bc ffcc f53d
00000360: 4b85 883c 30fc 08bd 5fa5 2fbb cd7c c3bd
00000370: a8da 44bd 3dd0 fd3d 6cab c4bc bd85 fa3b
00000380: 807c b7bd 23cf ee3d 28a4 033e d694 a13d
00000390: c772 5abd bb51 31be d5d3 c2bd 9dd1 523d
000003a0: 7563 8a3c 81c5 833d 5669 bb3c 8798 ac3c
000003b0: 0706 35bd 3e10 10be cd24 1bbe 2145 26be
000003c0: 4fea 9abc d28a 8abd 6f28 fcbc 1ceb 9fbd
000003d0: 5554 e7bc 7da4 c0bd f566 9abd f0ce 113d
000003e0: ba99 2fbd 5cf8 913d 08fe 3bbd 3cc8 1fbe
000003f0: f16b f8bc 3753 8cbd ce6f 3fbd 39ea 01be

lstm.weight_hh_l0 f4 [256, 64]
0.08955896 -0.05808101 -0.063652545 0.09905338 0.04247091 -0.07542143 0.03742308 0.06469224
-0.11691959 0.017918184 0.010176889 -0.0020564317 0.11194768 -0.07882319 0.06870007 -0.063443474
-0.11097262 0.09342902 -0.062237427 -0.0005885246 0.0731846 -0.10400159 -0.10664852 0.042243496
0.10371091 -0.008192666 0.08585797 0.03800097 0.040757235 -0.06474516 0.11455275 0.051845588
0.02188765 0.092923984 -0.10216181 0.03692044 -0.056221873 -0.014175827 0.04044199 0.05391216
0.025617244 -0.1004584 -0.0806908 -0.0021265347 -0.016807294 -0.1028017 0.13195384 0.017395025
-0.08877872 0.06764985 0.053287033 -0.05934902 0.045454666 -0.076182336 0.0443505 0.11929542
0.07983809 0.090044394 -0.039113883 0.026757022 0.041786756 0.029251114 -0.024964118 0.016351974
-0.058118485 -0.068356335 -0.10750819 -0.10885622 -0.07109316 0.12914805 0.032179557 -0.10540473
-0.059601396 0.03621247 -0.051022705 -0.04265183 -0.041641247 -0.034863822 0.023805432 -0.0010523287
0.08734974 0.074239776 0.10850535 -0.009266387 -0.060125176 -0.008229023 -0.07524786 0.058530837
-0.015006673 -0.04655933 -0.09782748 0.06579446 0.06545009 0.1212521 -0.03751226 0.04507227
-0.0027501688 -0.08628266 -0.08870975 0.06620138 -0.07975417 0.098312534 0.034820426 0.051683217
0.08797388 0.0689321 0.0631238 0.07247799 -0.049136918 -0.07459263 -0.03215309 0.061700005
0.09604049 0.083186954 -0.04857974 -0.025642695 -0.0909196 0.06659754 -0.09331946 -0.061697204
0.09627016 0.045892626 -0.052786358 -0.09108263 -0.07502986 0.0923753 -0.102077186 0.11697815
0.100778066 0.015949951 -0.048344392 0.09677647 0.0958303 0.10834032 0.098285146 -0.075608805
0.03354344 0.05140711 -0.048564497 0.06619218 -0.09111453 -0.08099205 0.007899966 -0.008706347
-0.033414673 -0.051195875 0.06356539 0.107286565 -0.03250339 -0.07123914 0.0029085577 -0.08889419
-0.10457648 -0.022575095 0.07245613 -0.103674024 -0.04055373 -0.065539494 -0.11648169 -0.03084729
0.0012064528 -0.007974682 0.12791057 0.061034903 0.09053989 0.06635917 0.016857542 0.062433492
-0.08044186 0.05868143 0.04041601 -0.067035 0.11341328 -0.08567264 -0.057567067 0.0022697472
0.035362102 0.015235364 0.02472908 -0.08544594 -0.104559384 0.10525272 -0.10183764 0.028821595
0.07291046 0.11817947 0.005475459 -0.122072965 -0.0109123895 -0.053498622 -0.052559048 0.08629653
-0.0405826 -0.07956669 -0.11578914 0.08042364 0.01022265 0.118276335 0.02562267 -0.11246935
0.022780817 0.10734556 0.06920017 0.04006111 -0.107980914 -0.071665384 0.08935871 -0.07961204
0.022185175 0.00018282638 0.03797022 -0.003799743 -0.08627453 -0.047118425 0.11028443 0.017996375
0.05931284 -0.052843586 0.09680174 -0.03419207 -0.035142113 0.03832414 -0.048977375 -0.054825187
-0.01398768 0.0022418755 -0.060017858 0.055353694 -0.11558454 0.079718634 0.114558645 0.019167665
-0.04217998 -0.1174042 0.052415002 0.0971209 0.12458896 0.01499732 0.068438955 0.12014961
0.02256822 -0.04492949 -0.123447776 0.059980385 0.027209451 0.11277178 -0.06039259 0.054888815
-0.05209017 -0.0032340367 0.055033762 -0.11725768 0.08597967 0.053474568 -0.074723005 0.061540764
00000000: b06a b73d 5ae6 6dbd 445c 82bd 80dc ca3d
00000010: faf5 2d3d 8d76 9abd f248 193d 5d7d 843d
00000020: 8a73 efbd 28c9 923c f7bc 263c 33c5 06bb
00000030: d344 e53d 0d6e a1bd 9fb2 8c3d a7ee 81bd
00000040: 9d45 e3bd b757 bf3d acec 7ebd 3847 1aba
00000050: cfe1 953d c9fe d4bd 8a6a dabd 8407 2d3d
00000060: 6366 d43d 883a 06bc 4ed6 af3d e8a6 1b3d
00000070: 0ff1 263d 1c99 84bd a29a ea3d 0a5c 543d
00000080: bb4d b33c ee4e be3d 363a d1bd e339 173d
00000090: e848 66bd ba41 68bc 80a6 253d ffd2 5c3d
000000a0: 41db d13c 22bd cdbd 3841 a5bd 555d 0bbb
000000b0: 73af 89bc b389 d2bd e81e 073e 0380 8e3c
000000c0: 9ed1 b5bd 018c 8a3d 8143 5a3d f517 73bd
000000d0: ac2e 3a3d 7c05 9cbd dfa8 353d 2851 f43d
000000e0: 2782 a33d 3269 b83d e135 20bd 8b31 db3c
000000f0: 9728 2b3d 08a0 ef3c 8d81 ccbc 93f4 853c
00000100: a60d 6ebd 68fe 8bbd 412d dcbd 03f0 debd
00000110: 4a99 91bd 633f 043e b6ce 033d 6fde d7bd
00000120: 9820 74bd 8753 143d 2ffd 50bd afb3 2ebd
00000130: 0390 2abd 5ecd 0ebd 9c03 c33c 4bee 89ba
00000140: 6ce4 b23d 060b 983d 0e38 de3d 0bd2 17bc
00000150: d145 76bd 06d3 06bc 8d1b 9abd 08be 6f3d
00000160: 8cde 75bc ffb4 3ebd c659 c8bd 3fbf 863d
00000170: b20a 863d 0553 f83d 75a6 19bd b39d 383d
00000180: 2d3c 34bb f7b4 b0bd 75ad b5bd 9794 873d
00000190: 2756 a3bd 1558 c93d dd9f 0e3d c8b1 533d
000001a0: a62b b43d 462c 8d3d 0d47 813d 576f 943d
000001b0: cb43 49bd 05c4 98bd f5b2 03bd 25b9 7c3d
000001c0: e0b0 c43d ec5d aa3d 8dfb 46bd a110 d2bc
000001d0: 0e34 babd 4b64 883d 461e bfbd 35b6 7cbd
000001e0: 4a29 c53d e8f9 3b3d 8236 58bd 8889 babd
000001f0: 41a9 99bd 432f bd3d d80d d1bd 3e92 ef3d
00000200: bb64 ce3d 79a9 823c c504 46bd be32 c63d
00000210: ad42 c43d 88e1 dd3d b949 c93d cad8 9abd
00000220: d964 093d 4390 523d 91eb 46bd c48f 873d
00000230: 419a babd 29df a5bd dc6e 013c 11a5 0ebc
00000240: d3dd 08bd c4b2 51bd 922e 823d 0fb9 db3d
00000250: 4622 05bd d4e5 91bd 809d 3e3b 280e b6bd
00000260: 322c d6bd 68ef b8bc e163 943d 0c53 d4bd
00000270: ab1b 26bd 9239 86bd f48d eebd 75b3 fcbc
00000280: d721 9e3a 3ea8 02bc fdfa 023e bcff 793d
00000290: fa6c b93d 51e7 873d d418 8a3c 43ba 7f3d
000002a0: b4be a4bd f05b 703d 428b 253d a549 89bd
000002b0: 3945 e83d 2375 afbd 72cb 6bbd 0ac0 143b
000002c0: dad7 103d c09d 793c a494 ca3c 48fe aebd
000002d0: 3b23 d6bd bd8e d73d 4190 d0bd 441b ec3c
000002e0: 1452 953d 1408 f23d 7b6b b33b 6401 fabd
000002f0: e1c9 32bc 5f21 5bbd 2848 57bd 3cbc b03d
00000300: f139 26bd dcf3 a2bd db22 edbd 26b5 a43d
00000310: e77c 273c dd3a f23d a2e6 d13c 5556 e6bd
00000320: d69e ba3c fdd7 db3d d2b8 8d3d 1e17 243d
00000330: 1925 ddbd 4dc5 92bd b301 b73d a30b a3bd
00000340: afbd b53c 15b5 3f39 a986 1b3d 1c05 79bb
00000350: b3b0 b0bd 40ff 40bd cedc e13d 226d 933c
00000360: 05f2 723d 8472 58bd fe3f c63d fc0c 0cbd
00000370: 2df1 0fbd c6f9 1c3d 809c 48bd 6090 60bd
00000380: 952c 65bc 6eec 123b 49d5 75bd 8eba 623d
00000390: 96b7 ecbd 8643 a33d b99d ea3d 8205 9d3c
000003a0: eac4 2cbd 9d71 f0bd 1db1 563d 53e7 c63d
000003b0: 7f28 ff3d 52b7 753c b929 8c3d 0011 f63d
000003c0: fde0 b83c fc07 38bd 30d2 fcbd fead 753d
000003d0: 5be6 de3c e4f4 e63d 385e 77bd 18d3 603d
000003e0: 815c 55bd 22f2 53bb 156b 613d cb24 f0bd
000003f0: 1c16 b03d 2608 5b3d 6008 99bd 2b12 7c3d

lstm.bias_ih_l0 f4 [256]
0.104106456 -0.09927741 0.042262886 0.048543565 0.013604156 -0.05500239 -0.0758424 -0.0015759976
-0.07123553 0.030653358 -0.10676046 0.0904603 -0.060065098 0.066277504 -0.04496645 -0.032936588
0.021583185 -0.10058764 0.048213385 0.10899408 -0.1283255 0.03802131 -0.12436296 -0.011446239
-0.06989057 -0.116100825 0.03601898 0.05276322 0.012308102 0.014753865 -0.084256925 0.051648233
-0.10200229 -0.029619144 -0.046762012 -0.07471813 0.100967206 0.08022349 0.051576614 -0.058413416
-0.09402292 -0.040916223 -0.04146265 0.0096337665 0.04505776 0.123228915 0.082831204 -0.106180355
0.087689295 -0.13410868 0.00078489695 -0.009813692 -0.045985486 -0.03620767 -0.061542 0.070726976
-0.09270445 0.0046685333 0.036243707 0.07022304 0.0070554875 0.099170655 -0.12347339 -0.07379713
-0.11323549 -0.014567257 -0.077100225 0.07200096 -0.09635807 -0.0071171536 0.0974614 -0.124793224
0.02329881 -0.124154374 0.03515856 -0.04321068 -0.11351742 0.014947108 -0.00084247155 0.023433385
0.067501165 -0.0017905978 -0.06662702 0.11266023 -0.064477324 0.09582454 0.075562 -0.12936525
-0.047068134 0.008141023 -0.11304352 0.003545689 -0.057739634 -0.08723469 0.07293614 0.019448226
0.11498669 -0.03223948 -0.028570017 -0.099680625 0.00873058 0.0810567 -0.02901019 -0.049942613
0.0618484 -0.010395105 0.023821674 0.116322935 0.09523844 0.11711495 -0.1282204 0.013092808
0.0756675 0.09007189 -0.12937286 0.07090993 -0.080942854 -0.07094971 -0.077659346 -0.07367294
-0.030580131 -0.017718924 -0.06692286 0.059439506 -0.078439996 0.09599442 -0.1124461 0.031678364
-0.11752407 -0.07083997 0.09056162 -0.06459134 -0.069646955 0.021802465 -0.08917002 -0.08254174
0.100822024 0.054128613 -0.00057082117 0.084816754 0.055621 0.07353559 0.07905755 -0.022437844
-0.0112831 -0.09014165 0.12044876 0.031744637 0.06260175 0.05817049 -0.0032620407 -0.107880875
0.045513656 -0.045800682 0.04798539 0.010254601 0.059374083 0.112037 -0.03702697 0.023372464
-0.12306596 0.018902324 -0.13190036 -0.10819617 -0.12102718 -0.07797511 0.07734059 -0.04182199
0.10359605 -0.004925265 -0.014141693 -0.018945955 -0.11723391 0.021402491 -0.092763096 0.019150086
-0.065272555 -0.025868483 0.08082944 -0.06908217 0.03724117 -0.15452725 -0.069998376 0.07098962
0.044196006 0.000892415 0.08808297 -0.04177761 -0.029174106 0.10726039 -0.026318017 0.005292627
-0.09355901 0.09289528 -0.035760116 -0.052111804 -0.12491168 0.016499978 -0.106997654 0.09532794
0.05779755 -0.105160385 -0.1270178 0.019144967 -0.09191083 -0.13115376 0.07558827 -0.051073007
0.028739689 0.014924419 -0.087526545 -0.066079214 0.00995365 -0.12699603 -0.026411975 -0.015685486
-0.08286837 0.10823012 -0.12675713 -0.11584709 -0.09609932 0.045762178 -0.11856519 0.051610835
0.10842605 0.120736435 0.12057941 -0.00044803167 -0.107544124 0.013491055 0.040655933 -0.01830625
-0.12572193 0.09051201 0.026888376 0.08900065 -0.03285536 -0.10881957 0.10860526 -0.12608877
-0.109206684 0.09428407 -0.056298748 0.045169614 0.053097047 -0.016652191 -0.024505408 0.05808455
-0.03259124 0.030146906 -0.060620714 -0.09387669 -0.087104 -0.1419439 -0.029525729 -0.07683822
00000000: c435 d53d f451 cbbd d91b 2d3d 9ed5 463d
00000010: f7e3 5e3c 304a 61bd 4353 9bbd b491 ceba
00000020: efe3 91bd c01c fb3c 3aa5 dabd 4043 b93d
00000030: d206 76bd 80bc 873d be2e 38bd 84e8 06bd
00000040: 38cf b03c e500 cebd 667b 453d 4a38 df3d
00000050: c367 03be 3cbc 1b3d 02b2 febd 0289 3bbc
00000060: ca22 8fbd 45c6 edbd a388 133d 3f1e 583d
00000070: eca7 493c 32ba 713c e58e acbd 198d 533d
00000080: 94e6 d0bd d9a3 f2bc 8689 3fbd d205 99bd
00000090: e5c7 ce3d 374c a43d 0042 533d e842 6fbd
000000a0: 178f c0bd c597 27bd bdd4 29bd f2d6 1d3c
000000b0: 7c8e 383d 715f fc3d 68a3 a93d 1675 d9bd
000000c0: 7296 b33d c953 09be 8bc1 4d3a 9cc9 20bc
000000d0: 475b 3cbd 7e4e 14bd 7713 7cbd 4ed9 903d
000000e0: d5db bdbd 7ffa 983b 4874 143d 19d1 8f3d
000000f0: b831 e73b fc19 cb3d 9edf fcbd f322 97bd
00000100: 02e8 e7bd 81ab 6ebc b9e6 9dbd 3d75 933d
00000110: 6157 c5bd 0337 e9bb d899 c73d 9793 ffbd
00000120: 25dd be3c a644 febd 6c02 103d affd 30bd
00000130: d27b e8bd b7e4 743c 4fd9 5cba 5ff7 bf3c
00000140: 0d3e 8a3d 7eb2 eaba bf73 88bd 68ba e63d
00000150: b00c 84bd a83f c43d 40c0 9a3d 5378 04be
00000160: 84ca 40bd ed61 053c 5c83 e7bd ca5e 683b
00000170: 6580 6cbd 1aa8 b2bd 8b5f 953d e351 9f3c
00000180: 247e eb3d 8c0d 04bd ab0b eabc 5b25 ccbd
00000190: b50a 0f3c 0e01 a63d c7a6 edbc a090 4cbd
000001a0: bf54 7d3d 3b50 2abc ac25 c33c b83a ee3d
000001b0: 5f0c c33d f7d9 ef3d 354c 03be 3883 563c
000001c0: 90f7 9a3d 9c77 b83d 527a 04be 3a39 913d
000001d0: 5ec5 a5bd 154e 91bd dd0b 9fbd d7e1 96bd
000001e0: 2f83 fabc 4727 91bc da0e 89bd d776 733d
000001f0: 26a5 a0bd b998 c43d 244a e6bd 2cc1 013d
00000200: 76b0 f0bd 8c14 91bd 5f78 b93d 7748 84bd
00000210: 10a3 8ebd 159b b23c c59e b6bd a50b a9bd
00000220: c77b ce3d f7b5 5d3d 29a3 15ba 68b4 ad3d
00000230: d8d2 633d d499 963d ede8 a13d 92cf b7bc
00000240: c0dc 38bc 2f9c b8bd d7ad f63d aa06 023d
00000250: 5935 803d 2e44 6e3d f6c7 55bb a6f0 dcbd
00000260: 876c 3a3d 7f99 3bbd 548c 443d ea02 283c
00000270: 3d32 733d a873 e53d 98a9 17bd 9c77 bf3c
00000280: 020a fcbd 0cd9 9a3c e310 07be f495 ddbd
00000290: 19dd f7bd 6ab1 9fbd be64 9e3d 894d 2bbd
000002a0: 2a2a d43d 1e64 a1bb 8fb2 67bc 8c34 9bbc
000002b0: 5518 f0bd 4754 af3c 94fa bdbd a4e0 9c3c
000002c0: 9ead 85bd 24ea d3bc e889 a53d f47a 8dbd
000002d0: 328a 183d 643c 1ebe 4f5b 8fbd 0263 913d
000002e0: df06 353d f5f0 693a d864 b43d 001f 2bbd
000002f0: 89fe eebc 56ab db3d e298 d7bc c66d ad3b
00000300: de9b bfbd e13f be3d 3379 12bd 3073 55bd
00000310: b2d1 ffbd f62a 873c 9621 dbbd 4c3b c33d
00000320: 20bd 6c3d 545e d7bd f410 02be e8d5 9c3c
00000330: bf3b bcbd 2c4d 06be 06ce 9a3d ee31 51bd
00000340: 7f6f eb3c 8d85 743c 1e41 b3bd 8a54 87bd
00000350: a214 233c 3f0b 02be ed5d d8bc d97e 80bc
00000360: e4b6 a9bd c1a7 dd3d 9fcc 01be 3d41 edbd
00000370: b8cf c4bd 1f71 3b3d 4ed2 f2bd e265 533d
00000380: 7a0e de3d aa44 f73d 56f2 f63d cbe5 eab9
00000390: 1840 dcbd 9609 5d3c d686 263d fdf6 95bc
000003a0: 40bd 00be 5c5e b93d 0345 dc3c f945 b63d
000003b0: 5893 06bd cbdc debd 6f6c de3d 6a1d 01be
000003c0: c1a7 dfbd 0218 c13d 8499 66bd c603 393d
000003d0: 4a7c 593d 2d6a 88bc 91bf c8bc 11ea 6d3d
000003e0: 647e 05bd a5f6 f63c 6d4d 78bd 6c42 c0bd
000003f0: 9563 b2bd be59 11be f1df f1bc 5b5d 9dbd

lstm.bias_hh_l0 f4 [256]
0.041602742 -0.0030715333 -0.10528543 -0.09526945 -0.070641324 0.033093587 -0.0033828793 0.0137680555
-0.10007961 -0.08106365 -0.03088538 0.03651883 -0.13481691 0.04772878 0.065659374 -0.13738243
0.05548203 0.02851703 0.04040828 -0.07349624 0.04380733 -0.081968874 -0.06507055 0.033704683
-0.039910197 0.07912273 -0.033229787 -0.12286263 -0.10890792 -0.020924117 -0.11252562 0.08079073
0.10614693 0.079979 -0.0971332 -0.04952517 0.09027933 0.008927593 -0.0028369606 -0.019946003
-0.08562403 -0.04605444 0.08020749 -0.028647298 -0.051507644 0.06759694 -0.06492937 -0.022033265
0.0841545 -0.00023979202 0.043896798 -0.086326286 0.036675997 -0.065410115 0.11473121 -0.035556287
-0.10426944 -0.04700543 0.08321155 0.07276424 0.013487029 0.0784484 -0.042851485 -0.017070837
0.08732976 -0.012324314 0.026583783 0.062919535 -0.027265467 -0.09057252 0.0053283894 -0.009132398
-0.040657498 0.10326883 0.081202574 -0.123684146 -0.051738754 -0.019407263 0.062084276 -0.047462467
-0.026666658 -0.021282472 -0.08653448 -0.1168887 -0.1252181 0.012598223 0.05048324 -0.014796293
0.10422347 -0.02165292 0.08025253 -0.03877837 -0.07557297 -0.010814314 -0.14471428 0.012553909
0.01706412 0.051579706 0.07218442 0.087494515 -0.0874155 -0.13479145 -0.004680275 -0.061832696
-0.017425304 0.09355147 0.019349467 0.013546405 -0.12847522 -0.0017418981 -0.115534246 -0.039417382
0.060006045 -0.030943623 0.031701013 0.021178585 0.06103114 0.031771265 -0.118137725 -0.01688839
0.00039154105 -0.06806276 -0.10640583 -0.10154142 0.051063295 -0.05843291 -0.010958858 0.028378772
0.04156188 0.063239776 0.116888225 0.07201806 0.037188955 -0.025934074 0.05748327 -0.020310348
0.15004982 -0.05027889 -0.038150813 0.0659233 -0.04166554 0.051410664 -0.05522469 0.0055578807
0.14228886 0.014757858 -0.06342817 0.05500955 -0.04505492 -0.042333204 -0.119258255 -0.075088434
-0.04737396 0.07512768 -0.06296442 -0.06116863 -0.13032432 0.031916697 -0.07435484 -0.071849346
-0.026555374 -0.15950218 -0.016586365 -0.025196968 0.084118344 -0.023705676 -0.13471296 -0.060989317
0.019940654 -0.020417219 0.14591677 -0.08235128 -0.13598476 0.04003254 -0.072571784 0.059447028
0.062166177 -0.0023962718 0.069018796 -0.046038724 -0.04217292 -0.07612279 -0.05163888 -0.14422221
0.09746735 0.009542883 -0.009687237 0.08195041 0.07397793 0.0412635 0.09276562 0.035067294
-0.008645942 0.091189526 0.045042023 0.07816203 0.022896802 -0.095946915 -0.04131916 0.08506656
-0.056389995 -0.06430407 -0.06634326 -0.11253431 0.055489037 0.064924985 -0.07148029 -0.14091149
0.0321682 0.009009616 0.078542784 0.021259215 -0.05193883 0.059798542 0.072552584 0.058014918
0.072646216 -0.12871222 0.036038026 0.060788646 0.07004702 -0.07602236 0.01782386 -0.12643732
0.08722132 0.012436378 0.09111592 0.01367381 -0.054702275 0.052117635 0.06976428 -0.07521309
-0.0055859885 -0.0704071 -0.08640393 0.053006086 -0.12380191 0.050544582 -0.09273081 -0.008483329
-0.06480023 0.039351877 0.09617818 -0.116506554 -0.05757462 -0.022252722 -0.10912928 -0.10837811
-0.06515158 -0.048787672 0.087522216 0.013763405 0.100692935 -0.119138144 -0.057974163 -0.006150133
00000000: a367 2a3d c74b 49bb e39f d7bd a11c c3bd
00000010: 66ac 90bd 248d 073d 4cb3 5dbb 6993 613c
00000020: 8af6 ccbd b304 a6bd 5603 fdbc c594 153d
00000030: 720d 0abe 417f 433d 6c78 863d fbad 0cbe
00000040: 2041 633d 8c9c e93c 2783 253d 3285 96bd
00000050: 516f 333d 4cdf a7bd b543 85bd ec0d 0a3d
00000060: e078 23bd 190b a23d f51b 08bd 679f fbbd
00000070: 1e0b dfbd 0e69 abbc d573 e6bd 9c75 a53d
00000080: 9063 d93d 08cc a33d c5ed c6bd e8da 4abd
00000090: 5fe4 b83d 0a45 123c 4dec 39bb cd65 a3bc
000000a0: a75b afbd 95a3 3cbd d343 a43d bdad eabc
000000b0: aef9 52bd 4470 8a3d b1f9 84bd 1b7f b4bc
000000c0: 3259 ac3d ae70 7bb9 21cd 333d d6cb b0bd
000000d0: 9239 163d bdf5 85bd 32f8 ea3d 78a3 11bd
000000e0: 378b d5bd c488 40bd d16a aa3d 6b05 953d
000000f0: b3f8 5c3c 8ea9 a03d 0a85 2fbd 24d8 8bbc
00000100: f2d9 b23d ebeb 49bc 3cc6 d93c f5db 803d
00000110: d45b dfbc 167e b9bd c599 ae3b 0ea0 15bc
00000120: 7a88 26bd 9c7e d33d 894d a63d 1d4e fdbd
00000130: 04ec 53bd fbfb 9ebc 154c 7e3d 0168 42bd
00000140: 0974 dabc 9458 aebc fd38 b1bd 5863 efbd
00000150: 2c39 00be c768 4e3c 84c7 4e3d 276c 72bc
00000160: 1d73 d53d 7761 b1bc 705b a43d 11d6 1ebd
00000170: 00c6 9abd 852e 31bc fb2f 14be e9ae 4d3c
00000180: 0eca 8b3c 3e45 533d 6dd5 933d 5330 b33d
00000190: e606 b3bd c506 0abe fe5c 99bb 4844 7dbd
000001a0: 83bf 8ebc ea97 bf3d c682 9e3c bef1 5d3c
000001b0: 028f 03be 6750 e4ba 389d ecbd 1f74 21bd
000001c0: e6c8 753d 7b7d fdbc ecd8 013d b67e ad3c
000001d0: cafb 793d 9622 023d 31f2 f1bd 8559 8abc
000001e0: c047 cd39 7d64 8bbd 4deb d9bd f3f4 cfbd
000001f0: bf27 513d 5957 6fbd c88c 33bc 997a e83c
00000200: ca3c 2a3d db83 813d 1863 ef3d 347e 933d
00000210: 7253 183d b273 d4bc 9473 6b3d e361 a6bc
00000220: a9a6 193e 3df1 4dbd 0744 1cbd cc02 873d
00000230: 7ca9 2abd fd93 523d 4933 62bd e21e b63b
00000240: 2cb4 113e f1ca 713c a1e6 81bd b251 613d
00000250: 828b 38bd 9565 2dbd ac3d f4bd f7c7 99bd
00000260: 330b 42bd 8bdc 993d 7df3 80bd f58b 7abd
00000270: bd73 05be 15bb 023d 5a47 98bd c025 93bd
00000280: a88a d9bc 8a54 23be 21e0 87bc df69 cebc
00000290: 3d46 ac3d 6832 c2bc 32f2 09be efcf 79bd
000002a0: 955a a33c 0342 a7bc 356b 153e caa7 a8bd
000002b0: 973f 0bbe 29f9 233d 84a0 94bd ba7e 733d
000002c0: f6a1 7e3d c50a 1dbb ba59 8d3d 1a93 3cbd
000002d0: 83bd 2cbd 44e6 9bbd 4a83 53bd fdae 13be
000002e0: f69c c73d c159 1c3c 38b7 1ebc 9ed5 a73d
000002f0: be81 973d ea03 293d e7fb bd3d b9a2 0f3d
00000300: b6a7 0dbc 93c1 ba3d fc7d 383d 6a13 a03d
00000310: 1392 bb3c d17f c4bd 483e 29bd 6037 ae3d
00000320: 32f9 66bd dab1 83bd fade 87bd 6378 e6bd
00000330: 7948 633d 64f7 843d 4264 92bd 1a4b 10be
00000340: cdc2 033d 129d 133c 0adb a03d ce27 ae3c
00000350: d0bd 54bd 51ef 743d 7396 943d 0da1 6d3d
00000360: 8ac7 943d 23cd 03be 9c9c 133d 84fd 783d
00000370: d074 8f3d 9cb1 9bbd 5803 923c c978 01be
00000380: 17a1 b23d f3c1 4b3c fc9a ba3d 1e08 603c
00000390: 7e0f 60bd 4d79 553d 93e0 8e3d 5209 9abd
000003a0: ab0a b7bb 9931 90bd 8bf4 b0bd e91c 593d
000003b0: db8b fdbd d607 4f3d a7e9 bdbd a9fd 0abc
000003c0: fcb5 84bd 6f2f 213d 11f9 c43d fd9a eebd
000003d0: 5dd3 6bbd 574b b6bc 2c7f dfbd 58f5 ddbd
000003e0: 316e 85bd 95d5 47bd d93e b33d e87f 613c
000003f0: 1938 ce3d b3fe f3bd 5176 6dbd 0e87 c9bb

lstm.weight_ih_l1 f4 [256, 64]
-0.09869781 0.06817578 -0.00839609 -0.12222566 -0.13904332 0.010143112 0.043568783 0.0010599693
-0.04340776 0.0769322 -0.016321441 -0.06241176 0.0960851 -0.027023176 -0.035403676 -0.010221095
-0.030882861 0.0018407721 -0.054467183 0.063675776 0.013066416 0.065518156 0.01578069 0.082076356
-0.09027368 0.069564275 0.049204484 0.05052215 -0.057260532 0.03193458 -0.051552255 -0.049157247
-0.020064363 -0.013651993 0.056274187 0.13577369 -0.03314175 0.11676593 0.061350238 -0.109153435
0.08947127 -0.102933004 -0.0502339 -0.048782293 -0.0033983586 -0.12502374 -0.10730683 -0.10318852
-0.05757489 0.009668676 0.07791727 -0.11414489 -0.0020780044 0.09305154 0.03296325 0.022357844
-0.11708935 0.10552632 -0.041724343 0.047161978 -0.07865337 -0.026870959 0.081984885 -0.077138275
-0.12051578 0.0006152098 0.086273514 -0.10726513 0.013174008 -0.038176727 0.047274362 0.05552488
0.08523561 -0.04248462 -0.11007529 -0.011430073 0.090125956 -0.077748604 0.07007708 -0.13109499
0.07057319 0.044247597 -0.09006315 -0.051964577 0.03724659 0.023126522 0.06549557 -0.072529554
0.08470296 -0.13626143 0.02288325 -0.045838293 -0.119450904 -0.05675872 0.12994437 -0.0927585
0.060049504 0.09247506 -0.098281674 0.0389583 -0.0761988 -0.09687256 -0.1416746 0.006649824
-0.06635256 -0.00039909032 0.10266558 0.082797974 -0.08603878 0.021707255 -0.016859252 0.018802762
0.10765501 -0.118357025 -0.08993797 0.029415423 0.02780742 -0.05836993 -0.0941734 -0.010543672
-0.055582494 0.024888057 -0.055034205 0.108420745 0.0425022 -0.06181675 -0.07498379 0.15214449
-0.08449071 -0.10783674 0.014906178 -0.048099652 0.084245674 0.01269256 -0.08974002 -0.12361313
-0.09227681 0.09794674 -0.017287513 -0.052136388 0.07310508 0.062404234 0.08899024 0.10184213
0.062841885 0.102680355 0.03862223 0.050496396 0.06283894 -0.021066982 -0.039356504 -0.06304151
-0.06529966 0.13723822 0.058235377 0.07228402 0.061863154 0.08933397 0.057469845 -0.026594542
-0.09658162 0.06781616 -0.012952945 -0.07793538 0.11313473 0.10177375 0.08530027 -0.059561193
-0.05388799 0.091762096 0.050729115 -0.04531155 -0.07780745 -0.035856184 -0.017494539 -0.0638884
-0.113574885 -0.011979901 0.108284935 -0.013116834 0.039992124 0.011319906 -0.090607874 0.11528705
0.11144402 -0.008473615 0.040695313 0.036710232 -0.09820746 0.034751903 -0.07939258 0.045393743
-0.11928413 0.022374664 -0.02136081 -0.12672862 0.020117916 -0.016889673 0.018849356 0.038775675
0.10790912 -0.069851525 0.06565815 -0.09497214 0.07569435 0.025489662 0.1277285 -0.07090769
0.026602067 -0.046691403 -0.07668794 -0.12535721 0.10243202 -0.025231278 0.09736902 -0.09522609
0.08293212 0.04927881 0.08679936 0.09986674 -0.09818172 -0.0021763737 -0.09161128 0.0062269233
0.079538785 0.046281777 0.04866458 -0.071188726 -0.13286553 -0.015078136 0.06583387 0.120553285
0.13668014 0.07255973 0.017405491 -0.09779076 0.010930952 0.052237876 0.03064677 -0.06164309
-0.041683897 0.054986503 -0.013014992 -0.009473772 -0.025757309 0.028319376 -0.06010834 0.05264368
-0.0012623497 -0.051580783 -0.0033289164 -0.07114849 0.11684604 -0.0588708 0.12884185 -0.096007645
00000000: 1422 cabd be9f 8b3d c18f 09bc 7251 fabd
00000010: 5f61 0ebe 4c2f 263c 2e75 323d abee 8a3a
00000020: 56cc 31bd a18e 9d3d 8bb4 85bc 79a3 7fbd
00000030: 44c8 c43d b55f ddbc 7203 11bd 6176 27bc
00000040: 0efe fcbc 1046 f13a fb18 5fbd 7268 823d
00000050: 8514 563c 622e 863d 8146 813c a617 a83d
00000060: 68e1 b8bd b777 8e3d a48a 493d 50f0 4e3d
00000070: 058a 6abd d6cd 023d 7528 53bd 1c59 49bd
00000080: 055e a4bc 9cac 5fbc c37f 663d 4208 0b3e
00000090: a5bf 07bd fa22 ef3d 634a 7b3d d68b dfbd
000000a0: b73c b73d 8ace d2bd 10c2 4dbd f1cf 47bd
000000b0: ffb6 5ebb 3906 00be afc3 dbbd 8154 d3bd
000000c0: a6d3 6bbd 5e69 1e3c 1793 9f3d ccc4 e9bd
000000d0: 212f 08bb ce91 be3d 7904 073d cc27 b73c
000000e0: 8bcc efbd 2f1e d83d 25e7 2abd eb2c 413d
000000f0: 0515 a1bd 7c20 dcbc b1e7 a73d acfa 9dbd
00000100: fad0 f6bd 0846 213a 2bb0 b03d d2ad dbbd
00000110: cbd7 573c 335f 1cbd c3a2 413d 0e6e 633d
00000120: 0290 ae3d 5a04 2ebd 276f e1bd 3345 3bbc
00000130: f593 b83d a93a 9fbd 9284 8f3d c43d 06be
00000140: ad88 903d f83c 353d 0773 b8bd cfd8 54bd
00000150: e18f 183d d573 bd3c 8b22 863d 608a 94bd
00000160: bf78 ad3d 1e88 0bbe a775 bb3c efc0 3bbd
00000170: ada2 f4bd d57b 68bd 2310 053e 2bf8 bdbd
00000180: 78f6 753d 9063 bd3d e747 c9bd bd92 1f3d
00000190: 1e0e 9cbd 1f65 c6bd 2513 11be c4e6 d93b
000001a0: dae3 87bd ff3c d1b9 5542 d23d fc91 a93d
000001b0: 1a35 b0bd 6ad3 b13c 6a1c 8abc 4008 9a3c
000001c0: 3b7a dc3d 2b65 f2bd 6631 b8bd 9df8 f03c
000001d0: 63cc e33c 4f15 6fbd fcdd c0bd 5ebf 2cbc
000001e0: 78aa 63bd 0ae2 cb3c 8c6b 61bd b20b de3d
000001f0: c916 2e3d 8f33 7dbd 1a91 99bd c4cb 1b3e
00000200: 7709 adbd 82d9 dcbd 0b39 743c 2404 45bd
00000210: ff88 ac3d 75f4 4f3c 9ec9 b7bd e128 fdbd
00000220: a0fb bcbd 4d98 c83d 8b9e 8dbc f78c 55bd
00000230: 1eb8 953d 959b 7f3d 8440 b63d 9b92 d03d
00000240: 3fb3 803d 144a d23d 5832 1e3d 4fd5 4e3d
00000250: b4b1 803d aa94 acbc 4934 21bd e81b 81bd
00000260: d4bb 85bd 2d88 0c3e 3888 6e3d a509 943d
00000270: 3864 7d3d baf4 b63d 8065 6b3d ccdc d9bc
00000280: 96cc c5bd 33e3 8a3d 9738 54bc 969c 9fbd
00000290: 2eb3 e73d c16e d03d e8b1 ae3d 70f6 73bd
000002a0: a7b9 5cbd c4ed bb3d 55c9 4f3d 9b98 39bd
000002b0: 8359 9fbd efdd 12bd b550 8fbc ecd7 82bd
000002c0: f399 e8bd 5947 44bc 7ec4 dd3d fde7 56bc
000002d0: c8ce 233d 2177 393c 9f90 b9bd 9e1b ec3d
000002e0: c33c e43d ebd4 0abc 21b0 263d 785d 163d
000002f0: fe20 c9bd 0358 0e3d 9498 a2bd caee 393d
00000300: 3d4b f4bd 124b b73c defc aebc 26c5 01be
00000310: 54ce a43c 365c 8abc f769 9a3c 3ed3 1e3d
00000320: 75ff dc3d 510e 8fbd c877 863d c180 c2bd
00000330: a405 9b3d b2cf d03c 43cb 023e 0d38 91bd
00000340: 94ec d93c 7c3f 3fbd 910e 9dbd a45d 00be
00000350: e1c7 d13d d3b1 cebc 6969 c73d e505 c3bd
00000360: 51d8 a93d 94d8 493d ddc3 b13d ef86 cc3d
00000370: 7f13 c9bd 7ea1 0ebb b29e bbbd 380b cc3b
00000380: 3be5 a23d f691 3d3d 8354 473d 65cb 91bd
00000390: e70d 08be 490a 77bc e8d3 863d a4e4 f63d
000003a0: e1f5 0b3e 329a 943d f695 8e3c 8646 c8bd
000003b0: bc17 333c 62f7 553d ef0e fb3c 777d 7cbd
000003c0: bcbc 2abd 8739 613d d53c 55bc e137 1bbc
000003d0: fe00 d3bc 09fe e73c 2a34 76bd e6a0 573d
000003e0: 6d75 a5ba 5f46 53bd f329 5abb 4db6 91bd
000003f0: fa4c ef3d 8222 71bd 1eef 033e a89f c4bd

lstm.weight_hh_l1 f4 [256, 64]
0.11062518 0.16972363 -0.05462809 -0.1165408 0.11873007 0.041366097 -0.101853475 0.14157487
0.040941715 -0.08391361 -0.019903257 0.0712839 -0.030346604 0.106693015 0.10473684 -0.07788028
-0.027447084 0.06439916 0.08975567 0.059987508 0.111615 -0.053536665 0.023997888 -0.08212027
-0.06119617 0.003248056 -0.01479393 -0.0063704243 0.027444404 -0.06927199 -0.04429491 0.00026889713
0.09703451 -0.094760776 -0.06361298 0.083732374 0.048994247 -0.04329461 0.07933257 -0.07616092
-0.079225786 -0.038181003 0.077871755 0.010990996 0.026621683 0.051767636 -0.054712303 0.036588613
0.0048406664 0.0060252235 0.026476793 0.01040571 -0.08268108 0.120402895 -0.0068276403 0.12095911
-0.014655457 -0.07017409 -0.013483193 -0.086117536 0.00086312933 0.08674013 -0.028918786 0.104695156
-0.07708088 -0.022928368 0.10562364 0.049581103 0.02846009 -0.017966647 -0.031106587 0.011171269
-0.086015955 -0.05621405 -0.05990951 -0.06664134 -0.052682076 -0.026007967 0.01421446 0.049766954
-0.032888092 0.063271135 -0.0647517 -0.066323064 0.071760535 -0.09428844 0.09849278 -0.0980076
0.07536647 -0.07139849 -0.0018403768 -0.079621285 -0.06640015 0.037660897 -0.05682678 -0.10553589
-0.08869201 -0.07507525 -0.058745116 0.07619588 0.0043591787 0.015059093 -0.13069522 -0.15484908
0.022902414 -0.08057081 -0.003876794 -0.07157897 -0.098389775 -0.094012775 0.07894594 0.07065625
-0.02714537 0.043558404 -0.02153295 -0.028886918 0.041345667 -0.018759442 -0.1233424 -0.049573455
0.1231437 -0.06812334 0.064230606 -0.14622079 -0.002632749 -0.090247974 0.032553345 -0.03936345
0.11204403 0.09911466 -0.09440356 0.048267506 0.02324588 0.120783515 -0.061937854 0.018690184
-0.008584913 0.105399296 -0.061008554 0.03202058 -0.07058686 -0.05766206 0.0837415 -0.07441781
-0.11880515 -0.061709203 0.114303485 0.08976738 -0.013749156 -0.053359456 0.116642095 0.084949754
0.058761932 -0.13941962 0.007573496 -0.011619214 0.08773542 0.08093196 0.025904443 -0.069317974
0.05023801 -0.019042652 -0.07131298 0.15268776 0.017281434 0.06688959 0.0035404766 -0.09772738
-0.14258464 0.0857948 -0.06702653 0.020025248 0.090000086 -0.13620086 0.05477612 0.044501282
0.08695569 -0.06663865 -0.07655624 -0.06413211 -0.07659791 -0.1133792 -0.04776214 -0.0354094
-0.029821008 0.058750927 -0.06319144 -0.06844923 -0.11223566 0.00013555332 -0.1400421 -0.105639055
0.045503084 -0.12225254 0.06600791 -0.058772933 0.057254087 0.11373078 0.054532852 0.09399323
-0.12097047 -0.11089256 0.10311788 -0.02986397 0.096308045 -0.106326774 0.07829902 -0.013777474
0.0722683 -0.072391555 -0.009802325 -0.053983368 0.069250226 -0.11639695 0.020382008 0.09254063
0.06682193 -0.0842938 -0.006039941 -0.058374297 0.11901278 -0.05979786 0.0034628403 -0.09961936
0.067409806 -0.011726542 -0.07110194 0.11879957 0.09277693 -0.024114216 -0.040562138 -0.13332309
0.04609888 -0.13711467 -0.0013682646 0.08572777 0.04518485 -0.05611678 0.07985273 0.030994268
0.13865164 0.16870283 0.10271748 -0.11339772 0.02696759 -0.13594022 0.015699685 0.10540395
0.07703106 -0.029279292 -0.121920414 -0.07267565 0.023497615 0.116999514 -0.08807066 0.020517098
00000000: 748f e23d 08cc 2d3e b4c1 5fbd f1ac eebd
00000010: c028 f33d 7f6f 293d 8e98 d0bd 01f9 103e
00000020: 80b2 273d e6da abbd 280c a3bc 4bfd 913d
00000030: 7199 f8bc de81 da3d 4580 d63d b27f 9fbd
00000040: b5d8 e0bc b5e3 833d d2d1 b73d 76b5 753d
00000050: 6896 e43d 4349 5bbd 3897 c43c ac2e a8bd
00000060: d6a8 7abd 56dd 543b 3d62 72bc febe d0bb
00000070: 16d3 e03c 79de 8dbd 946e 35bd c3fa 8c39
00000080: 07ba c63d f011 c2bd 8647 82bd e17b ab3d
00000090: 31ae 483d b055 31bd 1d79 a23d 42fa 9bbd
000000a0: 2141 a2bd af63 1cbd 3a7b 9f3d 9413 343c
000000b0: b715 da3c 4d0a 543d 021a 60bd f1dd 153d
000000c0: 749e 9e3b 3d6f c53b dce5 d83c b67c 2a3c
000000d0: b354 a9bd cb95 f63d 66ba dfbb 69b9 f73d
000000e0: 711d 70bc 6fb7 8fbd 9ce8 5cbc 645e b0bd
000000f0: a143 623a cfa4 b13d 17e7 ecbc 6a6a d63d
00000100: 95dc 9dbd 46d4 bbbc 3551 d83d 8e15 4b3d
00000110: 2225 e93c ca2e 93bc 3ed3 febc b307 373c
00000120: 2229 b0bd b440 66bd ad63 75bd 417b 88bd
00000130: 29c9 57bd a90e d5bc c4e3 683c 6fd8 4b3d
00000140: aab5 06bd 4c94 813d 8a9c 84bd 63d4 87bd
00000150: 30f7 923d 4c1a c1bd 95b6 c93d 35b8 c8bd
00000160: bc59 9a3d 5f39 92bd cc38 f1ba 7c10 a3bd
00000170: cdfc 87bd 5042 1a3d 33c3 68bd 3323 d8bd
00000180: 28a4 b5bd 0dc1 99bd b89e 70bd 960c 9c3d
00000190: 71d7 8e3b 6aba 763c f8d4 05be c290 1ebe
000001a0: d89d bb3c 4f02 a5bd cf11 7ebb ff97 92bd
000001b0: 9480 c9bd c589 c0bd 69ae a13d 39b4 903d
000001c0: f85f debc 4c6a 323d df65 b0bc 42a4 ecbc
000001d0: 135a 293d 67ad 99bc f19a fcbd 890d 4bbd
000001e0: c432 fc3d 4084 8bbd 568b 833d e7ba 15be
000001f0: 338a 2cbb eed3 b8bd a856 053d 923b 21bd
00000200: 5777 e53d a0fc ca3d a756 c1bd 26b4 453d
00000210: 256e be3c 595d f73d 8cb2 7dbd 281c 993c
00000220: bca7 0cbc 96db d73d 1be4 79bd 0328 033d
00000230: d88f 90bd 0d2f 6cbd aa80 ab3d 5d68 98bd
00000240: 1d50 f3bd cac2 7cbd f217 ea3d f6d7 b73d
00000250: 2444 61bc 728f 5abd 0de2 ee3d 23fa ad3d
00000260: 5ab0 703d 04c4 0ebe 172b f83b 845e 3ebc
00000270: a1ae b33d a8bf a53d 8e35 d43c 95f6 8dbd
00000280: 5fc6 4d3d 56ff 9bbc 8a0c 92bd 2e5a 1c3e
00000290: cb91 8d3c 69fd 883d 5707 683b 4b25 c8bd
000002a0: b501 12be 2fb5 af3d 3545 89bd fd0b a43c
000002b0: f751 b83d 3d78 0bbe ed5c 603d fa46 363d
000002c0: d315 b23d d879 88bd 85c9 9cbd b257 83bd
000002d0: 5ddf 9cbd 5b33 e8bd 3ca2 43bd 7209 11bd
000002e0: 304b f4bc d0a4 703d 846a 81bd 1c2f 8cbd
000002f0: cfdb e5bd 5123 0e39 3267 0fbe 4a59 d8bd
00000300: 7161 3a3d 8a5f fabd 282f 873d e3bb 70bd
00000310: 4383 6a3d afeb e83d d75d 5f3d 867f c03d
00000320: 5ebf f7bd a31b e3bd 782f d33d 49a5 f4bc
00000330: 273d c53d dac1 d9bd 3d5b a03d eaba 61bc
00000340: 6701 943d 0642 94bd ee99 20bc aa1d 5dbd
00000350: 10d3 8d3d 8661 eebd 2bf8 a63c f185 bd3d
00000360: f0d9 883d 3aa2 acbd b3ea c5bb e319 6fbd
00000370: f9bc f33d 9aee 74bd d2f0 623b 3c05 ccbd
00000380: 270e 8a3d af20 40bc e59d 91bd 304d f33d
00000390: d501 be3d 2d8b c5bc 7c24 26bd d985 08be
000003a0: 2ed2 3c3d ca67 0cbe 5757 b3ba 0b92 af3d
000003b0: c013 393d b5da 65bd d489 a33d b1e7 fd3c
000003c0: b2fa 0d3e 6fc0 2c3e 8b5d d23d 103d e8bd
000003d0: 23eb dc3c ea33 0bbe a09c 803c 07de d73d
000003e0: 76c2 9d3d 20db efbc 69b1 f9bd f9d6 94bd
000003f0: 127e c03c 719d ef3d 645e b4bd 7913 a83c

lstm.bias_ih_l1 f4 [256]
0.055347905 0.101019874 -0.068681926 0.008159179 0.04654107 0.012998335 -0.04424027 0.10694845
0.01640049 -0.106129415 -0.08866924 0.01676908 -0.0760883 0.06444884 -0.13191254 -0.038149137
-0.006826994 -0.117884554 -0.0683463 0.084768295 0.06587056 -0.066736676 -0.04010866 0.05369134
-0.14199108 0.036529154 0.09452629 -0.04587492 0.0003784622 -0.04252176 0.106258474 -0.024383612
-0.13606119 -0.029864889 -0.039423846 -0.10559839 0.050940376 -0.079400375 -0.0037187308 0.08031397
0.025575208 0.13852352 -0.13426234 0.015550364 -0.064155415 0.048501447 -0.111570984 0.09721221
0.047232907 -0.02968888 -0.07326185 -0.048142124 0.009427221 -0.10082882 0.13189952 0.102634765
-0.037403427 0.026700616 -0.002609548 -0.04510792 0.027657388 -0.14032058 -0.06808573 -0.030194212
0.02307845 -0.050027665 -0.06781235 -0.124884926 0.046515185 0.13571872 -0.06771726 0.03965077
0.060283814 -0.103420295 0.119557194 0.009853942 0.08522073 -0.0004716414 0.09766842 -0.13728416
-0.020695066 -0.08563811 -0.024864566 0.11683124 -0.03021233 -0.058289036 0.08534988 -0.052272752
0.050528165 -0.12684281 -0.07145385 -0.0067934063 -0.11032033 0.12430802 -0.113623716 0.06739114
-0.030782666 0.020493168 -0.09815959 -0.09668765 -0.08960899 -0.05799279 0.08266446 -0.049670797
-0.022638176 0.117120646 -0.09665193 -0.020227408 -0.1289825 -0.04053523 0.062051613 -0.10094234
-0.087677136 0.12798002 0.095191404 0.09633692 0.0046721306 -0.024827387 -0.037414107 0.083316505
-0.08074064 0.12376973 -0.10379906 -0.120222524 0.098782465 0.014174965 -0.043531902 -0.12148331
-0.12023784 -0.0037603183 -0.13943931 0.0037832006 0.0013896397 -0.098964274 -0.09351354 -0.10139151
-0.06699764 0.10009621 0.11357406 0.017038759 -0.034227706 -0.13306683 -0.123102054 0.066098765
-0.095891304 0.052530833 0.071451366 -0.12894395 -0.12189453 0.102990575 -0.05179881 0.100692704
0.022081748 0.108121 -0.09692669 -0.013975506 -0.046986 0.102488555 -0.033918105 -0.08709512
0.07841682 0.010342029 0.10089801 0.10326732 0.069548875 -0.10778388 0.026157489 0.10809838
-0.015627896 0.056702998 0.095010534 -0.09281351 0.093541 -0.06334204 -0.009943385 0.07129643
-0.10716005 0.062746614 0.06898212 -0.0066421106 -0.061532583 0.010764156 0.09753014 -0.020899974
0.016766028 0.08264681 0.057854313 0.04166756 -0.03296376 -0.011403317 -0.093066186 -0.047116652
0.1085123 -0.121114835 -0.059400607 0.045804784 -0.016251354 -0.042629585 -0.12336711 -0.06985602
0.025139486 0.075331636 0.03364338 0.06999068 -0.10212707 0.0499173 -0.07348162 0.048635334
-0.06976443 0.103424326 -0.07624459 -0.08636906 -0.079932354 0.075632654 -0.04148492 0.013666757
-0.061459154 -0.049551405 -0.03816228 -0.09620897 0.1242841 -0.050388508 -0.034162957 0.045476682
0.1031287 0.042348474 0.04810656 -0.12117881 -0.0052339123 0.07023583 0.014352792 -0.07711201
0.06197795 0.029326785 -0.010873647 0.061297733 -0.091969185 0.10104695 -0.01820354 0.1194562
-0.028093189 0.10058329 0.067920454 -0.12409661 -0.14345978 0.058698658 -0.0143354265 0.038156603
0.015729541 0.058677305 0.024925072 -0.08287565 -0.002320679 0.012057599 0.030064067 -0.11224562
00000000: 7cb4 623d 82e3 ce3d 1ca9 8cbd 14ae 053c
00000010: d9a1 3e3d f8f6 543c 4935 35bd ca07 db3d
00000020: 525a 863c 615a d9bd 3898 b5bd 4f5f 893c
00000030: 2fd4 9bbd c1fd 833d 1514 07be 4542 1cbd
00000040: fab4 dfbb 756d f1bd 25f9 8bbd 009b ad3d
00000050: 25e7 863d 3dad 88bd fa48 24bd 73eb 5b3d
00000060: 1c66 11be 989f 153d 0097 c13d 57e7 3bbd
00000070: 566c c639 4c2b 2ebd 0b9e d93d 24c0 c7bc
00000080: a053 0bbe 36a7 f4bc e67a 21bd f843 d8bd
00000090: dba6 503d aa9c a2bd f3b5 73bb a77b a43d
000000a0: 1983 d13c 1cd9 0d3e 117c 09be f4c6 7e3c
000000b0: ea63 83bd 74a9 463d 547f e4bd 3217 c73d
000000c0: 4b77 413d 1836 f3bc 4f0a 96bd ad30 45bd
000000d0: a174 1a3c 577f cebd ab10 073e 2d32 d23d
000000e0: 5634 19bd 40bb da3c f304 2bbb 15c3 38bd
000000f0: bf91 e23c 33b0 0fbe 8870 8bbd da59 f7bc
00000100: 040f bd3c cfe9 4cbd 34e1 8abd abc3 ffbd
00000110: b586 3e3d d9f9 0a3e 59af 8abd d968 223d
00000120: 29ec 763d 05ce d3bd 67da f43d 6e72 213c
00000130: 3588 ae3d a346 f7b9 6106 c83d 3894 0cbe
00000140: b388 a9bc 0963 afbd c6b0 cbbc 3845 ef3d
00000150: d97f f7bc 7cc0 6ebd ebcb ae3d f41b 56bd
00000160: 9ff6 4e3d 15e3 01be 6556 92bd 399b debb
00000170: a0ef e1bd 3495 fe3d 8db3 e8bd 5e04 8a3d
00000180: ee2b fcbc 4ae1 a73c e507 c9bd 2d04 c6bd
00000190: eb84 b7bd d989 6dbd fc4b a93d 9b73 4bbd
000001a0: b273 b9bc f3dc ef3d 72f1 c5bd f3b3 a5bc
000001b0: fd13 04be 4508 26bd d529 7e3d dcba cebd
000001c0: 1290 b3bd 320d 033e b6f3 c23d 4b4c c53d
000001d0: ac18 993b ce62 cbbc 893f 19bd d8a1 aa3d
000001e0: 595b a5bd fc7a fd3d 9a94 d4bd 3a37 f6bd
000001f0: 764e ca3d 1d3e 683c 824e 32bd 3ecc f8bd
00000200: 423f f6bd ac6f 76bb 2ec9 0ebe 93ef 773b
00000210: 9224 b63a c8ad cabd 0784 bfbd 5aa6 cfbd
00000220: 0f36 89bd 3eff cc3d 8499 e83d de94 8b3c
00000230: 5a32 0cbd ac42 08be ee1c fcbd ca5e 873d
00000240: a962 c4bd 922a 573d 1855 923d e209 04be
00000250: d7a3 f9bd b9ec d23d fd2a 54bd fa37 ce3d
00000260: c8e4 b43c 8b6e dd3d 8081 c6bd 85f9 64bc
00000270: 6474 40bd 85e5 d13d b6ed 0abd ed5e b2bd
00000280: ff98 a03d 9d71 293c 9ea3 ce3d d17d d33d
00000290: a46f 8e3d cbbd dcbd 3b48 d63c af62 dd3d
000002a0: 1306 80bc 6741 683d e294 c23d 0215 bebd
000002b0: 6c92 bf3d 79b9 81bd 94e9 22bc dd03 923d
000002c0: ba76 dbbd 4c81 803d 7f46 8d3d 10a6 d9bb
000002d0: 9709 7cbd 245c 303c e2bd c73d 6c36 abbc
000002e0: e958 893c bb42 a93d a5f8 6c3d 9aab 2a3d
000002f0: 0205 07bd fad4 3abc 7c99 bebd 64fd 40bd
00000300: b23b de3d 0e0b f8bd 0d4e 73bd cc9d 3b3d
00000310: 8f21 85bc 5c9c 2ebd e5a7 fcbd ac10 8fbd
00000320: 53f1 cd3c 7947 9a3d a4cd 093d 4657 8f3d
00000330: ff27 d1bd 1576 4c3d 887d 96bd d835 473d
00000340: a7e0 8ebd 22d0 d33d 2026 9cbd 43e2 b0bd
00000350: 93b3 a3bd 4be5 9a3d 17ec 29bd 89ea 5f3c
00000360: 98bc 7bbd 6af6 4abd 0d50 1cbd 3509 c5bd
00000370: aa88 fe3d 2e64 4ebd 75ee 0bbd c245 3a3d
00000380: 2435 d33d 9875 2d3d 620b 453d 992c f8bd
00000390: 3d81 abbb ced7 8f3d f927 6b3c e7ec 9dbd
000003a0: 97dc 7d3d ba3e f03c 6227 32bc 5513 7b3d
000003b0: 575a bcbd b4f1 ce3d 971f 95bc 74a5 f43d
000003c0: b023 e6bc 9dfe cd3d e119 8b3d 5d26 febd
000003d0: 1fe7 12be 016e 703d 23df 6abc 194a 1c3d
000003e0: 3ddb 803c 9d57 703d aa2f cc3c b5ba a9bd
000003f0: 8816 18bb 3c8d 453c eb48 f63c 08e1 e5bd
